policy_squad2_cheap.pt (torch, 417893 bytes, 6 tensors)

fc1.weight f4 [256, 142]
000000 7a 03 2c be 86 3f 4d 3e e2 cb 2c be 30 1a 47 3c
       -0.16798201 0.20043764 -0.1687465 0.01215224
000010 56 f9 c3 be 17 90 5c be 89 91 2c bd ad a0 34 3e
       -0.38276166 -0.21539341 -0.04213098 0.17639418
000020 2a 7b 3e 3c ea c9 02 be 71 f9 52 3e a4 f7 b8 be
       0.011626044 -0.12772337 0.20602967 -0.36126435
000030 1c 0a ff 3c 22 8a 20 3e 30 db 13 3d 9b e8 a5 3d
       0.03113275 0.15677693 0.036097705 0.081010066
000040 49 a4 8e 3e 01 e8 93 be 8f 2d 02 be ea 78 4f 3e
       0.27859715 -0.28887942 -0.12712692 0.20260969
000050 b7 85 35 3e e5 37 63 bb 54 b1 eb 3d 91 b3 1e 3d
       0.1772679 -0.0034670767 0.11508432 0.038745467
000060 95 82 de be b9 9c c4 bd e2 68 f4 3d b0 1a 8b 3e
       -0.43459 -0.09600205 0.11934067 0.27168798
000070 98 7d cc 3c 5a cb 8e 3e 7a c2 33 3d 67 7f 9f 3d
       0.024962232 0.2788952 0.04388664 0.07787972
000080 f4 4d ed bc 7f 69 b6 3c 80 66 c2 3d 9c b4 98 bd
       -0.028967835 0.022267101 0.094922066 -0.074563235
000090 ff 49 b6 3d b4 e8 77 3e 05 53 b8 bd df 87 27 be
       0.089008324 0.24209863 -0.0900021 -0.16360424
0000a0 7b 94 11 3f a2 9b c0 bd 7e 22 09 3d f3 aa fc bd
       0.5686719 -0.094046846 0.03348016 -0.123372935
0000b0 05 e3 9a bd 6c f1 f0 3d 09 13 be be 59 5c 72 3e
       -0.07562832 0.117647976 -0.37123898 0.2366804
0000c0 6e 47 79 ba 38 ff a3 bd 59 98 cb 3d 55 90 af bd
       -0.000950924 -0.080076635 0.099411674 -0.08572451
0000d0 cc 93 ba 3c fd db 6b 3e 1d 8c 28 bc ae 60 5a 3e
       0.022775553 0.23033138 -0.010287312 0.21325943
0000e0 f8 0f c4 3d d7 f7 01 3e 35 46 91 3d e7 41 b1 bd
       0.09573358 0.126922 0.07093469 -0.08655148
0000f0 5b 70 ca 3c cf b9 6b bd 2c e0 5f be ed 16 50 be
       0.024711778 -0.057550248 -0.21862859 -0.20321245
000100 13 08 b0 3c 24 19 82 be 17 b1 a1 3e c8 97 a1 3e
       0.021488225 -0.25409806 0.3158042 0.31561112
000110 d6 c6 89 3c d0 cf ab bd 00 8d 32 3e 5d 59 d2 3d
       0.016818445 -0.083892465 0.174366 0.10270951
000120 5d c0 6e 3e 7d 82 b2 bd af c2 00 3d f6 36 81 bd
       0.23315568 -0.08716295 0.031435665 -0.06309311
000130 e8 e0 c7 bd cb fe c1 3e ab e3 1b be 61 12 6e 3c
       -0.09759694 0.37889704 -0.15223567 0.014530749
000140 26 9f d7 bc 17 6d 05 3d 6a db a4 bd 75 34 02 3e
       -0.026321005 0.03257474 -0.080496624 0.12715323
000150 94 6d 28 3e d3 fd 93 3e 80 ab bf be e6 e9 f2 bd
       0.1644805 0.2890459 -0.37435532 -0.11861019
000160 9c f2 f0 3d d9 0b 6b be 1c 76 cb 3e 65 00 d9 3d
       0.11765024 -0.22953738 0.39738548 0.105957784
000170 a5 c7 10 bd 5e 22 a3 be 5f 9a 95 bb 87 a2 23 be
       -0.035346646 -0.31862158 -0.0045655216 -0.15979968
000180 de 5c 48 3d 05 71 cd bd 9e 99 04 be ca a8 24 be
       0.04891669 -0.100313224 -0.12949225 -0.16080013
000190 a8 ae cd 3d 68 7f 26 3e db c9 63 3e 66 05 17 3c
       0.10043079 0.16259539 0.2224497 0.009217596
0001a0 a1 ba 08 3d f8 5a 85 be d9 72 40 be 3c 53 ca 3d
       0.03338111 -0.26045966 -0.18793811 0.09879157
0001b0 1d 49 a2 be 68 ff 21 be 85 ea 8b bc 27 2a b5 3c
       -0.31696406 -0.15820086 -0.017079601 0.022114826
0001c0 cd 69 b3 3d 74 4a 46 be ad 6c 80 3d 6e 7f cd bd
       0.08760414 -0.19364339 0.06270728 -0.10034071
0001d0 d1 a1 e1 bd 32 3c e3 bd 2c 0d 19 be f4 10 91 be
       -0.11017192 -0.11095466 -0.14946431 -0.28333247
0001e0 3c 46 08 bd a5 9d 42 3e 95 43 9c 3c 10 15 06 be
       -0.033270106 0.19005449 0.019075194 -0.13093972
0001f0 b3 42 88 bd 70 ae 6a 3e 99 cd aa 3d 78 db 80 bd
       -0.06653347 0.22918105 0.08339996 -0.0629186
000200 da 83 54 3f f6 05 4b 3f d7 aa ae 3e 5f 9d 38 3f
       0.8301369 0.7930597 0.34114715 0.7211513
000210 a0 94 30 3f d2 55 14 3f 2b b2 3e 3f 84 d6 a5 3d
       0.68976784 0.5794345 0.7449061 0.08097556
000220 bb af 34 3f 69 fb 59 3f eb 1f 48 3f f2 29 40 3f
       0.70580643 0.85149246 0.781737 0.75064003
000230 4f 5e 3e 3f 3d 47 36 3f a8 b1 be bd e8 1b ac 3e
       0.74362653 0.7120245 -0.09311229 0.3361504
000240 25 e6 47 be 24 73 3b bc 83 74 d3 be c5 18 dd bd
       -0.19521387 -0.011441026 -0.4129983 -0.1079574
000250 25 3c 2d bc 67 1b 90 3d 9c 34 1a 3e b0 fe 77 be
       -0.010573422 0.070364766 0.15059131 -0.2421825
000260 0a 56 8b 3e 70 e4 44 be e8 6e cb bc 31 6e 8f 3c
       0.2721408 -0.19227767 -0.024833158 0.017508598
000270 17 2a c8 3d 5e 4c 68 39 62 6c 92 3e f0 42 a0 be
       0.09773653 0.00022153693 0.28598315 -0.3130107
000280 71 8e 6d be 15 79 3e 3e 61 54 c3 3d b7 23 81 bd
       -0.23198868 0.18600877 0.095375784 -0.0630564
000290 d1 e0 b9 3d 58 68 0e bd bc d8 f3 be 48 57 1d be
       0.090760835 -0.03476748 -0.47626293 -0.15365326
0002a0 e1 7f 9e 3c 02 8b 8f 3e 06 8d 11 3e 22 ac 3a 3e
       0.019348087 0.28035742 0.14213952 0.18229726
0002b0 a8 4b 90 bc dd 53 c5 3c 55 ac 77 bc 36 7b cc 3d
       -0.0176142 0.02408784 -0.015116771 0.09984438
0002c0 ff 52 c4 3d c2 e5 7c bd 89 67 de 3d 70 c6 84 3e
       0.09586143 -0.06174255 0.108595915 0.25932646
0002d0 6c 03 bc bd 32 bd 1d be 84 37 d6 3e 0d 2e 4d be
       -0.0918034 -0.15404204 0.4183923 -0.20037098
0002e0 78 fd 89 bd 13 83 f7 bd 65 21 4c be dc 05 18 bd
       -0.067377985 -0.12085547 -0.19934614 -0.037114963
0002f0 52 61 8d be b2 42 38 3e 50 d5 5b bd 5d ed 0f bd
       -0.27613312 0.17994192 -0.053670228 -0.035138477
000300 1f 27 80 3e 81 4a cf bd fb 31 2a be ef 93 b1 3e
       0.25029847 -0.10121632 -0.16620629 0.34683177
000310 80 48 1f bd 2a 89 5f 3e 5a 95 d7 3d dc 12 0a 3e
       -0.0388875 0.21829668 0.105265334 0.13483757
000320 bf a9 aa 3d a2 65 72 be 68 d2 fa bd 5a 21 9b bc
       0.08333158 -0.23671582 -0.12247163 -0.018936802
000330 22 e7 60 be 7c 77 7c be c3 b8 e3 bd a3 0b 4e be
       -0.2196317 -0.24654955 -0.11119225 -0.20121627
000340 fc d1 84 3e 92 dd 1e 3e ce ae ca bc 56 6d 1d 3d
       0.25941455 0.1551421 -0.024741556 0.03843435
000350 b1 0e 81 bc 44 48 43 3e 1d 43 d0 3e 5c 3f 98 3c
       -0.015754076 0.19070536 0.40676203 0.0185849
000360 89 e8 00 be 1a 5a 95 bd 8c d9 cb 3c e5 59 72 3e
       -0.12588705 -0.07292576 0.024884008 0.23667105
000370 ed 65 08 be 46 91 f5 ba 2a d5 2b bd 80 19 1b 3c
       -0.13320132 -0.0018735311 -0.041951336 0.009466529
000380 93 71 76 bd d7 00 cf 3d 76 d5 9f 3c 5e 03 d2 3e
       -0.060166907 0.10107582 0.019510966 0.41018194
000390 50 36 97 be 84 26 67 3c 20 31 97 3d f6 38 8b be
       -0.29533625 0.014108304 0.07382417 -0.27191895
0003a0 91 e0 a2 3e 4b b0 13 3d ed 47 b8 bd 4d 2a b1 be
       0.31811956 0.036056798 -0.08998094 -0.34602585
0003b0 80 94 80 bc a6 18 11 3d 84 b0 bb bc 49 79 7d be
       -0.01569581 0.035423897 -0.022911318 -0.24753298
0003c0 65 6a 07 bd df 22 e7 bd ac 35 07 3e b6 7a 39 3e
       -0.03306045 -0.11285948 0.13204068 0.18113217
0003d0 69 08 83 3e e8 cb a7 bd 5f e5 e5 bd f5 16 a4 be
       0.25592354 -0.08193189 -0.1122539 -0.32048765
0003e0 53 70 fc bd 4f 64 66 3c b4 71 8c be 1d 9c ff bd
       -0.12326112 0.014062001 -0.274305 -0.12480948
0003f0 b7 84 ed bd b2 5c 3d be f6 2b 50 bd 92 5f 3c be
       -0.11597579 -0.18492392 -0.050823174 -0.18395832

fc1.bias f4 [256]
000000 02 e3 39 3f b5 62 30 3f 8a ea 3c 3f 6d a8 31 3f
       0.7261201 0.68900615 0.7379538 0.6939762
000010 f8 12 54 3f 4c 2c 45 3f e4 56 56 3f cc e3 51 3f
       0.82841444 0.77020717 0.83726335 0.81988215
000020 b6 13 3e 3f 4e 79 32 3f 04 91 53 3f 10 45 54 3f
       0.74248827 0.69716346 0.8264315 0.8291788
000030 0d 93 30 3f 5e 49 58 3f 90 c4 4b 3f 45 9d 30 3f
       0.6897438 0.8448695 0.79596806 0.68989974
000040 eb c5 4d 3f ba c0 41 3f 51 d7 31 3f e3 49 52 3f
       0.80380124 0.756847 0.6946917 0.8214399
000050 5f bc 38 3f 84 f3 4f 3f 1a c1 57 3f 9e c9 36 3f
       0.7216243 0.8123095 0.84279025 0.71401393
000060 75 be 4e 3f 14 62 5a 3f 46 6b 47 3f ca 93 54 3f
       0.80759364 0.85305905 0.7789806 0.8303801
000070 48 a4 32 3f 45 87 33 3f 7d 69 4e 3f d7 49 4c 3f
       0.69781923 0.7012828 0.8062971 0.7980017
000080 e7 bb 3e 3f 97 59 41 3f 77 7c 4f 3f 37 7a 4a 3f
       0.74505466 0.7552733 0.81049293 0.79092735
000090 92 a1 33 3f da 74 35 3f eb 42 46 3f 40 a9 4d 3f
       0.7016841 0.70881426 0.7744586 0.8033638
0000a0 78 27 59 3f d9 ae 4d 3f 69 c2 2f 3f 21 8b 36 3f
       0.8482585 0.8034492 0.6865602 0.71306044
0000b0 83 e1 4d 3f 64 d4 3e 3f 8e f9 3c 3f 58 67 51 3f
       0.8042223 0.7454283 0.7381829 0.81798315
0000c0 7e 90 53 3f 4a 9a 31 3f 31 cd 52 3f d9 21 4d 3f
       0.8264235 0.6937605 0.8234435 0.8012977
0000d0 b4 fe 54 3f d7 59 30 3f c4 c1 34 3f 2e ed 3b 3f
       0.83201146 0.68887085 0.7060816 0.7340878
0000e0 a4 42 55 3f 97 3f 55 3f c4 d1 4b 3f c3 3b 53 3f
       0.8330481 0.83300155 0.7961695 0.82513064
0000f0 fd e2 39 3f ef 6e 39 3f 4d cd 2c 3f f8 02 49 3f
       0.7261198 0.72434896 0.67500764 0.78520155
000100 f3 23 4c 3f 4c 83 59 3f c5 1e 31 3f e0 9d 59 3f
       0.79742354 0.8496597 0.69187576 0.85006523
000110 97 7f 36 3f 20 d9 4a 3f eb d0 49 3f b6 2a 34 3f
       0.71288437 0.79237556 0.7883441 0.7037767
000120 c9 8d 4e 3f 59 ad 59 3f 23 69 34 3f 3c 56 56 3f
       0.80685097 0.8503013 0.70472926 0.83725333
000130 63 4c 46 3f 01 23 4a 3f 36 90 52 3f cb f4 50 3f
       0.77460307 0.7895966 0.822513 0.81623524
000140 b0 13 38 3f 79 33 4f 3f 77 6c 3f 3f dc cc 3a 3f
       0.7190504 0.80937916 0.7477488 0.7296884
000150 ff 0b 5a 3f da d9 47 3f de 51 52 3f 8f 7d 4a 3f
       0.85174555 0.7806679 0.8215617 0.7909784
000160 e4 2b 4b 3f 48 43 4d 3f c5 d0 39 3f 4a 9c 3c 3f
       0.79363847 0.8018079 0.7258418 0.7367598
000170 70 4c 40 3f 87 28 4e 3f 14 29 48 3f 89 f1 4d 3f
       0.75116634 0.8053059 0.7818768 0.8044668
000180 cf 12 49 3f 91 05 4a 3f 91 6f 33 3f 9d 0d 47 3f
       0.78544325 0.78914744 0.7009211 0.7775515
000190 66 50 3c 3f b7 92 58 3f b5 92 34 3f 09 53 3b 3f
       0.7356018 0.8459887 0.7053636 0.73173577
0001a0 fb dc 4b 3f a4 54 32 3f 86 32 53 3f ac 5a 57 3f
       0.79634064 0.696604 0.8249897 0.8412273
0001b0 0b cc 34 3f 25 75 53 3f bc 86 46 3f 5c 5b 2e 3f
       0.70623845 0.82600623 0.7754934 0.68108153
0001c0 01 b8 3e 3f 53 6b 33 3f b7 96 37 3f 6a 61 58 3f
       0.7449952 0.7008564 0.7171435 0.8452364
0001d0 3a 18 2f 3f a1 63 58 3f 95 2b 35 3f 96 95 50 3f
       0.6839634 0.8452702 0.70769626 0.8147825
0001e0 3d 04 3b 3f 5e 31 55 3f 82 d5 3f 3f 58 56 35 3f
       0.7305334 0.83278453 0.7493516 0.70834875
0001f0 c9 6c 40 3f 84 6a 58 3f c1 57 31 3f c9 e9 4c 3f
       0.7516599 0.8453753 0.69274527 0.8004423
000200 da 32 54 3f b0 c1 51 3f 41 f4 36 3f c4 48 3b 3f
       0.82890093 0.8193617 0.7146645 0.73157907
000210 50 05 3d 3f 9a ab 4c 3f a2 66 3e 3f 7b 66 36 3f
       0.7383623 0.79949343 0.74375355 0.7125012
000220 c2 4e 58 3f 0a 6b 32 3f 54 ed 53 3f 93 c0 54 3f
       0.84495175 0.6969458 0.8278401 0.83106345
000230 eb 21 30 3f e1 97 4e 3f 56 47 4e 3f db 2f 3f 3f
       0.68801755 0.807005 0.805776 0.74682397
000240 95 85 53 3f e2 34 49 3f 52 35 4e 3f aa a9 40 3f
       0.82625705 0.7859632 0.8055011 0.75258887
000250 f5 0a 36 3f 56 ad 57 3f 78 36 38 3f 67 34 36 3f
       0.7111047 0.84248865 0.7195811 0.7117371
000260 88 6f 4b 3f 16 e3 56 3f a4 6c 57 3f 17 20 41 3f
       0.7946706 0.83940256 0.8415015 0.7543959
000270 62 aa 36 3f 6c f3 38 3f 63 b6 53 3f 12 a0 4c 3f
       0.71353734 0.7224643 0.82700175 0.7993175
000280 19 4e 41 3f a9 af 51 3f 76 a9 55 3f 9e 37 38 3f
       0.7550979 0.8190866 0.834617 0.71959865
000290 83 54 33 3f f2 34 58 3f f8 e5 3e 3f e8 01 54 3f
       0.7005083 0.8445579 0.74569654 0.8281541
0002a0 7e ea 53 3f 14 09 53 3f 9d 14 41 3f ac a0 40 3f
       0.8277968 0.8243573 0.7542208 0.75245166
0002b0 ef ad 35 3f d5 80 4a 3f 80 2a 4d 3f 8c cf 45 3f
       0.70968527 0.7910283 0.80142975 0.77269816
0002c0 e3 cc 2c 3f 28 e7 44 3f ad 4f 33 3f b7 9f 44 3f
       0.6750013 0.76915216 0.7004345 0.76806206
0002d0 99 06 3b 3f 41 2f 4f 3f 96 5c 5a 3f 83 61 56 3f
       0.7305694 0.8093148 0.85297525 0.8374254
0002e0 80 0c 41 3f 1b b2 59 3f ac 39 48 3f 2f 71 30 3f
       0.754097 0.8503739 0.78213 0.68922704
0002f0 c4 75 42 3f 47 3e 38 3f 8c fa 50 3f ea 5b 34 3f
       0.75960946 0.7197003 0.81632304 0.7045275
000300 a7 cd 51 3f 76 2b 42 3f 02 59 38 3f b2 9d 39 3f
       0.81954426 0.75847566 0.72010815 0.7250625
000310 92 15 3e 3f e4 27 3f 3f cc 23 30 3f da 98 50 3f
       0.74251664 0.74670243 0.6880462 0.8148323
000320 91 18 58 3f 44 85 3c 3f 0e c4 32 3f 48 ce 57 3f
       0.84412485 0.7364085 0.69830406 0.84299135
000330 c8 63 54 3f 87 84 53 3f dc cb 4c 3f f5 43 4e 3f
       0.82964754 0.82624096 0.79998565 0.80572444
000340 ed 41 35 3f 70 a6 4d 3f b1 f0 3e 3f 8d 90 51 3f
       0.7080372 0.8033209 0.74586016 0.8186119
000350 3d 0d 41 3f 51 ce 4d 3f e0 50 42 3f e5 63 59 3f
       0.75410825 0.8039294 0.75904655 0.8491805
000360 4f 84 48 3f 19 d1 2f 3f 17 d2 44 3f 7b b6 34 3f
       0.78326887 0.6867843 0.7688307 0.70590943
000370 29 cc 44 3f c0 77 43 3f 17 e1 51 3f ae 33 48 3f
       0.76874024 0.763546 0.81984085 0.78203857
000380 d8 8f 53 3f 06 03 45 3f 5c b0 3d 3f d3 27 46 3f
       0.82641363 0.7695774 0.7409723 0.77404517
000390 2e a5 44 3f dd 7f 50 3f a3 83 30 3f b1 1e 4b 3f
       0.76814544 0.81445104 0.6895086 0.79343706
0003a0 aa 8e 4f 3f 3c c1 34 3f ae a2 5b 3f de 75 3b 3f
       0.81077063 0.7060735 0.85795105 0.73226726
0003b0 bc 8e 3c 3f d1 14 57 3f 7b 59 4f 3f e4 48 3b 3f
       0.73655295 0.8401614 0.8099591 0.731581
0003c0 9b 43 40 3f 64 91 2f 3f 59 bc 33 3f 67 09 4d 3f
       0.7510316 0.68581223 0.7020927 0.8009247
0003d0 17 27 44 3f c2 d7 3a 3f f7 65 55 3f ad 6a 54 3f
       0.76622146 0.7298547 0.8335871 0.82975274
0003e0 74 c3 46 3f f2 6f 34 3f dc 17 4a 3f ae d2 4f 3f
       0.7764199 0.70483315 0.78942657 0.81180847
0003f0 bc 3f 3e 3f 5e f4 33 3f b9 f8 3f 3f 9f 35 3e 3f
       0.74316 0.7029475 0.74988896 0.7430057

fc2.weight f4 [256, 256]
000000 7f 16 43 3f d4 b3 4b 3f 59 31 43 3f c2 57 37 3f
       0.762062 0.7957127 0.76247174 0.7161828
000010 89 46 39 3f 6c 89 41 3f 99 6f 45 3f 32 be 33 3f
       0.72373253 0.75600314 0.7712341 0.7021209
000020 8c df 43 3f 9c d6 35 3f 61 5e 42 3f 80 de 3e 3f
       0.7651298 0.7103059 0.7592526 0.7455826
000030 9e 52 33 3f a0 14 39 3f 96 e1 44 3f 6a 93 4a 3f
       0.7004794 0.72297096 0.76906717 0.79131186
000040 d4 3a 39 3f c9 6d 46 3f 21 24 4d 3f b0 d3 3e 3f
       0.7235539 0.7751127 0.80133253 0.7454176
000050 5d 66 50 3f ef 03 42 3f e6 e3 34 3f 61 15 3b 3f
       0.81406194 0.7578725 0.70660245 0.73079497
000060 72 7d 39 3f d5 d5 44 3f 4d ce 3f 3f 33 34 4a 3f
       0.7245704 0.7688878 0.74924165 0.789859
000070 fe 1d 4f 3f ab df 4d 3f 67 78 37 3f c8 1d 45 3f
       0.8090514 0.80419415 0.71668094 0.7699857
000080 8a 03 43 3f b0 77 40 3f fe f4 45 3f 6a c4 4b 3f
       0.76177275 0.7518263 0.77326953 0.7959658
000090 5a 3d 4b 3f 4b de 3d 3f bb 08 42 3f 5b e2 4e 3f
       0.7939049 0.7416732 0.7579457 0.8081414
0000a0 0f bc 4d 3f 8f d5 45 3f b0 85 50 3f 75 58 49 3f
       0.8036508 0.7727899 0.8145399 0.786506
0000b0 e9 c6 44 3f ad e9 3f 3f 57 4b 51 3f ea cb 32 3f
       0.7686601 0.74965936 0.81755584 0.698424
0000c0 fc a1 36 3f c7 c5 4a 3f f3 57 41 3f 3f b4 38 3f
       0.7134092 0.79208034 0.75524825 0.72150034
0000d0 dd 50 3f 3f a3 9c 37 3f a6 46 40 3f 9e 5b 4e 3f
       0.7473276 0.71723384 0.751078 0.80608547
0000e0 69 b3 3b 3f ce e8 3c 3f 32 18 42 3f 9a 82 43 3f
       0.73320633 0.7379273 0.7581817 0.7637116
0000f0 c5 0c 51 3f 9a 79 4d 3f 2e 88 49 3f 36 11 42 3f
       0.8166011 0.80263674 0.7872342 0.7580751
000100 26 5d 3c 3f 01 01 36 3f 94 b4 36 3f 22 28 4b 3f
       0.73579633 0.7109528 0.7136929 0.7935811
000110 b7 5d 37 3f 27 29 3e 3f f2 04 42 3f 4f 43 53 3f
       0.7162737 0.74281543 0.75788796 0.8252458
000120 3e 66 37 3f 56 71 4b 3f 87 5a 46 3f 7d 66 46 3f
       0.71640384 0.7946981 0.77481884 0.77500135
000130 71 55 34 3f c6 44 4f 3f 77 8f 3a 3f 0a 44 4e 3f
       0.70442873 0.80964315 0.7287516 0.8057257
000140 5b 5e 3a 3f 23 30 39 3f 29 eb 3d 3f 3c 5b 39 3f
       0.72800225 0.72339076 0.7418695 0.7240484
000150 e8 70 3a 3f 0e 3b 3d 3f 0b 26 47 3f 7e 2a 4c 3f
       0.7282853 0.73918235 0.77792424 0.7975234
000160 ff 73 3e 3f 58 88 37 3f a4 f3 34 3f f1 d2 41 3f
       0.74395746 0.7169242 0.70684266 0.75712496
000170 6a 39 33 3f e3 7b 4e 3f bd 5d 3f 3f be ae 4f 3f
       0.7000948 0.80657786 0.7475241 0.8112601
000180 88 fd 54 3f fd 1c 37 3f 61 cb 4a 3f af 67 37 3f
       0.8319936 0.7152861 0.7921658 0.71642584
000190 ba e4 39 3f 81 b2 36 3f 3a bb 38 3f 95 ce 47 3f
       0.72614634 0.71366125 0.72160685 0.78049594
0001a0 af f9 46 3f 10 1f 42 3f 9a a6 47 3f e4 84 3d 3f
       0.77724737 0.7582865 0.7798859 0.740309
0001b0 0b ec 4d 3f d6 e4 38 3f 93 be 2c 3f 81 57 3f 3f
       0.804383 0.72224176 0.67478293 0.74742895
0001c0 9e 70 49 3f 24 d0 4d 3f f8 1f 38 3f e3 8c 4e 3f
       0.78687465 0.8039572 0.7192378 0.80683726
0001d0 65 5b 55 3f 44 64 4c 3f 94 76 32 3f 89 71 4e 3f
       0.8334258 0.79840493 0.69712186 0.8064199
0001e0 a8 cc 41 3f 8e 07 3c 3f f5 c0 44 3f 3e 7f 49 3f
       0.75702906 0.7344903 0.7685693 0.7870978
0001f0 c0 ce 3b 3f d8 ac 53 3f b6 8c 4c 3f fb 7f 3f 3f
       0.7336235 0.82685614 0.7990221 0.7480466
000200 66 85 36 3f b2 04 41 3f 13 e6 46 3f 34 5a 3a 3f
       0.712973 0.7539779 0.77694815 0.7279389
000210 f4 9b 48 3f 48 aa 41 3f 85 01 44 3f 53 50 3d 3f
       0.78362966 0.75650454 0.7656482 0.7395069
000220 17 d7 44 3f 40 bd 44 3f 0c 64 30 3f a8 78 47 3f
       0.768907 0.7685127 0.6890266 0.7791848
000230 80 10 35 3f cc 77 4b 3f 34 15 4f 3f dc 53 43 3f
       0.707283 0.7947967 0.8089173 0.76299834
000240 74 0b 4b 3f 98 c6 3f 3f be fe 32 3f 9b 4a 3f 3f
       0.7931435 0.74912405 0.69919956 0.74723214
000250 f1 84 35 3f d2 e9 30 3f 4f d4 41 3f 82 83 4e 3f
       0.7090598 0.6910678 0.7571458 0.80669415
000260 bd 4c 37 3f d7 b1 34 3f a2 1d 36 3f 58 ba 39 3f
       0.7160147 0.7058386 0.71138966 0.72549963
000270 b9 70 44 3f 83 7d 37 3f c4 48 48 3f 8d 1d 33 3f
       0.767345 0.7167589 0.7823603 0.69966966
000280 95 3f 41 3f e6 c5 4a 3f 9e d9 3b 3f bf ba 34 3f
       0.75487643 0.7920822 0.7337893 0.7059745
000290 72 e3 4e 3f e9 eb 46 3f ea 84 4a 3f e5 07 3f 3f
       0.80815804 0.7770372 0.7910906 0.7462142
0002a0 a9 1f 4d 3f 56 93 58 3f 40 c2 41 3f 05 97 3c 3f
       0.80126435 0.84599817 0.75687027 0.7366794
0002b0 58 56 32 3f 77 db 46 3f 8f 0b 53 3f 74 bd 40 3f
       0.69663 0.77678627 0.8243951 0.7528908
0002c0 fc 0a 4e 3f 97 18 36 3f 40 85 46 3f 41 a0 40 3f
       0.8048551 0.7113127 0.77547073 0.7524453
0002d0 41 d7 2f 3f ac 5c 4d 3f ab 6a 44 3f 83 13 39 3f
       0.68687826 0.8021953 0.7672526 0.722954
0002e0 15 b6 52 3f 65 5b 4d 3f 96 bd 50 3f 6c 65 4a 3f
       0.82309085 0.8021758 0.81539285 0.7906101
0002f0 07 66 4c 3f 99 17 3c 3f cb c3 33 3f 49 35 3a 3f
       0.7984318 0.7347351 0.7022063 0.72737557
000300 70 3b 46 3f 42 a2 46 3f 96 71 3a 3f 2c 91 4c 3f
       0.77434444 0.77591336 0.7282957 0.79909015
000310 91 99 41 3f da 1d 4d 3f 6e 40 41 3f 49 23 37 3f
       0.7562495 0.80123675 0.75488937 0.71538216
000320 e8 c6 39 3f 8b 00 38 3f 75 04 41 3f 77 b9 49 3f
       0.7256913 0.7187583 0.75397426 0.7879862
000330 3c e3 36 3f a4 94 4e 3f ee 5d 35 3f b0 54 38 3f
       0.7144048 0.8069556 0.7084645 0.7200422
000340 8d f6 38 3f 89 c6 30 3f a6 b3 38 3f c8 c1 3c 3f
       0.72251207 0.6905294 0.7214912 0.73733187
000350 fe 86 40 3f 39 7a 32 3f 22 68 3f 3f 2f 9a 53 3f
       0.7520598 0.69717747 0.7476827 0.8265714
000360 10 53 3a 3f 23 96 4b 3f 01 7c 37 3f cb a7 32 3f
       0.72782993 0.79525965 0.7167359 0.6978728
000370 57 75 4c 3f a6 6f 35 3f 3a 8a 45 3f 44 ff 30 3f
       0.79866546 0.70873487 0.7716404 0.69139504
000380 1d c8 43 3f 0a 12 47 3f 9d 90 3e 3f ad 02 38 3f
       0.76477224 0.777619 0.7443941 0.7187908
000390 37 a5 39 3f d9 e9 42 3f 7a e8 46 3f e4 61 3f 3f
       0.7251772 0.76138073 0.7769848 0.74758744
0003a0 83 95 51 3f 90 d4 4a 3f 53 ca 41 3f 28 fc 4b 3f
       0.8186876 0.79230595 0.7569935 0.79681635
0003b0 40 f4 39 3f 97 94 43 3f 9d cf 46 3f 1c 03 3c 3f
       0.7263832 0.76398605 0.7766054 0.73442245
0003c0 88 23 41 3f 81 76 42 3f fb c3 46 3f fd a7 43 3f
       0.7544484 0.7596207 0.7764279 0.76428205
0003d0 c8 cc 50 3f 80 af 52 3f 3c ff 4f 3f 6a d1 51 3f
       0.8156247 0.8229904 0.8124883 0.81960166
0003e0 1a de 30 3f 22 b1 52 3f b8 5c 4a 3f a7 08 3c 3f
       0.690889 0.82301533 0.7904773 0.734507
0003f0 9a 2a 55 3f ef 2c 43 3f 53 38 50 3f d4 eb 4d 3f
       0.8326813 0.7624044 0.81335944 0.8043797

fc2.bias f4 [256]
000000 97 86 11 3f a5 be 1d 3f b7 88 fe 3c 72 84 1d 3f
       0.5684599 0.61619025 0.03107105 0.6153022
000010 20 b1 19 3f 4f 5d 1f 3f 04 b2 a3 bd 58 67 2a 3f
       0.60035896 0.6225175 -0.07992938 0.6656394
000020 82 5c 26 3f d9 ef cf 3c 32 6d 08 b9 ad da 30 3f
       0.64984906 0.025382923 -0.00013010649 0.6908367
000030 31 64 03 3d d0 e6 8c bd f0 3c 1f 3f 95 26 2b 3f
       0.03207797 -0.068799615 0.6220236 0.66855747
000040 f0 a0 16 3f bf 19 2f 3f 1e 26 1a 3f 1e 13 1c 3f
       0.5883932 0.6839866 0.6021441 0.6096667
000050 69 ea 14 3f 18 85 0f 3d 2a ec f8 3c e4 db 22 3f
       0.5817018 0.035039037 0.03038605 0.63616776
000060 9c 30 21 3f 4e 88 14 3f 51 6f 12 3f 24 92 22 3f
       0.629648 0.58020484 0.57201105 0.6350424
000070 ed d6 53 bd c2 f7 a8 3c 52 17 3c bd 84 45 2d 3f
       -0.05171864 0.020625953 -0.045920677 0.676842
000080 92 0b 29 3f 28 cf 6d bd e6 f6 24 3f 27 94 54 bd
       0.6603328 -0.058058888 0.6443924 -0.0518991
000090 0a db 2c 3f 67 1f 25 3f 25 89 28 3f f6 1d 2b 3d
       0.6752173 0.6450104 0.65834266 0.04177662
0000a0 95 60 28 3f 3c e2 13 3f 28 6f 2f 3f b3 94 1f 3f
       0.6577237 0.5776708 0.68528986 0.6233627
0000b0 eb 03 bb bc 5e 5e 80 bd 9a a0 16 3f e0 08 77 bc
       -0.022829017 -0.06267999 0.5883881 -0.0150778
0000c0 6e ab 11 3f d2 8e 07 bd 3a 37 16 3f 4a be 22 3f
       0.56902206 -0.03309519 0.5867802 0.6357161
0000d0 67 1c 94 bc 22 1e 02 bd 37 fb 2c 3f 77 ff 16 3f
       -0.01807995 -0.03176702 0.67570823 0.5898356
0000e0 66 54 28 3f 38 2d 13 3f af f7 57 3d 7b e3 1f 3f
       0.6575378 0.57490873 0.052726444 0.6245648
0000f0 b1 8f 0b bd cd 98 f2 3c 1a a4 23 3f 17 8c 2d 3f
       -0.03407258 0.029613877 0.63922274 0.67791885
000100 f7 3e 3e 3d 06 46 12 bc 9d ed 2a 3f d4 5d 14 3f
       0.046446767 -0.008927828 0.6676882 0.5795567
000110 6d 75 31 3d 0a 17 b1 bc 73 06 25 3f 21 5c 31 3f
       0.043324877 -0.021617431 0.64462966 0.692812
000120 f0 2f 51 bd e5 a2 20 3f a2 76 38 3d 44 40 a8 ba
       -0.051071107 0.6274856 0.045035012 -0.0012836535
000130 1d 8d 25 3f fc 58 0a bd b4 7b 43 bd 38 5d 31 3f
       0.64668447 -0.03377627 -0.047725394 0.69282866
000140 25 a7 3e 3c ab 71 68 bd 0b e9 2d 3f 30 36 28 3f
       0.01163653 -0.056749027 0.6793372 0.65707684
000150 96 0a 1a 3f a2 77 c5 bc ed 63 19 3f 36 b4 32 bd
       0.601724 -0.024104897 0.599181 -0.043628894
000160 8a 31 19 3f ca a1 30 3f ab ec a3 bc 5d a8 26 3c
       0.59841216 0.6899687 -0.020010313 0.010171977
000170 f1 b4 21 3f 6d 49 24 3f 71 fa 2e 3d 4e c5 2b bc
       0.6316672 0.6417454 0.04271931 -0.010484053
000180 cd 12 2d 3f e3 c4 51 3b 42 10 21 3f c2 71 26 3f
       0.6760681 0.0032008223 0.6291543 0.6501733
000190 cd 35 2c 3f 85 bd 0f 3f 9c 28 20 3f cf 14 3f bd
       0.67269593 0.5614856 0.62561965 -0.046650704
0001a0 3b 76 ac bc 51 e0 40 3d 08 c6 0a 3c 2b f3 29 3f
       -0.02105247 0.047088925 0.008470066 0.6638667
0001b0 39 f0 28 3f 00 1c 2e 3f 23 a9 1c 3f 5b dc 94 bd
       0.6599155 0.68011475 0.6119558 -0.07268592
0001c0 77 0e 66 bc 4c 34 27 3f a4 0e 2f 3f 95 97 19 3f
       -0.014041535 0.65314174 0.68381715 0.5999692
0001d0 ea 12 18 3f fa 80 15 3f be 4f 21 3f 0d 21 1f bd
       0.5940386 0.5839993 0.630123 -0.03884988
0001e0 99 60 10 bd d3 69 18 3f c5 a1 6e bd ed c1 2e 3f
       -0.035248373 0.59536475 -0.058259744 0.6826466
0001f0 d0 56 11 3f 20 c8 7e 3b 13 ca 1b 3f dd 2b 19 3f
       0.5677309 0.0038876608 0.60855216 0.59832555
000200 81 a3 34 3f 2a 33 c2 3c b1 4a 60 bd 39 97 19 3f
       0.7056199 0.023706038 -0.05475873 0.5999637
000210 48 5f 16 bd 71 be 74 3c 94 5c 07 bd 05 b4 2f 3f
       -0.03671196 0.014937983 -0.033047274 0.68634063
000220 53 b4 25 3f 83 bf 93 bd 54 89 2e 3f 57 1f 25 3f
       0.6472828 -0.07214262 0.68178296 0.64500946
000230 81 89 91 bd a4 a8 16 3f 03 15 0e bd bd e0 1f 3f
       -0.07106305 0.58851075 -0.034688007 0.624523
000240 d6 93 67 bd 55 28 16 3f f6 a8 57 ba 8e 0e 16 3f
       -0.05653747 0.5865529 -0.0008226776 0.5861596
000250 55 9e 1e 3f ed 54 12 3f 3b a3 c3 bc 38 4c 81 3c
       0.61960346 0.57160836 -0.023881545 0.015783414
000260 4c 6a 22 3d 4e 88 22 bd ad 68 1d 3f e2 26 1e 3f
       0.039652154 -0.03968077 0.6148785 0.6177808
000270 fd d4 28 3f 74 9d 2e 3f 84 f6 63 bd ee 88 1d 3f
       0.65949994 0.68209004 -0.055655017 0.61537063
000280 75 a8 cb bb de 73 1a 3f 5e e5 b8 bb 57 74 26 3f
       -0.00621515 0.6033305 -0.005642577 0.6502127
000290 74 7c 28 3f 77 bf 2f ba b4 8c 1d 3f a6 a0 5e 3c
       0.658149 -0.00067042507 0.6154282 0.013588106
0002a0 ef 28 29 3f a5 91 12 3d bd 5e 1d 3d 8f d9 c1 3c
       0.66078085 0.03578343 0.038420428 0.02366331
0002b0 13 44 1f 3d 64 21 95 bc a8 4a 29 3f 6e 43 2c 3f
       0.03888328 -0.018204398 0.6612954 0.6729039
0002c0 3f 0b 24 3f 8e a4 ba 3c d5 c5 76 bd 8d f3 28 3f
       0.6407966 0.022783544 -0.06024726 0.6599663
0002d0 05 97 89 bc e1 90 19 3f db 1a 30 3f 60 44 25 3f
       -0.016795645 0.5998669 0.6879098 0.64557457
0002e0 43 b4 28 3f d8 92 1b 3f bc 1d 30 3f 71 8d 17 3f
       0.6590006 0.6077094 0.6879537 0.592002
0002f0 d7 c3 82 bc 26 7d 15 3f b8 2e 18 3f 5c 40 2d 3f
       -0.015962524 0.58394086 0.5944629 0.6767633
000300 06 87 2f 3f 34 53 17 3f 61 0a 22 bd d9 74 86 bd
       0.68565404 0.5911133 -0.03956068 -0.06565256
000310 91 38 ea 3c b3 30 ca bc a1 a4 e6 3b cf 75 81 bd
       0.028591426 -0.024681425 0.0070386683 -0.06321298
000320 2d 84 24 3f a5 76 a6 bb b8 7d db 3c c7 68 fb bc
       0.64264184 -0.0050800615 0.026793346 -0.03068961
000330 d7 a9 26 3f d0 90 6a bd 59 be 27 3f 79 26 17 3f
       0.65102905 -0.05726701 0.6552482 0.5904308
000340 f5 08 30 3f ee a7 21 3f fd 86 1e 3f f1 41 2e 3f
       0.6876367 0.63146865 0.61924726 0.6806937
000350 ad 29 27 bd 51 9b 11 3f 3c df 2a 3f b9 09 30 3f
       -0.04081123 0.5687762 0.6674688 0.68764836
000360 49 b4 26 3f 9f af 33 3f fd ba 1d 3f 2b 6e 40 bd
       0.65118843 0.7018985 0.61613446 -0.046980064
000370 c1 58 2d 3f 81 d7 1c 3f df 15 26 3c 86 c3 21 3f
       0.6771355 0.6126633 0.01013705 0.6318897
000380 cc 40 1a 3f 63 8e 47 3d c4 c1 24 3f 5c 4b 25 3f
       0.6025512 0.048719775 0.6435816 0.64568114
000390 1a ca 50 bd 2b 9c 62 bb d1 83 86 3c 8d 4f 30 3f
       -0.05097399 -0.0034577947 0.016420277 0.68871385
0003a0 84 83 27 3f 2f 85 2f 3f f6 b6 2c 3f 2c e1 31 3f
       0.6543505 0.685626 0.67466676 0.6948421
0003b0 f8 8a 23 3f 41 05 03 bd 56 9c 26 3f 85 d0 72 bb
       0.63883924 -0.031987432 0.650823 -0.0037050557
0003c0 3b 3b 16 3f e7 53 00 bd 47 f7 1e 3f 7c 6e 2e 3f
       0.5868413 -0.031330016 0.62096065 0.68137336
0003d0 ba eb 42 3d ab c3 1a 3f 0a db 17 3f 06 72 3d 3c
       0.047588088 0.60454816 0.593186 0.01156283
0003e0 36 a4 27 3f f4 7b 17 3f 48 ff 20 bd 8e 8d cd 3c
       0.6548494 0.5917351 -0.039305955 0.025091913
0003f0 96 96 1e 3f 2f 83 5b 3b 58 fb 1f 3f 3b 51 2f 3f
       0.61948526 0.003349494 0.62492895 0.6848332

logits.weight f4 [5, 256]
000000 c4 90 4e 3f 85 10 43 3f 4b 09 72 bc 1e 8f 50 3f
       0.80689645 0.7619708 -0.014772723 0.8146838
000010 7b d8 53 3f 02 48 48 3f e5 14 f3 bc 18 6c 50 3f
       0.827522 0.78234875 -0.02967305 0.8141494
000020 97 c9 3b 3f a3 58 d3 3c 42 ac 2d 3d ca 95 4d 3f
       0.73354477 0.025799101 0.042400606 0.80306685
000030 3d 0a 12 bd 2d b8 33 bd eb 0f 48 3f 48 6c 45 3f
       -0.035654295 -0.043876816 0.7814929 0.7711835
000040 80 0e 51 3f 21 f1 3e 3f 4e 8e 46 3f b0 d0 4a 3f
       0.8166275 0.74586684 0.7756089 0.7922468
000050 1f ce 50 3f 58 78 98 3c 7d e6 2f bd 06 29 55 3f
       0.81564516 0.018612072 -0.04294442 0.8326572
000060 68 6e 4b 3f 26 bb 48 3f 65 d9 4d 3f c7 83 45 3f
       0.7946534 0.78410566 0.8040984 0.771542
000070 24 3d 25 bc e3 80 20 3c ae 09 b4 bc b7 fb 41 3f
       -0.010085378 0.009796354 -0.021977272 0.7577471
000080 4d dc 46 3f e2 58 dc 3c 29 2d 4c 3f af 67 96 3c
       0.776799 0.026897851 0.7975641 0.018359987
000090 67 cf 52 3f b0 05 39 3f 51 38 40 3f 8d 0b 1c bd
       0.8234772 0.72274303 0.7508593 -0.038096953
0000a0 46 59 51 3f a2 f7 4a 3f b0 97 50 3f 0f b8 44 3f
       0.81776845 0.7928411 0.81481457 0.7684335
0000b0 90 06 48 3d 33 71 4b bd 1a 21 53 3f dd ab 22 bc
       0.048834383 -0.049668502 0.82472384 -0.009928671
0000c0 8a ed 50 3f cb 23 90 bc e3 99 50 3f 43 2a 50 3f
       0.81612456 -0.017595192 0.8148481 0.81314486
0000d0 4e 2f 42 3d bd fd df 3c a0 37 4e 3f 27 14 4d 3f
       0.047408395 0.027342672 0.80553627 0.80108875
0000e0 a1 16 41 3f f0 f6 46 3f b9 76 2b bd 80 16 4e 3f
       0.75425154 0.77720547 -0.04186127 0.8050308
0000f0 47 70 58 bd c3 47 dd 3b ac b4 45 3f 71 9b 42 3f
       -0.05284145 0.0067529394 0.7722881 0.76018435
000100 be 73 b8 bc 86 f5 0d bd ca a4 4d 3f 0e 42 4f 3f
       -0.022516128 -0.034657978 0.80329573 0.80960166
000110 fd 68 50 bd 78 8b 4a bd b2 02 54 3f 1f c8 44 3f
       -0.050881375 -0.049449414 0.8281661 0.7686786
000120 14 29 f1 bb 54 79 45 3f b0 e4 34 bd 9d e8 22 bc
       -0.007359633 0.7713826 -0.044163406 -0.009943155
000130 48 9c 4c 3f 40 97 82 bc 1b 83 4f bc 8b 2e 47 3f
       0.79925966 -0.015941262 -0.012665535 0.77805394
000140 9b f6 38 bd eb 6d 1f ba e6 8d 4d 3f 6b b8 50 3f
       -0.045157056 -0.00060817477 0.80294645 0.815314
000150 ff 2d 3e 3f 9b 98 d7 bc 5c 60 4e 3f cc 85 91 3c
       0.74288934 -0.026317885 0.8061578 0.017763995
000160 f0 90 45 3f 7a 4a 46 3f 06 4c 1f bd ab 15 5c bc
       0.7717428 0.7745739 -0.03889086 -0.0134329
000170 2a a9 3b 3f d7 20 42 3f 3b 02 2a 3d b4 15 0f bd
       0.73305 0.7583136 0.041506033 -0.034932807
000180 28 c8 45 3f 4f 08 c0 bc fa b5 52 3f ea 86 44 3f
       0.7725854 -0.023441462 0.82308924 0.7676836
000190 c8 f5 4f 3f f7 5e 4d 3f cc 12 44 3f fd 25 0f bd
       0.8123441 0.8022303 0.7659118 -0.034948338
0001a0 67 0c d3 bc ce 7d 44 bd c0 a0 e2 bb ac 74 56 3f
       -0.02576275 -0.04797154 -0.0069161355 0.8377178
0001b0 f7 83 4b 3f 77 be 52 3f b3 8a 49 3f ba 3f 43 bd
       0.7949824 0.82321876 0.78727263 -0.047668196
0001c0 58 fe 32 3b f1 8c 55 3f 35 e6 42 3f 35 fb 4c 3f
       0.0027312245 0.83418185 0.7613252 0.8007081
0001d0 15 61 48 3f 09 85 4a 3f 93 f2 4c 3f 93 7d 8a 3c
       0.78273135 0.79109246 0.8005764 0.016905582
0001e0 dd 83 15 3d 43 59 45 3f bc 62 4b 3c 93 aa 44 3f
       0.036502708 0.7708933 0.012413677 0.76822776
0001f0 eb d7 40 3f 71 cd fa bc 47 86 42 3f 77 0e 43 3f
       0.75329465 -0.03061554 0.7598614 0.76193947
000200 45 5b 3c 3f d0 e7 81 bc 22 4c 54 bd 25 b4 45 3f
       0.73576766 -0.015857607 -0.05183042 0.77228004
000210 49 b5 02 3c e0 26 02 bd fe 76 4c bd 4a 63 47 3f
       0.007977792 -0.031775355 -0.049918167 0.7788588
000220 c8 08 49 3f cb ab b2 bc 5a d8 40 3f bc cf 53 3f
       0.78529024 -0.021810433 0.75330126 0.8273885
000230 3a 8c d7 bc 83 e6 52 3f 45 7a 91 bc d5 a8 51 3f
       -0.026311982 0.8238298 -0.017758498 0.8189824
000240 1f 38 d0 3c 40 14 51 3f b0 08 a3 bb 71 8a 4f 3f
       0.025417386 0.81671524 -0.004975401 0.8107062
000250 bc a4 54 3f 78 28 41 3f 5a 94 20 bd b1 29 b9 bc
       0.83063865 0.75452375 -0.03920398 -0.022602888
000260 10 fe 6e 3c e2 aa 93 3c f9 17 45 3f 1e 5b 3f 3f
       0.01458694 0.01802582 0.76989704 0.7474841
000270 d6 b8 48 3f 6e 14 50 3f b9 f8 f7 3c b6 68 48 3f
       0.7840704 0.81281173 0.030269967 0.78284776
000280 fa 7b 0d bd c1 19 3b 3f 82 52 f5 bc a9 bd 48 3f
       -0.03454206 0.7308617 -0.02994657 0.784144
000290 90 4d 4c 3f dc 83 0c bd 14 9e 4b 3f a7 24 2b bd
       0.7980585 -0.03430544 0.79538083 -0.041783
0002a0 a7 6d 3a 3f 0e a4 d9 bc 22 e8 1b bd eb ba ba bc
       0.72823566 -0.026567485 -0.038063176 -0.022794208
0002b0 bc dd 6c bc 0c c0 f1 bc 83 f4 52 3f ec 17 4c 3f
       -0.0144571625 -0.02951052 0.82404345 0.79724
0002c0 37 b2 3b 3f 5a 90 b8 bc 97 2a cb bb d3 29 4b 3f
       0.7331881 -0.02252977 -0.0062001455 0.79360694
0002d0 a4 61 09 bd 94 9d 47 3f 11 bb 3f 3f 84 de 43 3f
       -0.033540383 0.7797482 0.74894816 0.76511407
0002e0 7c d6 50 3f 4b 95 3f 3f c6 21 3f 3f 15 6f 54 3f
       0.8157728 0.7483718 0.7466091 0.82982
0002f0 d9 11 0e bd 28 4b 4e 3f 98 54 51 3f d9 66 4c 3f
       -0.03468499 0.8058343 0.81769705 0.79844433
000300 03 c9 3f 3f 50 f1 41 3f 08 c1 16 3d dd df 07 bd
       0.74916095 0.7575884 0.036805183 -0.033172477
000310 92 52 a0 bc f0 f4 2b bd b8 ba bc bc 88 98 20 bd
       -0.019570623 -0.041981637 -0.023038253 -0.039207965
000320 a4 d4 4f 3f 18 df b8 3c 77 1b 32 bd 81 e3 42 bd
       0.8118384 0.022567317 -0.043483224 -0.047580246
000330 a8 3e 4e 3f 04 18 01 bd 70 13 50 3f 69 7c 48 3f
       0.80564356 -0.031517044 0.8127966 0.78314835
000340 f0 70 50 3f f5 8e 44 3f f2 ae 39 3f 7a 5c 4e 3f
       0.8142233 0.76780635 0.7253257 0.8060986
000350 eb 32 34 bc 3c 61 52 3f ca 15 4d 3f 57 30 4f 3f
       -0.010998468 0.8217962 0.8011137 0.80933136
000360 5e c5 4c 3f 81 c2 42 3f fe aa 45 3f 78 c4 0c bd
       0.7998866 0.7607804 0.7721404 -0.034367055
000370 a9 c6 4d 3f 01 cf 4d 3f 7a de 0c bd 95 10 4b 3f
       0.80381256 0.8039399 -0.034391858 0.7932218
000380 8e 8c 3b 3f a2 82 47 bd 82 43 4c 3f 8c 81 3d 3f
       0.73261344 -0.048708566 0.7979051 0.740258
000390 63 3f b8 3c bc 4d 51 3d 11 7c 27 3d e4 cb 4a 3f
       0.022491163 0.051099524 0.040889803 0.7921736
0003a0 19 33 4a 3f 6b dd 3d 3f 1f 82 43 3f d7 8b 43 3f
       0.7898422 0.7416598 0.76370424 0.76385254
0003b0 1b 60 43 3f a4 50 e4 bc d1 06 51 3f 0b 03 4d bc
       0.7631852 -0.027870484 0.81651026 -0.0125129325
0003c0 5e 00 53 3f ca 54 76 bc 18 f7 45 3f c2 84 4b 3f
       0.82422435 -0.015034864 0.7733016 0.7949945
0003d0 3e e2 39 bd e3 c4 4b 3f 1a 98 4a 3f 42 39 a4 3c
       -0.045381777 0.795973 0.7913834 0.020046834
0003e0 cf a2 4f 3f f9 f4 51 3f 53 04 1c 3c b2 25 4e 3d
       0.811078 0.82014424 0.009522515 0.050328918
0003f0 fd ed 52 3f 1e 02 2e bd 02 54 43 3f 65 b0 43 3f
       0.8239439 -0.042482488 0.7630006 0.7644103

logits.bias f4 [5]
000000 e7 f3 d4 3e 19 60 a4 be f6 38 c9 be 6b 27 b8 be
       0.41592333 -0.32104567 -0.3930127 -0.35967574
000010 fd 71 d4 be
       -0.41493216
