policy_squad2_qf.pt (torch, 417857 bytes, 6 tensors)

fc1.weight f4 [256, 142]
00000000: 9d6b 40be 2703 7b3e da2f 75bd 0773 5b3e
00000010: 5f5d bbbe 330e 8cba 26cc 6dbe df0d 22bd
00000020: 8fda 003e 2b7b 74be e43b 1c3e 1b8f bebe
00000030: f8fc 2e3d 1164 933d e457 e9bc f547 77bd
00000040: d018 ae3e 2414 acbe cc7f b3be 1ccc 3ebd
00000050: 5e65 063e 5928 32be b6ed 543d 6a1a fabd
00000060: 6c9e 89be 261d 3a3e 9be3 c03d 5729 a23e
00000070: 6d80 d63d 6cce 8f3e e983 ce3d 54fd 3a3e
00000080: 0e98 cb3d febf 223d 5dd5 123a a180 9cbe
00000090: 6e53 c63c d7ba d03e 04b7 5f3a e0a7 90be
000000a0: 9e6e ba3e 8b2f a8be b7ba 743e caaa c93c
000000b0: 0591 423c 5d64 253e 763a 91be 7103 bb3e
000000c0: e7cb c6bd fe5e a8bc 068b bf3e 00b5 63bc
000000d0: 240a cb3d 960a 313e 8672 94bd c4c6 a63d
000000e0: 8feb 903d 1b31 eabd e73e 8b3d 5689 653c
000000f0: 1e58 52be e285 5dbe 673e 91be fa42 82bb
00000100: 5765 76bd 0a13 ecbd c489 063f 2350 8a3d
00000110: 4b43 303e ac5d 5d3e 06aa c2b9 9578 7b3e
00000120: f4d3 c43e ba35 bc3d e0f3 423d 195d bb3d
00000130: eaa3 a1be a662 883e 3b48 2dbe cdfc 6cbe
00000140: 0206 27be 5ae3 883e ef67 dabd 31d3 4f3e
00000150: 6d10 733e f5fe b43e 9ab6 8fbe 1436 2b3e
00000160: 7171 12bd bb92 6cbe a87c da3e 52d4 a93d
00000170: 856d 26be 1259 92be ab34 863d 3be9 bf3d
00000180: 47cd 2abe 1069 41be f489 20be c898 97bd
00000190: 5a4a 6ebe a65f b53e 6dc2 a03e c12a d5bd
000001a0: 47ba dfbd 3c5e 1abf 4b55 1dbe ffa0 76bb
000001b0: a0bb e4be 5b8f 91be 4785 b4bd 7b12 bbbd
000001c0: 55df a23c 0160 34bd e941 073e 6cd1 9bbe
000001d0: 9723 adbe 986a 873d af6f 36be 2b51 afbe
000001e0: 92e0 573e 1f17 aebd 6ade 363e 4ea5 30be
000001f0: 6002 03bb 6cd9 c43c d590 0d3e 510c 753e
00000200: 2769 363f 43ff 533f 7150 a33e 0462 3e3f
00000210: 5548 193f 0b30 363f dfe0 283f 3c4a 9d3c
00000220: bb2d 2d3f d7e0 403f 9d19 343f 69df 383f
00000230: 1ff1 4f3f c32f 463f 75d6 96bc c7ff 343e
00000240: 717a 93be df6f 3d3e edc4 eabe 409a fdbd
00000250: c247 2ebe 9dc0 443d 59ad 88bc b09f 88be
00000260: 111f 223e 3556 94be 85a6 9a3d 7201 0e3e
00000270: 0e83 15be da6f 05be 0d5d a13e 960a a0be
00000280: b4de 68be 90e0 a6bc 739e 563e 4db0 02be
00000290: f412 2bbd 3d73 083d d67b f7be c680 983d
000002a0: 5eee e3bc e920 db3e 6b7d d73c 527f c03e
000002b0: b23c 50bd d11b 213e 27ac efbc f69c 4ebd
000002c0: 33d6 30bd 8229 6fbe e6ae c9bd a020 a93e
000002d0: e719 a03d 7560 54be bf1f f23e 4e16 b8bd
000002e0: 9746 bd3c 8107 23bd d5f3 7d3e 1d00 2c3e
000002f0: 6125 96bd af93 a83e 27f5 aa3d 2a0e bdbd
00000300: 5589 a53e e3d2 2cbe a8be abbd 3ec5 4d3e
00000310: 0a9e 99be 7a20 2f3e 70e7 ef3d 7b97 e03d
00000320: 07cc a63d 3991 0bbd 707a 15be f335 21b9
00000330: 72ac b7be 153d f5bd aa8f debd ec4a 33be
00000340: 2f34 f53e fe62 903e 536b 443e 6c29 d83d
00000350: 0cfa 74bb 3bc7 353e 183b 9f3e ba36 823d
00000360: 8a02 033e 60f8 55bd f8f5 8abe e9ae ae3e
00000370: dd08 81be e4dc 9fbd ffd4 82be c696 183e
00000380: bc1d 213a d6b9 8c3e bda1 ad3c 17bf a03e
00000390: 18e4 95be 0ffd 2e3e f723 8dbd 4b66 48be
000003a0: 3277 dc3e 0b82 7d3e d58b 09be d7df 5bbe
000003b0: 4a34 8c3c d866 713d 1a7f bbbd 44a6 163c
000003c0: 549d d93d 5304 28be 6752 2cbe 68de 873e
000003d0: c99c 9c3e b8d2 4e3d fd50 e0bd e0b5 fcbe
000003e0: 605e 96be 035e a93d 6970 c2be 14a3 dabd
000003f0: 82fc 19be 909b f83d 8532 fc3d 8ba4 35be
-0.18791051 0.24512921 -0.059860088 0.21430598 -0.36594674 -0.0010685384 -0.23222408 -0.03956401
0.12583373 -0.2387511 0.15257221 -0.37218556 0.04272172 0.071968205 -0.028484292 -0.060371358
0.34003305 -0.33609116 -0.3505844 -0.046581373 0.13124606 -0.17398204 0.05198451 -0.12212069
-0.2687868 0.18175182 0.09418412 0.31672165 0.10473714 0.28087175 0.100837536 0.182607
0.099411115 0.03973388 0.00056012516 -0.30566886 0.024209704 0.40767547 0.00085340464 -0.28253078
0.3641252 -0.32848772 0.23899351 0.024617571 0.011875396 0.16151567 -0.28364915 0.36526063
-0.0970686 -0.020553108 0.37410754 -0.013898134 0.099140435 0.17289194 -0.07248406 0.0814338
0.07076179 -0.114351474 0.06799107 0.014009794 -0.20541427 -0.21633103 -0.28367922 -0.0039752694
-0.06015524 -0.11527069 0.52553964 0.06753566 0.1721317 0.21617764 -0.0003712924 0.24557717
0.38442957 0.09189935 0.04759586 0.09148616 -0.3157037 0.26637763 -0.16922085 -0.23143311
-0.16310886 0.26735955 -0.10664355 0.20295407 0.23736735 0.35350767 -0.28069 0.16719848
-0.035752717 -0.23102848 0.4267323 0.0829245 -0.16252716 -0.2858358 0.06553014 0.09370657
-0.1667987 -0.18887734 -0.15677625 -0.074021876 -0.2327055 0.35424536 0.31398335 -0.10408545
-0.109242015 -0.6030004 -0.15364568 -0.0037632582 -0.44674397 -0.28429684 -0.08814483 -0.09134384
0.019881884 -0.04403687 0.13208736 -0.30433214 -0.33816215 0.06612128 -0.17816041 -0.34241614
0.2108176 -0.08500504 0.17858282 -0.17250559 -0.001999043 0.024029456 0.1382478 0.2393048
0.712542 0.82811373 0.3189731 0.7436831 0.59875995 0.7116706 0.65968126 0.019200437
0.67647904 0.7534308 0.7035158 0.72215897 0.81227297 0.7741663 -0.018412808 0.17675696
-0.28804353 0.18499707 -0.45853367 -0.123829365 -0.17019561 0.048035253 -0.016684221 -0.26684332
0.15832163 -0.2897202 0.07551292 0.13867739 -0.14600775 -0.13030949 0.31516305 -0.31258076
-0.22741205 -0.020370752 0.20958881 -0.12762566 -0.041766122 0.033313025 -0.48336667 0.074464366
-0.027823623 0.42798546 0.026304921 0.37597138 -0.050839134 0.15733267 -0.029256893 -0.05044266
-0.043173026 -0.23355678 -0.09847812 0.33032703 0.078174405 -0.2073992 0.47289845 -0.08988629
0.023104949 -0.03980208 0.24800046 0.16796918 -0.07331348 0.32925174 0.0834754 -0.09231217
0.3233134 -0.16877322 -0.08385974 0.20094773 -0.30003387 0.17102233 0.11714065 0.109663926
0.08144384 -0.034074042 -0.14597487 -0.00015374254 -0.35873753 -0.11974541 -0.108672455 -0.17509049
0.47891375 0.28200525 0.19181566 0.105547756 -0.0037380485 0.17751782 0.31099772 0.063580945
0.12793937 -0.052238822 -0.27140784 0.3411782 -0.25202075 -0.078058034 -0.25553128 0.14901266
0.00061460934 0.27485532 0.021195287 0.3139579 -0.29275584 0.17088722 -0.068916254 -0.19570272
0.4305969 0.24756639 -0.13432248 -0.21472107 0.017114777 0.05893597 -0.09155102 0.009194914
0.10625711 -0.164079 -0.16828309 0.2653687 0.30588368 0.050493926 -0.10952947 -0.4935751
-0.29368877 0.082698844 -0.37976387 -0.10675636 -0.1503773 0.12139046 0.12314323 -0.1773855

fc1.bias f4 [256]
00000000: 37ed 513f 43d8 443f 629d 363f 8ddc 3f3f
00000010: 3115 403f b5d9 413f 2e93 473f ecfd 3d3f
00000020: 6d59 5c3f ecdb 553f 5d4d 413f b9a6 313f
00000030: 9ed9 373f 08c4 393f f059 4b3f 7137 533f
00000040: 889d 483f 80cc 4f3f 875b 463f 2f3b 453f
00000050: a633 463f bb3e 343f 80ad 383f b62e 3b3f
00000060: bbc8 313f 9612 333f 61b7 4d3f 9eb1 4e3f
00000070: 87fc 433f 5ecd 533f 1b7e 343f b057 3b3f
00000080: 7a7e 4d3f 0545 4f3f f337 563f 7d99 4e3f
00000090: 4da0 383f 8404 583f bd48 433f 5808 393f
000000a0: 6bc2 493f d899 343f 5a2b 593f bfc0 2d3f
000000b0: 6c08 593f 0700 483f a01e 323f 9b91 493f
000000c0: 819a 593f 5dff 503f 1094 3f3f c0f2 553f
000000d0: 80a1 303f df0d 463f 8b37 483f 8a47 3a3f
000000e0: 8747 413f c327 4d3f babf 423f 25ee 473f
000000f0: 1196 4e3f 8f80 443f 1398 4b3f 9c38 513f
00000100: 4383 5a3f 47e1 313f e2bc 503f cd05 323f
00000110: a5a4 573f 7915 3d3f 531a 513f 4a06 353f
00000120: 7a33 3f3f d8aa 363f 47ee 543f b88a 563f
00000130: 15ba 343f 2202 3d3f c731 393f 6933 4a3f
00000140: 90d4 3a3f 2919 4b3f f183 363f 2495 503f
00000150: 9260 3e3f 2fc6 383f 27a2 3e3f f7c0 313f
00000160: 8337 383f 47c8 423f 7ef4 553f 3d8e 363f
00000170: 1bd5 3e3f 8e0a 543f 1fed 363f 9fb8 473f
00000180: 0fb8 343f 71fa 333f bd60 393f 970d 333f
00000190: 6fcb 4e3f a52d 313f c7a7 563f a933 483f
000001a0: f422 4e3f ac9b 383f 3b40 4b3f 087b 373f
000001b0: 3e09 5a3f fe74 493f ef5d 383f 6faf 393f
000001c0: c789 473f c9ce 333f 82d7 423f caf5 513f
000001d0: e170 573f 11c5 483f c470 443f 6254 343f
000001e0: 5d5b 3d3f 6d25 4c3f 84a4 463f feaf 393f
000001f0: cc79 473f d050 303f e7b9 373f 068d 353f
00000200: 29ba 473f 0bc7 433f 79cf 503f f24c 573f
00000210: ba9d 413f 097d 553f 006d 3f3f 89e8 513f
00000220: e539 343f 2609 3e3f cf1d 463f 454a 483f
00000230: cc1a 4c3f f8b8 343f 9a99 3b3f abd6 453f
00000240: 5bf9 403f 6f50 353f 6b40 4a3f 2be1 563f
00000250: 7dbe 3a3f 5e55 533f b48d 4c3f 6d78 553f
00000260: 3040 333f ca20 343f c8d9 503f 5962 3a3f
00000270: 02b6 4e3f 9266 303f be63 4f3f d3a6 413f
00000280: a758 4a3f cc35 473f 5c5a 4c3f f660 4f3f
00000290: d34e 353f 2de8 4f3f d769 353f afbe 533f
000002a0: 2af3 4c3f fc9c 3f3f 15ea 353f 2e03 2d3f
000002b0: 4908 323f 7063 4c3f f75e 533f 82a9 543f
000002c0: deb4 4e3f d106 393f 4363 423f 573d 503f
000002d0: 4d26 533f 1948 593f 0f5d 483f 6da2 433f
000002e0: 8eda 453f a264 3f3f 3cef 4d3f 9ff0 393f
000002f0: 3402 313f 1e94 323f 0e1e 4a3f 5184 443f
00000300: 80f3 2d3f d0d9 4e3f 7283 3c3f 2e31 4b3f
00000310: fab8 4b3f 562c 533f 9cc6 4f3f 44e8 423f
00000320: 3642 453f 6acb 3a3f fc18 4d3f 84de 2b3f
00000330: 7a80 553f c5fa 4b3f ae17 353f 4eea 513f
00000340: 2bce 3c3f 1afe 3f3f 65f5 4e3f 7817 3a3f
00000350: d6b9 4b3f 0cf8 403f bfca 363f 678c 333f
00000360: 085e 2f3f f99f 3b3f 87a1 453f 035b 453f
00000370: 986d 443f c73e 473f 01a4 333f d649 3e3f
00000380: eb2a 403f aefe 3e3f 2905 393f e921 553f
00000390: 99af 553f f7be 343f 0096 3c3f ddef 3a3f
000003a0: d36e 4d3f 28fb 373f 5027 483f 4460 443f
000003b0: 6d8c 4e3f 1536 4d3f 8925 553f a6ae 503f
000003c0: 68f9 363f fbb6 4c3f 9ac3 533f 445c 4e3f
000003d0: fc6e 4e3f 3547 5a3f 8a0e 323f ba1b 3a3f
000003e0: e309 2f3f a3ad 403f 3f90 333f 418c 4e3f
000003f0: 4605 4b3f 93e7 483f 96f9 343f ae0c 413f
0.82002586 0.7689249 0.713339 0.7494591 0.75032336 0.7572282 0.77958953 0.7421558
0.8607395 0.835387 0.7550867 0.69395024 0.7181643 0.72564745 0.7943411 0.8250647
0.78365374 0.8117142 0.7748341 0.7704343 0.7742256 0.7040822 0.7213974 0.7311815
0.69446915 0.69950235 0.8035794 0.8073977 0.765572 0.8273524 0.7050492 0.73180676
0.8027111 0.8096469 0.8367912 0.80702955 0.721196 0.8438189 0.76282865 0.72278357
0.78812283 0.70547247 0.84831774 0.6787223 0.84778476 0.7812504 0.6957798 0.787378
0.8500138 0.81639653 0.748353 0.8357353 0.6899643 0.77364916 0.7820975 0.7276541
0.7549977 0.80138797 0.760738 0.78097755 0.80697733 0.76758665 0.7952892 0.81727004
0.8535654 0.6948437 0.8153821 0.695401 0.842356 0.7386089 0.8168079 0.7071272
0.7468792 0.71354437 0.8317608 0.8380542 0.7059644 0.7383138 0.7234158 0.78984696
0.72980595 0.79335266 0.71295077 0.8147757 0.74366105 0.72177404 0.74466175 0.69435066
0.71959704 0.7608685 0.8357619 0.7131079 0.74543923 0.82828605 0.7145557 0.78016084
0.7059335 0.7030402 0.72413236 0.6994261 0.80779165 0.69210273 0.8384976 0.7820383
0.80522084 0.72112536 0.7939488 0.71672106 0.8517035 0.7869414 0.7201833 0.72533315
0.77944607 0.70237404 0.7611009 0.8201567 0.84156615 0.784257 0.76734567 0.7044126
0.73967534 0.7974461 0.7759478 0.7253417 0.7792022 0.6887331 0.7176804 0.7091831
0.7801843 0.7647559 0.8156658 0.84101784 0.75631297 0.83393914 0.74775696 0.81995445
0.7040084 0.7423271 0.77389234 0.78238326 0.7972839 0.7059474 0.7328125 0.7728068
0.75380486 0.70825857 0.79004544 0.8393733 0.7294691 0.82552135 0.7990372 0.8338688
0.7001982 0.7036253 0.8158231 0.72806317 0.8074647 0.6890651 0.8101157 0.7564518
0.7904152 0.7781646 0.7982538 0.81007326 0.708234 0.8121365 0.70864624 0.82712835
0.8005854 0.74848914 0.71060306 0.67582977 0.6954389 0.7983923 0.8256678 0.8307115
0.8074473 0.72276026 0.7593271 0.813436 0.8248032 0.8487564 0.78266996 0.7641972
0.77286613 0.7476293 0.8044317 0.72632784 0.69143987 0.6975726 0.7895211 0.767644
0.67949677 0.80801105 0.7363807 0.7937192 0.79579127 0.82489526 0.8116243 0.7613566
0.77054155 0.72966635 0.8011625 0.67136407 0.83399165 0.7967952 0.7073926 0.81998146
0.7375209 0.74997103 0.8084319 0.7269206 0.7958044 0.7537849 0.71403116 0.7013611
0.68502855 0.73290974 0.77199596 0.77092 0.76729727 0.77830166 0.70172125 0.74331415
0.7506549 0.7460736 0.722735 0.8325487 0.83471066 0.7060389 0.7366638 0.7302225
0.8024723 0.7186761 0.78184986 0.7670939 0.8068302 0.8016065 0.832604 0.8151649
0.71474314 0.79966706 0.8272034 0.80609536 0.806381 0.85264903 0.69553435 0.7269856
0.6837446 0.7526495 0.7014198 0.8068276 0.7930492 0.78478354 0.7069334 0.7540997

fc2.weight f4 [256, 256]
00000000: 2a0f 30bc 51f5 cf3c 5931 7bbd 74b7 2c3d
00000010: 7ea1 033d 420d 163d 7d7a 09bd a6cc 833a
00000020: 398f 6bbd b86a f83c aaf5 a1bb ff1d 143d
00000030: ae6d e4bc 2e67 61bd 9e89 8fbb a5f8 e03c
00000040: 6bcc 543d 9431 e43c 382b 103d 7d70 893b
00000050: 23eb 7dbb 77ed f73c cf2c f53c 68bf 09bd
00000060: e043 35bd 8b35 943c 091d 1cbd 3402 7bbd
00000070: 3bd0 363d 256e 47bd 1fd3 0bbc 0e1e 75bd
00000080: 3d18 45bd ab47 83bd f876 73bd 017c e5bc
00000090: a986 333d 3318 8fbc fb4b 89bd b45d 95bd
000000a0: bb24 11bd 0440 863c 4731 79bd 80a4 033d
000000b0: 9a74 e43c 7ab7 2dbd c81d 0c3d 2284 48bb
000000c0: 1de7 103d b864 8bbd 21b6 df3c 3ce1 b73b
000000d0: 2404 37bd fe7a 9ebd 89f1 6a3b 07a9 24bd
000000e0: 9943 53bd e1dd 26bd 0fa6 da3c 1d30 ccbc
000000f0: e11a 0c3d 81db e93c 595b debc b021 f8bb
00000100: fa69 33bc 3bfb c73b ae21 3cbb 2f9d acbc
00000110: 13a2 b43c fd63 75bc f065 9fba 33c6 333d
00000120: 1ea7 b33c 8869 65bd 3d8f 4d3c ddcd 793c
00000130: 87db 3bbb d12b 5cbd d0e5 6cbd ad2d 15bd
00000140: 7105 92bc eee7 36bd 64a2 2a3d 7229 5bbd
00000150: da88 52bd 21ce 613d f211 a33b 91ce ce3c
00000160: d58a a23c 51a2 423d 835e 8a39 3b9f 39bd
00000170: 85ef 61bc c0fd cfbb dc26 77bc 6633 853c
00000180: 3daf 483c 3751 c23c c2b8 3fbd a7fa 03bd
00000190: 7337 f33c 14ac 1b3d c4f3 68bd a587 38bd
000001a0: b874 80bd 3875 e7bc d547 3fbc cead e03c
000001b0: 2fd2 2b3d f50e b23b 6509 2d3d fc07 82bc
000001c0: b6c6 a33c d719 cbbb 3267 cfbc 8e7b 00bd
000001d0: bab9 b63b 2f16 80bd 84c5 1f3d 146e a6bc
000001e0: 8e55 7fbb 2d74 83bd cef9 90bd 78ba 593c
000001f0: be61 23bc 0997 53bd b871 37bd 5dbd 04bd
00000200: c190 8cbd a6e9 7e3c b0cd ccbb 9f59 ccbc
00000210: 4628 3d3c a21f 873c 688a 0ebd 3f0a 6539
00000220: 646b 7fbd 16df 933c 1f5a 383c d900 7cbd
00000230: d40b ea36 5962 bd3c 4bc8 8ebd bb40 bbbc
00000240: 9eca b4bc 037e da3a 9fbe f4bc f1bd 85bd
00000250: a32e 82bd 0859 38bb bc55 bf3c 203f e53a
00000260: b971 edbc 79e2 003d 202b efbc 9881 b43c
00000270: 0190 6cbd 0ac2 903c 76a0 55b9 941d 50bc
00000280: 119d 28bc e54c 333c a244 093d f838 353d
00000290: edbf 5fbd 7bae 203d 077e d43b 28d9 f4bb
000002a0: dc62 943c 6593 283d 5ebb 1d3d 3697 52bd
000002b0: 5a73 a1bc 97c1 92bc e62d 7e3c cb19 983b
000002c0: 4173 32bd 42a8 f83c c3c8 3abd 2610 913c
000002d0: 3f7b 9abd e051 733c 59dc 123d 6805 5ebd
000002e0: 17c7 033d 1eff 393c 5450 6f3c 7fe4 7b3c
000002f0: 41d8 57bd 272b 3c3a 4c80 173d aa17 afbc
00000300: 4803 113d 7ace dcbc 32c6 6e3c d41f cabc
00000310: 0521 df3c 6a72 55bc ac76 6ebd f17e 2dbd
00000320: ce52 3b3d e562 c8bc 63ec 29bd 6491 5b3d
00000330: 2b2c e43c 98dd a33c 12a3 16bd b297 c33b
00000340: b8ae 453c dfe2 de39 9e37 57bd 6dd8 d5bc
00000350: af26 75bd ea0e ecbc a478 113d 0f9d 11bc
00000360: f81b 9a3c 05fb 30bd 310a 273c 37d9 07bd
00000370: 9154 92bd dda2 373c 53c3 07bd f46b 45bd
00000380: 3c6e 5f3c 1111 06bd 7708 5abc b63b f3bb
00000390: ca57 9a3b 1ad6 dd3c 233d cfbb 3718 493d
000003a0: 8820 82bd 73cf 98ba 5bea 173d 42b4 fa3c
000003b0: b8fe c03c e115 81bd 2058 e33c 88f9 b9bc
000003c0: 3313 8ebd 169e aebc 5c0e 61ba fb1f 1d3d
000003d0: 86f6 1d3a c209 313d 2725 a03c cf58 90bc
000003e0: 457d ad3c 6555 533d a1c5 1a3c 6a76 3dbc
000003f0: 78b9 c33c 953d 7fbd 9f20 18bd d8ad 36bd
-0.010745803 0.02538553 -0.06132636 0.042167142 0.032136433 0.036633737 -0.03356408 0.0010055497
-0.057509635 0.030324325 -0.0049426155 0.03616142 -0.02788433 -0.05503004 -0.004380419 0.027462313
0.05195276 0.027855672 0.035197467 0.004194318 -0.0038744889 0.0302646 0.029928593 -0.033629805
-0.044254184 0.018091938 -0.038113628 -0.061281398 0.044632178 -0.048689026 -0.008534222 -0.059843116
-0.04811882 -0.06410154 -0.05943963 -0.028013231 0.043829594 -0.017467594 -0.06703945 -0.07293263
-0.03543542 0.016387947 -0.06083801 0.0321393 0.027887631 -0.042411305 0.03420809 -0.0030596335
0.035376657 -0.0680632 0.027308526 0.005611567 -0.044681683 -0.07738303 0.0035849533 -0.04020026
-0.051578138 -0.040738944 0.026690511 -0.024925286 0.03420532 0.02854705 -0.027143167 -0.0075723752
-0.01095056 0.006102947 -0.0028706598 -0.021071045 0.02204994 -0.014977452 -0.0012161117 0.04389019
0.021930274 -0.056008846 0.012546358 0.015246836 -0.0028664784 -0.053752724 -0.057836354 -0.036420513
-0.01782486 -0.04465478 0.041658774 -0.053506322 -0.051400043 0.05512822 0.0049765045 0.025244983
0.01984159 0.04751808 0.00026391828 -0.04531787 -0.013790016 -0.006347388 -0.015084948 0.01625986
0.012248811 0.023720367 -0.04680706 -0.032221463 0.029689526 0.038005903 -0.056873098 -0.045051236
-0.06272262 -0.028254136 -0.011674841 0.027426627 0.041948494 0.005433912 0.042245287 -0.015872948
0.019992214 -0.0061981487 -0.025317762 -0.03136783 0.0055763396 -0.06254231 0.039006725 -0.020316161
-0.0038960907 -0.06418643 -0.070788965 0.0132890865 -0.009972034 -0.05165771 -0.044786185 -0.032407153
-0.06863547 0.015558636 -0.006250106 -0.024945078 0.0115452465 0.016494576 -0.034799963 0.00021842959
-0.062358275 0.018050712 0.011251955 -0.061524246 6.9751204e-06 0.023118185 -0.069717966 -0.022858014
-0.022069272 0.0016669634 -0.029876051 -0.06530369 -0.063565515 -0.0028129239 0.023356311 0.0017490126
-0.028984891 0.03146598 -0.029195368 0.022034451 -0.05775452 0.01767065 -0.0002037304 -0.0127023645
-0.010291354 0.010943626 0.03351272 0.044243783 -0.054626394 0.039228898 0.00648475 -0.007472176
0.018113546 0.04115619 0.038508765 -0.051413737 -0.019708324 -0.017914576 0.015513873 0.0046417466
-0.043566946 0.03035367 -0.045601618 0.017707895 -0.075430386 0.0148510635 0.03585467 -0.054204375
0.03217229 0.011352329 0.014606554 0.015374302 -0.05269647 0.0007178061 0.036987588 -0.021373589
0.03540352 -0.026953924 0.014573621 -0.02467338 0.027237425 -0.013027767 -0.058218643 -0.04235739
0.045733266 -0.02446122 -0.0414852 0.053605452 0.027853092 0.020003125 -0.03677661 0.005969011
0.012065582 0.00042512172 -0.052543275 -0.026104176 -0.059851345 -0.028815705 0.035515442 -0.008887543
0.018812165 -0.04320814 0.010195301 -0.033166137 -0.07145036 0.011208263 -0.03314526 -0.048198655
0.013637122 -0.03273112 -0.013307682 -0.0074228896 0.0047101723 0.02707963 -0.0063244267 0.04909536
-0.06353861 -0.0011658504 0.037088733 0.030603532 0.02355896 -0.06303001 0.027751982 -0.022701994
-0.06937256 -0.021315616 -0.00085852086 0.038360577 0.00060258096 0.043222196 0.019548966 -0.017620472
0.021177897 0.05159511 0.009446532 -0.011563877 0.02389215 -0.06231459 -0.037140485 -0.044599384

fc2.bias f4 [256]
00000000: 18bb aebc 8af3 1b3f 0682 323f b97e 173f
00000010: 7584 9d3b e712 b8bc 6b76 243f 6993 b5bb
00000020: dc9b 193f 4720 1ebd 1374 283f a483 2a3f
00000030: d9ff 0a3d fb1a babc af68 323f d7bb 90bd
00000040: a7b9 283f b4f8 133f d738 a7bc 0437 75bd
00000050: 14c5 273f 2062 293f 00fa 86bd 9da4 323f
00000060: 07d1 1a3f 15fd 1b3f 584e 233f d640 1a3f
00000070: f426 1e3f 7323 133f bae6 273f e60c 43bc
00000080: 6006 513d 5d7a 153f 65e5 223f 1a49 103f
00000090: 2bfe 1b3f 2aa5 2c3f bf2e 223f 6fff 99bc
000000a0: 5ccc 1f3d f2c2 06bd 1650 19bd 80b0 433d
000000b0: 8e8f 9f3c b749 173f 908c 183f 3c1b 8dbd
000000c0: 9a21 173f 42c3 2a3f c7e2 2d3f d3f9 213f
000000d0: b0cc 73bd cb7d 273f 7277 1ebd 0fa6 1f3f
000000e0: 3a99 2e3f f9bc 36bd 80b4 123f 8af1 99bc
000000f0: 026b 003d c4fb b9ba 7549 16bd c4c5 163f
00000100: f202 1a3f 0f5a 193f 50e5 263f d332 2e3f
00000110: 5d21 c63c bf6d 27bd 0c48 2c3f db8a 143f
00000120: 3594 1f3d f1d8 253f 0035 233f 5219 153f
00000130: 5f36 2b3f 3a9b a13c 2c6f 10bd c32d 173c
00000140: b72e 243f 8b81 523d c189 57bd 1df2 253f
00000150: 8212 37bd 5db8 143f 8839 1a3f 0586 143f
00000160: 1f2d 223f 03d2 163f 45b1 133f 93d0 5d3d
00000170: c9fe 3ebd f6f2 2fbd b0d3 b23c 20c3 453d
00000180: cc63 403d 9703 293f 1069 313f 1c88 193f
00000190: cca7 1d3f 7d49 2e3f 1b38 293f 2ff2 1a3f
000001a0: 6792 25bd 8ab9 253f 9241 2e3f 440c 2dbd
000001b0: aa5c 193d 1fb3 1c3f 68c7 0b3b bdbd 213f
000001c0: f24c 303f 613b 303f 4f27 1d3f 6bc3 2a3f
000001d0: 3395 253c 2855 1a3f 618b edbc 09e6 2b3f
000001e0: fb99 2f3f d651 4cbd f9bc 1c3f c6ca 233f
000001f0: b439 2a3f fe23 dabc ab12 323f 86c9 e2bc
00000200: 1eaa 203f 2b65 e93c b615 1d3f 4324 64bd
00000210: 1333 1f3f 2c1c 2c3f 7c0d 253f 7113 173f
00000220: 3aec 2a3f ab83 ee3b 5b41 01bd 83b4 313f
00000230: 3662 183f 72c7 283f 36aa 153f 8625 1f3f
00000240: ec7c a93c f5b1 333f 3041 6bbc 79e6 423d
00000250: 6fb2 8cbc a8d4 203f ce71 323f 9241 1d3f
00000260: 60af 1a3f feb1 1a3f b8a5 15bd f626 bd3c
00000270: 1b78 283f 6a25 0f3d d4d3 233f 7dff 143a
00000280: 98d7 1e3f 24d4 263f e62a 1a3f d4fa 333f
00000290: 17ae 823c 5b04 3cbd d742 1dbc 2ff7 163f
000002a0: 43b2 aabc 06c9 2abd a213 3d3d bc3c 153f
000002b0: 4ece 273f 1066 d53b 8d8e 84bd 4e93 65bd
000002c0: 48d3 40bd de5c 183f 3f38 313f e54c 263f
000002d0: dcf9 323f fbe8 253f 8c91 c3bb 7c36 2e3f
000002e0: 807d 34ba c9bc 5bbd ade3 1a3f f53c 2e3f
000002f0: 8fe1 cbbb 86e2 03bd 3dc0 263f 674f 2c3f
00000300: a5e0 2abd 464c 2b3f 288f 1d3f 2739 58bd
00000310: eda5 fa3c bd40 1a3f f9b1 233f 9da6 1f3d
00000320: f66e 173f c39c 1b3f 5d05 1d3f 1206 223f
00000330: 6bed 293f 2acf 1f3f 9250 123f d6a4 253f
00000340: e1a5 193f 73f4 293f 5a78 1e3f 079f 61bc
00000350: 6065 1b3f 34d1 313f 576e 273c 2849 173f
00000360: 2a98 193f 9e10 263f 2025 8dbd 6971 303f
00000370: a079 bebc 6440 233f 326c 273f 22e6 273f
00000380: 15c8 293f 2308 1d3d 7562 043d abec 263f
00000390: cad5 2e3f 7955 2f3f 96c9 efbc 2d75 203f
000003a0: dafa 183f 3ce6 a23c d1b1 1a3f d8ca 8bbd
000003b0: 6606 173f c50b 1d3f b45d 403b 6780 88bd
000003c0: 144e 0f3d 1d70 1b3f 81dd 153f e7c4 0c3d
000003d0: 03a3 bf3b c716 273f 3c40 31bd 25bf 243d
000003e0: df58 203f 9b45 2d3f df57 1e3f 8d8f be3c
000003f0: aba7 793c c16e 64bd f4e4 233f 07e8 64bd
-0.021329448 0.60918486 0.6972965 0.5917774 0.00480705 -0.02246995 0.6424319 -0.0055412543
0.6000345 -0.038605 0.65802115 0.6660712 0.0339354 -0.022717943 0.69690984 -0.070670776
0.65908283 0.57801366 -0.020412846 -0.05986692 0.6553509 0.6616535 -0.065906525 0.6978243
0.604752 0.6093305 0.6379142 0.6025518 0.6177819 0.57475966 0.65586436 -0.011904931
0.05103147 0.58389837 0.6363128 0.56361544 0.60934705 0.6743952 0.6335258 -0.018798558
0.03901325 -0.032900758 -0.03742989 0.047775745 0.019477632 0.59096855 0.5958948 -0.0688996
0.59035647 0.6670419 0.6792416 0.63271827 -0.059521377 0.6542632 -0.03868813 0.6236276
0.68202555 -0.044613812 0.5730667 -0.018791933 0.03135205 -0.0014189412 -0.036691148 0.58895516
0.60160744 0.59903044 0.65193653 0.680463 0.02418583 -0.040876146 0.67297435 0.58024377
0.0389597 0.6478415 0.63752747 0.5824176 0.6687984 0.019727338 -0.03526227 0.009227219
0.6413378 0.051393073 -0.052621607 0.6482256 -0.044695385 0.58093816 0.60244036 0.58017
0.633501 0.589142 0.57692367 0.05415399 -0.0466297 -0.042956315 0.021829456 0.04828179
0.046970174 0.660211 0.6930094 0.5997331 0.6158416 0.68080884 0.66101235 0.6052579
-0.040422823 0.64736235 0.680688 -0.042248026 0.037441887 0.6121082 0.0021328572 0.6318014
0.6886741 0.68840605 0.61388105 0.66704434 0.010106373 0.6028619 -0.028997125 0.6714788
0.6859433 -0.049882732 0.6122585 0.6398128 0.664943 -0.02662849 0.69559735 -0.027683984
0.6275958 0.028490623 0.61361253 -0.055698644 0.6218731 0.67230487 0.644737 0.5901404
0.66766703 0.0072788796 -0.03155647 0.69416064 0.5952486 0.6592933 0.58462846 0.6216663
0.02068945 0.70193416 -0.014358804 0.047583077 -0.017174928 0.6282449 0.697049 0.6142818
0.6042385 0.60427845 -0.036534995 0.023089867 0.65808266 0.03494779 0.639951 0.00056838227
0.6204772 0.6516745 0.6022171 0.7030461 0.015952153 -0.04590259 -0.009598455 0.5897092
-0.020836955 -0.041695617 0.0461613 0.582958 0.6554917 0.006512411 -0.06472502 -0.056048684
-0.047076494 0.59516704 0.6922645 0.6496108 0.69912505 0.64808625 -0.0059682783 0.68051887
-0.0006885156 -0.053646836 0.60503656 0.68061763 -0.006221957 -0.03219845 0.6513708 0.6730866
-0.041718144 0.6691326 0.61546564 -0.05278888 0.030596698 0.6025503 0.6394344 0.038977254
0.5915369 0.60786074 0.6133631 0.6329051 0.66377896 0.6242548 0.5715419 0.64704645
0.60018736 0.66388625 0.6190239 -0.013770825 0.6070156 0.69459844 0.010219178 0.59096
0.5999781 0.64869106 -0.06891847 0.6892305 -0.023251355 0.6377013 0.6539947 0.6558553
0.66320926 0.038337838 0.03232046 0.65204877 0.68294966 0.68489796 -0.029270928 0.62678796
0.5975777 0.019885175 0.60427576 -0.06825799 0.5899414 0.61346084 0.0029352726 -0.06665116
0.03498657 0.60717946 0.58541113 0.03436747 0.00584829 0.6526913 -0.04327415 0.040221352
0.62635607 0.67684335 0.6185283 0.02326181 0.015237729 -0.055769686 0.6402123 -0.05588534

logits.weight f4 [5, 256]
00000000: f8a0 ce3b 4f91 443f 27cc 433f 4b8b 433f
00000010: fb96 b8bc b3af 49bb 6b62 433f 52e5 13bc
00000020: 2187 4b3f f54a 023c 8302 433f 92ca 4d3f
00000030: 1f44 18bd 9f22 13bb f137 453f cc0d 95bc
00000040: 15d1 463f da3b 453f dd22 2abd a8fe 94bc
00000050: abc5 3f3f 3128 483f 3b66 8b3c 21a0 493f
00000060: cfc5 4c3f 12f1 423f 9f64 4a3f d2f6 4d3f
00000070: 7a91 453f 4e06 493f a4dc 4e3f 9787 963c
00000080: 51b3 1f3d 970a 4e3f ecfa 543f a38b 333f
00000090: 27fb 4c3f e7b2 473f 33ad 503f 7c0d 01bd
000000a0: 9d24 873c 9215 3ebd 0b39 d6bc 244a 3a3d
000000b0: f6ed 40bd 19c2 533f 3d59 463f 888e 7a3c
000000c0: 54b9 4a3f 2475 423f b4cd 503f e46d 443f
000000d0: 2242 d4bc e1f6 4b3f 5928 a03c 5421 433f
000000e0: 163a 493f 9f35 c83c c117 403f e099 32bd
000000f0: 8c70 383b a525 22bd c17a 48bd c331 513f
00000100: 77a6 413f c318 423f 2662 4f3f a5c4 4f3f
00000110: b4a5 d0ba d354 c6bc df1d 553f 8bbe 473f
00000120: 1688 17bc c61e 4b3f cb43 553f c6c2 4d3f
00000130: c10c 3b3f 0166 c2bc b1c1 273d ba64 3ebd
00000140: 611a 4b3f 391a 84bc 61af 17bd bf96 4e3f
00000150: d205 7bbc 5c79 3e3f 0a9b 4f3f c780 523f
00000160: 23bf 4d3f ba74 4b3f 8265 483f 2dae d1bc
00000170: 84fe 29bd 8f43 87bc b581 2cbd 2ccf 533b
00000180: f799 9ebc 808d 553f e240 533f af51 4b3f
00000190: cc5e 3c3f 6ba8 453f 85e5 533f e8c4 403f
000001a0: 884a 16bd 36f9 533f 24f3 4d3f 4171 edbc
000001b0: 0e33 34bd dfa3 4f3f 5458 54bc ad26 543f
000001c0: e07d 4e3f a0c1 513f 02de 533f 789e 543f
000001d0: 9188 4cbd e58b 4d3f e7f2 f23c b88a 533f
000001e0: af19 443f f106 f7bc 3d0f 473f eadc 483f
000001f0: 23de 523f 8353 b9bc 9882 3b3f 55e1 b83c
00000200: 4e3d 443f 0e5d f8bc 89e4 423f 630e 33bd
00000210: ba6e 473f b995 433f 6f5b 553f 3b5c 503f
00000220: 749c 533f 404d 07bc bd52 873b e40d 443f
00000230: a3e3 3d3f 7a3b 4d3f 45d8 493f 4d21 2b3f
00000240: 61f2 76bc 0616 3f3f 4590 86bc 0949 863c
00000250: c5b2 d7bc c695 543f 6901 473f a6a6 4f3f
00000260: 40e7 473f 2f00 433f 1380 3e3c a303 41bd
00000270: b525 543f 67b1 1d38 f4e3 453f 7133 9dbc
00000280: ee7c 483f a7c5 4a3f bff8 4a3f 03d6 453f
00000290: 428f fabc 6842 06bd 2351 5d3c a672 503f
000002a0: 8dc3 2abd fc4c 60bb d9b5 3bbd 3802 483f
000002b0: b660 483f 49d1 01bd b275 92bc 3a65 0cbd
000002c0: a169 8ebc 1d2e 423f 99c9 4c3f 9c09 4d3f
000002d0: 9a4a 4e3f 7adb 523f 266f a1bc 67d2 463f
000002e0: fe28 70bc 728a fcbc 3588 403f 4729 523f
000002f0: 7b02 6bbd 2bca 75bc d592 493f 0b69 4d3f
00000300: bd9a 44bd 3b5c 473f 637a 4f3f a172 f2bc
00000310: 78f6 9cbc e16d 4a3f 38c5 513f 05ac 23bd
00000320: a07c 473f a0f9 4d3f 1b36 493f 67ea 543f
00000330: 74db 523f aef8 453f 309c 503f 6504 523f
00000340: 5a5b 523f 1634 423f 96b3 423f 750e 3dbd
00000350: 9ec4 523f 73d9 433f f9ae d9bc 818c 493f
00000360: ed6c 4c3f fbe8 4a3f 0c9f f0bc 17eb 493f
00000370: 6f70 af3a bb7d 433f 2b0f 493f 1511 513f
00000380: 6762 413f 704c 0bbc 6202 11bd e7c9 553f
00000390: e2db 393f 89cf 4b3f 0fe4 e2bc a343 4d3f
000003a0: 3dfc 4c3f 003f 273a 437a 4c3f f64a 1cbd
000003b0: 359a 4a3f 1442 503f de25 28bd 8fcf 8a3c
000003c0: 8392 a0bc 57fa 4e3f 059b 413f b023 0dbd
000003d0: a55a 24bd f0c8 533f 255b 19bd 80b9 d03b
000003e0: bba7 433f 563a 423f d5b8 463f b194 2fbd
000003f0: ffd3 8ebc 4bcd 39bd 7f9a 543f 19ab e83c
0.00630581 0.76784223 0.76483387 0.7638442 -0.02253293 -0.003077489 0.7632205 -0.009026842
0.79503065 0.007952441 0.7617571 0.8038722 -0.03717434 -0.0022451056 0.77038485 -0.018195055
0.77662784 0.7704445 -0.041537154 -0.018187836 0.7491099 0.7818633 0.01701652 0.7875996
0.7998933 0.76149094 0.79059786 0.8045474 0.77175105 0.78525245 0.8080542 0.018375201
0.03898937 0.8048491 0.83195376 0.70134944 0.8007073 0.7800736 0.8151428 -0.031507
0.01649695 -0.04640729 -0.026150247 0.045480862 -0.047101937 0.82718045 0.77479917 0.015292771
0.7918904 0.7595999 0.8156388 0.7673018 -0.02591044 0.7967358 0.01955049 0.7622273
0.7860426 0.024439631 0.75036246 -0.043603778 0.0028143255 -0.039586682 -0.048945192 0.81716555
0.7564463 0.75819033 0.8100914 0.8115943 -0.0015918524 -0.02421037 0.83248705 0.7802512
-0.009248754 0.7934383 0.8330657 0.80375326 0.73066336 -0.02373028 0.040956203 -0.04648278
0.79337126 -0.016125785 -0.03703249 0.8069877 -0.015321212 0.7440393 0.81095946 0.8222775
0.80369776 0.79474986 0.7827989 -0.025595749 -0.04150249 -0.016511707 -0.042115886 0.003231953
-0.019360526 0.83419037 0.8252088 0.79421514 0.7358215 0.7721011 0.82772094 0.75300455
-0.036692172 0.8280214 0.8044913 -0.028984668 -0.043994002 0.8110942 -0.012960512 0.82871515
0.8066082 0.81936073 0.8276063 0.83054304 -0.049934927 0.8029159 0.02965684 0.82633543
0.7660169 -0.030154677 0.77757627 0.7846209 0.82370204 -0.02262283 0.73246145 0.022568384
0.76656044 -0.03031781 0.76129967 -0.043714892 0.7790333 0.76400334 0.8334264 0.8139073
0.82660604 -0.008258164 0.004129736 0.76583695 0.7417547 0.8016888 0.78845626 0.6684769
-0.015072436 0.7464298 -0.016426215 0.016392248 -0.026330361 0.83041036 0.77736527 0.8111366
0.78087234 0.76172155 0.011627215 -0.04712261 0.82870036 3.7596936e-05 0.77300954 -0.019189568
0.7831563 0.79207844 0.79285806 0.7727968 -0.030585889 -0.032778174 0.013508114 0.8142494
-0.041690398 -0.0034225574 -0.04582772 0.78128386 0.7827257 -0.03169373 -0.017878387 -0.034276225
-0.017384352 0.75851613 0.79995114 0.8009279 0.8058258 0.82366145 -0.01970632 0.776648
-0.014658211 -0.030827735 0.75207835 0.82094234 -0.057375412 -0.015001814 0.7873967 0.8023841
-0.047999132 0.7787511 0.8104612 -0.029595675 -0.019160494 0.7907391 0.81941557 -0.039958972
0.7792454 0.8045902 0.78598183 0.8317017 0.8236611 0.7733258 0.81488323 0.82037956
0.8217064 0.75860727 0.76055276 -0.046156365 0.82331264 0.76503676 -0.026572691 0.78730017
0.7985371 0.7926175 -0.029372714 0.78874344 0.0013384948 0.76363724 0.7853877 0.8166669
0.75540775 -0.008502111 -0.035402663 0.83511204 0.7260114 0.7961355 -0.027696637 0.8018133
0.80072385 0.0006379932 0.79874057 -0.038157426 0.7914155 0.8135083 -0.041051738 0.016944675
-0.019601112 0.8085074 0.75627166 -0.034457862 -0.040125508 0.8272848 -0.037440438 0.0063697696
0.7642781 0.75870264 0.7762578 -0.042866413 -0.017435072 -0.0453618 0.8304824 0.028401898

logits.bias f4 [5]
00000000: dc99 cc3e 7ac0 e7be a0c8 d6be 4897 d1be
00000010: 0500 c4be
0.39961135 -0.45264035 -0.4194994 -0.4093573 -0.38281265
