policy_dummy.pt (torch, 422929 bytes, 6 tensors)

fc1.weight f4 [256, 142]
0	0xbd6e532d	-0.05818479
1	0xbd5cb9e3	-0.053888213
2	0x3cdab464	0.026697345
3	0xbd8b41f0	-0.06799686
4	0xbd68a470	-0.056797445
5	0x3bfb9f00	0.0076788664
6	0xbc16a9c7	-0.0091957515
7	0xbd8fb86b	-0.07017597
8	0x3d91b30d	0.07114229
9	0xbd9e660d	-0.077343084
10	0x3d267cb2	0.040646262
11	0xbd6283ca	-0.055301465
12	0x3d53dd7e	0.051724903
13	0xbb9f2ec6	-0.0048578708
14	0x3d5c16f9	0.053732846
15	0xbb5146ba	-0.0031933025
16	0x3ce6383d	0.028102988
17	0x3da29d18	0.079401195
18	0xbd950a27	-0.07277327
19	0xbd87aa27	-0.06624251
20	0x3d59b660	0.053152442
21	0x3d17e0ec	0.037079737
22	0xbca9071c	-0.020633273
23	0xbb38e468	-0.0028212313
24	0x3d804038	0.06262249
25	0x3d8dbc07	0.06920629
26	0xbcf74fb3	-0.03018937
27	0x3cea8e36	0.028632265
28	0xbda15d4e	-0.078791246
29	0x3d033b90	0.032039225
30	0xbd5acd57	-0.053418484
31	0x3b62d0d1	0.0034609328
32	0xbd5faad1	-0.054606263
33	0x3d5ca14e	0.05386477
34	0xbd8bb99f	-0.06822514
35	0x3dac5156	0.08413951
36	0xbd1d92bc	-0.038470015
37	0xbd4c92c1	-0.049944643
38	0xbd3a41d5	-0.04547294
39	0x3d43cbad	0.047801662
40	0xbd840044	-0.06445363
41	0xbd96e4ba	-0.07367845
42	0xbd10364d	-0.035208035
43	0xbd9856b0	-0.07438409
44	0x3bfe1043	0.0077534034
45	0xbc8439bc	-0.016140811
46	0x3c51ec35	0.012812664
47	0xbd583845	-0.052788038
48	0xbcfbc431	-0.0307332
49	0x3d7c26b7	0.06156036
50	0xbd3ff1e0	-0.04686153
51	0xbc5f1e3b	-0.013618047
52	0xbd90d70d	-0.07072268
53	0x3be7191d	0.0070525543
54	0x3d285832	0.041099735
55	0x3ceee86d	0.029163564
56	0x3db20899	0.08693046
57	0xbcb30f88	-0.021857992
58	0x3cc66a09	0.024220483
59	0xbd955269	-0.07291109
60	0x3cd9790b	0.026546976
61	0x3d3b7c06	0.045772575
62	0xbcbefe43	-0.0233146
63	0xbc708eae	-0.014682455
64	0x3d6ab276	0.0572991
65	0x3b055386	0.0020343973
66	0xbda0a1e1	-0.07843376
67	0xbd2159c8	-0.039392263
68	0x3d75c894	0.06000574
69	0xbc543486	-0.012951976
70	0x3d92c026	0.07165556
71	0x3d46132f	0.04835814
72	0x3d809a00	0.06279373
73	0x3c8f5ca6	0.017500233
74	0x3dab03e2	0.0835035
75	0x3d96a470	0.07355583
76	0xbc99d057	-0.018776102
77	0x3d8501ef	0.064945094
78	0x3c0f7e9e	0.008758215
79	0xbd22693a	-0.039651133
80	0x3d08912d	0.033341575
81	0x3d3b0659	0.04566035
82	0x3ca10d9c	0.01965981
83	0xb974b8c4	-0.00023338484
84	0x3d342053	0.04397614
85	0x3d9b7ff4	0.075927645
86	0xbda3c506	-0.079965636
87	0x3bb97863	0.005660103
88	0x3ca9fe6f	0.020751206
89	0x3d65eb82	0.0561328
90	0xbd64e935	-0.055886466
91	0x3da6c566	0.081431195
92	0xbd97b026	-0.074066445
93	0x3d0d3c22	0.034481175
94	0x3cb0720c	0.021538757
95	0x3d9d7c31	0.07689703
96	0x3d4ec56a	0.050481237
97	0xbd23ec6c	-0.04002039
98	0xbcbcb7fd	-0.023036951
99	0xba77b9d3	-0.0009449992
100	0xbdb4f60b	-0.088359915
101	0x3dae262d	0.08503375
102	0x3c5f5a6e	0.0136324
103	0xbcd15b8a	-0.025556345
104	0xbd6822db	-0.056673866
105	0xbb92994e	-0.0044738417
106	0xbcbd130b	-0.02308037
107	0x3d28b14a	0.0411847
108	0xbcda259d	-0.026629264
109	0x3d2e1fab	0.04251067
110	0x3d2ad746	0.041709207
111	0xbd8c0a32	-0.06837882
112	0xbd06a466	-0.032871626
113	0x3d1e9c58	0.03872332
114	0xbd7047dd	-0.058662284
115	0x3da9cb40	0.0829072
116	0x3d24c399	0.0402256
117	0x3cb1164d	0.02161708
118	0x3d2d1ed9	0.042265747
119	0xbd107a0b	-0.03527264
120	0x3d798875	0.06092115
121	0xbd1446db	-0.036200386
122	0xbad2c038	-0.0016079014
123	0x3d6a8c2d	0.05726259
124	0x3c414c85	0.011798029
125	0x390d2d16	0.00013463604
126	0x3d978bc5	0.07399706
127	0xbd3b5c56	-0.045742355
128	0xbd6a96e2	-0.0572728
129	0x3b1ce540	0.0023940355
130	0xbd80490a	-0.06263931
131	0x3c5af908	0.013365038
132	0x3c9eb3dc	0.019372873
133	0xba825144	-0.0009942432
134	0x3d0f02e0	0.03491485
135	0xbd363a48	-0.044489175
136	0xbd3c52b3	-0.045977306
137	0xbb65b162	-0.0035048355
138	0xbd2bad76	-0.041913472
139	0x3d60f76d	0.054923464
140	0x3a62eb5e	0.0008656288
141	0xbd450f53	-0.048110317
142	0xbd264db7	-0.04060146
143	0xbd9d47d2	-0.07679714
144	0x3d0b8150	0.03405887
145	0x3c452502	0.012032749
146	0x3d2301f6	0.039796792
147	0xbd61fe0f	-0.05517393
148	0x3da66408	0.08124548
149	0x3d98b8c1	0.07457114
150	0xbd734268	-0.0593895
151	0x3ba1c32a	0.0049365954
152	0x3da632e9	0.08115179
153	0x3d9afae3	0.07567384
154	0x3cd5529c	0.026040368
155	0xbcc3f354	-0.023919739
156	0xbd937cf5	-0.07201568
157	0x3cae8ce3	0.021307414
158	0xbda11c42	-0.07866718
159	0xbc1d733c	-0.009609994
160	0x3cbf9117	0.023384614
161	0x3d3c3a1f	0.045953866
162	0x3da0af3f	0.078459255
163	0x3d39ad3a	0.045331217
164	0x3d13640f	0.035984095
165	0xbd95def2	-0.07317914
166	0xbd24d506	-0.040242217
167	0xbd96932d	-0.0735229
168	0x3c846186	0.016159784
169	0xbca044ce	-0.019564059
170	0xbc6e0b7b	-0.014529104
171	0xbd1423d3	-0.036166977
172	0x3d8a0a46	0.06740241
173	0xbcb1e263	-0.021714395
174	0x3bc6cf52	0.006067195
175	0xbd82a983	-0.06379988
176	0xbc8a075c	-0.016849212
177	0x3d9c3196	0.07626645
178	0x3d61639f	0.055026647
179	0xbd95e1a7	-0.073184304
180	0x3cfef4b3	0.031122541
181	0xbd060f31	-0.03272933
182	0xbd665346	-0.05623176
183	0xbd977ac0	-0.073964596
184	0x3d928080	0.07153416
185	0x3d375935	0.04476281
186	0xbd850535	-0.06495134
187	0xbd488f99	-0.04896507
188	0x3bf809a5	0.007569509
189	0xbc99f3d5	-0.018793026
190	0x3d04f80d	0.032463122
191	0x3d54824f	0.051882084
192	0x3da6380b	0.08116158
193	0x3d24689f	0.040138837
194	0xba7afe0d	-0.00095745997
195	0x3d894291	0.0670215
196	0x3d46f303	0.048571598
197	0x3d93b6dd	0.07212613
198	0x3d423c8c	0.047421023
199	0x3cb10684	0.021609552
200	0x3c69ee6f	0.014278038
201	0x3d71c7e8	0.059028536
202	0xbd9b3a75	-0.07579509
203	0x3da16ed5	0.07882468
204	0xbda371d3	-0.079806946
205	0xbd48844d	-0.048954297
206	0xbd770a8e	-0.0603128
207	0x3d606f5b	0.054793697
208	0xbda1c168	-0.078982174
209	0x3c8cffce	0.01721182
210	0xbd964bf1	-0.073387034
211	0xbce449ce	-0.027867224
212	0xbcd3dcfc	-0.02586221
213	0x3d3efcd1	0.046627823
214	0x3cedbe53	0.029021418
215	0x3c1c7f92	0.0095518995
216	0x3d83e69b	0.06440469
217	0xbd67431d	-0.05646049
218	0x3ca682be	0.020326015
219	0x3d913381	0.07089902
220	0x3d4e057f	0.05029821
221	0xbca13e8e	-0.019683149
222	0x3da2dd78	0.07952398
223	0x3d753b54	0.059871033
224	0xbc55359a	-0.013013268
225	0x3d3e01c5	0.046388406
226	0x3cb666d1	0.022265824
227	0x3daa7cc4	0.083245784
228	0x3d89fdaa	0.06737836
229	0x3d8c8312	0.06860937
230	0x3d815ee7	0.06316929
231	0x3cc89f86	0.02449013
232	0xbda9f17e	-0.08298014
233	0xbd1dbbeb	-0.03850929
234	0x3c7a99e3	0.0152954785
235	0x3c835102	0.016029838
236	0x3b208139	0.0024491085
237	0x3d34265f	0.043981906
238	0x3d3a6830	0.045509517
239	0x3da1baec	0.07896981
240	0xbc0e58f9	-0.008688205
241	0xbce10e6e	-0.0274727
242	0xbd26621d	-0.040620912
243	0x3da0061b	0.078136645
244	0x3bdde65c	0.0067718457
245	0x3d8f2a49	0.06990487
246	0x3cca887b	0.024723282
247	0xbc73f5b8	-0.014890127
248	0x3cab27d4	0.020893015
249	0xbd03aec0	-0.032149076
250	0xbd251fc1	-0.040313486
251	0x3c5d3ec2	0.013503732
252	0xbcada6af	-0.021197645
253	0x3d1b79dc	0.03795801
254	0xbd9e8f54	-0.077421814
255	0x3d70e202	0.058809288

fc1.bias f4 [256]
0	0xbc477f81	-0.012176395
1	0x3cdce87d	0.026966328
2	0x3d7a11ae	0.061052017
3	0xbd076b93	-0.033061575
4	0xbd9c9707	-0.07645994
5	0x3a39a830	0.0007082252
6	0xbd36130a	-0.04445175
7	0xbd8ee10d	-0.06976519
8	0xbdaccecc	-0.08437881
9	0xbd1a92c0	-0.037737608
10	0xbd74d965	-0.059777636
11	0xbd7abfc0	-0.061218023
12	0xbda2a5a1	-0.079417475
13	0xbca2cc36	-0.019872766
14	0x3d347b64	0.044062987
15	0xbccff544	-0.025385506
16	0x3c1886c6	0.009309476
17	0x3d45b419	0.048267458
18	0x3db2ae3a	0.08724637
19	0xbd856ec7	-0.0651527
20	0xbd94823b	-0.07251402
21	0x3caf08e4	0.021366544
22	0x3d054fca	0.032546796
23	0xbd41b2ce	-0.047289662
24	0x3c8eebd1	0.01744643
25	0xb9173fec	-0.00014424295
26	0xba6b6422	-0.00089794595
27	0xbc32cb0d	-0.010912669
28	0x3d982e14	0.07430664
29	0xbd2d69ec	-0.042337343
30	0xbcc656fc	-0.0242114
31	0x3ba0060d	0.004883534
32	0x3d0fb3ad	0.03508346
33	0xbcce8bbd	-0.025213117
34	0x3d807d0f	0.06273853
35	0xbd3ab671	-0.045584146
36	0x3d1f1455	0.03883775
37	0xbd6f85f4	-0.058477357
38	0xbd8057a9	-0.0626672
39	0x3d95cbf5	0.07314292
40	0xbcdab273	-0.02669642
41	0xbd353085	-0.044235725
42	0xbbc14550	-0.0058981553
43	0xbcd8690d	-0.02641728
44	0x3dab4d5e	0.08364366
45	0x3d3637ea	0.044486918
46	0xbd94f6ec	-0.07273659
47	0x3af57932	0.0018728136
48	0x3d66ca02	0.056344993
49	0x3d25da7f	0.040491577
50	0xbd796792	-0.060889788
51	0x3ca8135c	0.020517044
52	0xbbb130c8	-0.0054074265
53	0xbcc92f2a	-0.024558622
54	0xbc5c5e1a	-0.01345017
55	0xbd8fb1f1	-0.070163615
56	0x3cccbd28	0.02499254
57	0xbc975af1	-0.018475981
58	0xbd359aea	-0.04433719
59	0xbda90242	-0.08252384
60	0x3d26a5ab	0.040685337
61	0x3d78b776	0.060721837
62	0x3d41b89a	0.04729519
63	0x3d868b5b	0.06569549
64	0xbda9cb0f	-0.082906835
65	0x3cf988ac	0.030460678
66	0x3bc295c2	0.0059382627
67	0xbbab3513	-0.005224833
68	0xbdaba3c4	-0.08380845
69	0xbd828b64	-0.06374243
70	0x3b1ebe00	0.0024222136
71	0x3d94c604	0.07264331
72	0xbd9aac34	-0.075523764
73	0x3caafb1d	0.020871693
74	0x3d86a200	0.06573868
75	0x3d82c980	0.06386089
76	0x3d834717	0.06410044
77	0x3c788acd	0.015169811
78	0x3d83741b	0.0641863
79	0xbd6e4254	-0.058168724
80	0xbc416894	-0.0118047185
81	0x3d4936a4	0.049124375
82	0x3d10d93c	0.03536342
83	0xbcd994f2	-0.02656028
84	0xbd775fc5	-0.060394067
85	0xbd0123de	-0.031528346
86	0xbd5b1d3b	-0.053494673
87	0xbd9eaeef	-0.0774821
88	0x3d9bfb53	0.07616296
89	0x3d0ee92c	0.03489034
90	0x3c81877c	0.015811674
91	0xbc5f6bf6	-0.01363658
92	0x3ce313de	0.027719434
93	0xbd9693af	-0.07352387
94	0x3b24fde0	0.0025175735
95	0xbd94a279	-0.07257552
96	0xbc9604a6	-0.018312763
97	0xbbed3238	-0.0072386526
98	0xbb736b20	-0.003714271
99	0x3c9d151a	0.019175101
100	0xbca7ed69	-0.020498948
101	0xbd8cd437	-0.06876414
102	0x3d1e0517	0.038579073
103	0x3d14047b	0.036137085
104	0xbc1c5c6a	-0.009543518
105	0xbd14acdf	-0.036297675
106	0x3c9a929c	0.018868737
107	0xbd30eb48	-0.04319313
108	0xbccff0b4	-0.02538333
109	0x3ca63863	0.02029056
110	0x3d668858	0.05628237
111	0x3c69fff8	0.014282219
112	0x3d6d5230	0.05793971
113	0x3cc57a2c	0.024106108
114	0xbd530069	-0.051514063
115	0x3da592dc	0.08084652
116	0xbd9f1c07	-0.07769018
117	0x3cb016ed	0.021495307
118	0xbd3d47b7	-0.04621097
119	0x3d83b798	0.06431502
120	0x3d352a1d	0.044229615
121	0x3cab5568	0.020914748
122	0xbc0001f1	-0.007812963
123	0xbcde1936	-0.02711163
124	0x3c3d3c76	0.01155006
125	0x3d87afeb	0.066253506
126	0x3c8d5ebd	0.017257089
127	0x3d541ee1	0.05178726
128	0x3d184e2a	0.037183918
129	0x3d2cef28	0.042220265
130	0xbcfd3708	-0.03091003
131	0x3da01565	0.07816581
132	0x3d57f60b	0.05272488
133	0x3ce80558	0.02832286
134	0x3d23133a	0.039813258
135	0xbd864e33	-0.06557884
136	0xbd33bf6c	-0.043883726
137	0xbc380839	-0.011232429
138	0xbd630cb2	-0.05543203
139	0xbd4b71e2	-0.049669154
140	0x3d2bc38f	0.041934546
141	0xbd1b0aff	-0.037852284
142	0x3d8aeb26	0.06783132
143	0x3d062219	0.03274736
144	0x3d2c8f84	0.042129055
145	0x3ce61041	0.028083922
146	0x3d69bab2	0.057062812
147	0x3d689b8f	0.056788977
148	0x3d0a72b9	0.033800814
149	0xbd7ac99a	-0.06122742
150	0x3ca19f8c	0.019729398
151	0x3cbf7563	0.023371404
152	0x3d9b294e	0.075762376
153	0xbd2e2ec1	-0.042525057
154	0x3d8a037e	0.06738947
155	0x3dac0be9	0.08400709
156	0xbd60cb9b	-0.054881673
157	0xbd6e6736	-0.0582039
158	0xbda9164e	-0.082562074
159	0xbd137f93	-0.036010336
160	0xbd85ed29	-0.06539375
161	0x3c912aa8	0.017720535
162	0x3b8aa080	0.004230559
163	0x3cfc80ae	0.030823078
164	0xbd344c04	-0.044017807
165	0xbcf93974	-0.030422904
166	0xbd0ba448	-0.034092218
167	0xbd5b1482	-0.053486355
168	0xbc9da2bf	-0.019242642
169	0xbc32d058	-0.010913931
170	0x3d5446e7	0.05182543
171	0x3d21f135	0.039536674
172	0x3d81fb12	0.06346716
173	0x3d553bd4	0.05205901
174	0xbc4c4130	-0.012466714
175	0x3bc1e07e	0.005916654
176	0x3da27d54	0.07934061
177	0x3d7a9104	0.061173454
178	0x3ba5707e	0.0050488105
179	0xbd661997	-0.056176748
180	0xbd4db572	-0.050221868
181	0x3d75c36c	0.060000822
182	0x3d2edfbb	0.042693835
183	0x3d0e0823	0.03467573
184	0xbcb25a53	-0.021771586
185	0x3d0d5868	0.03450814
186	0xbd9c942f	-0.07645451
187	0xbd22a69e	-0.03970968
188	0x3cbf498d	0.023350501
189	0x3c806731	0.015674205
190	0x3d0ad0bd	0.033890475
191	0x3d8cac87	0.068688445
192	0x3d28f91b	0.04125319
193	0x3c0b0757	0.008485637
194	0x3d5e3ee0	0.05425918
195	0xbd32687c	-0.043556675
196	0xbdab9071	-0.083771594
197	0xbd607970	-0.05480331
198	0x3d0da124	0.034577504
199	0x3cfc3f84	0.030792005
200	0x3d176a9c	0.036966905
201	0x3d963721	0.07334734
202	0xbd9f7cd4	-0.07787481
203	0xbcc84081	-0.02444482
204	0xbd0128a8	-0.031532913
205	0x3c7e09d4	0.015505273
206	0x3d36e05b	0.044647556
207	0x3d7fb0b4	0.062424377
208	0xbd01fc40	-0.031734705
209	0xbc7dd183	-0.015491846
210	0xbc0e6a65	-0.008692359
211	0xbd1fcba1	-0.039012555
212	0xbd48d0f2	-0.04902739
213	0xbcce4343	-0.025178557
214	0x3d913ac0	0.07091284
215	0x3da9e358	0.082953155
216	0x3da8498b	0.08217152
217	0xbd42a57f	-0.04752111
218	0xbd1c0be8	-0.038097292
219	0x3d94055e	0.07227586
220	0xbd13f747	-0.036124494
221	0xbc6b0845	-0.014345233
222	0x3d8b907d	0.06814668
223	0xbc359f20	-0.011085302
224	0x3ccdab3f	0.02510607
225	0x3d871332	0.06595458
226	0xbca8baee	-0.020596948
227	0xbd463685	-0.048391838
228	0xbd90c4db	-0.07068797
229	0x3c8a3824	0.016872473
230	0xbd416cb5	-0.04722281
231	0x3db1c1fc	0.08679578
232	0x3d316f4c	0.04331903
233	0xbd84d847	-0.06486564
234	0xbd71404c	-0.05889921
235	0x3c6e34ee	0.014538987
236	0xbd565f61	-0.052337054
237	0xbd5ed4bb	-0.054402094
238	0xbd13f46c	-0.03612177
239	0x3d33546a	0.043781675
240	0x3c5076ec	0.012723666
241	0x3d755071	0.059891168
242	0x3da340b7	0.07971328
243	0xbd64b6dc	-0.05583845
244	0xb951e27a	-0.00020016162
245	0xbd767475	-0.060169656
246	0xbcdac6f2	-0.026706193
247	0xbd129617	-0.035787668
248	0x3d153634	0.036428645
249	0xbd4ef26c	-0.05052416
250	0x3ce50680	0.027957201
251	0x3c965a8d	0.018353725
252	0xbcc53e29	-0.024077492
253	0xbcea6f8a	-0.02861764
254	0x3d5dd445	0.054157514
255	0xbb811428	-0.0039391704

fc2.weight f4 [256, 256]
0	0x3cca21a4	0.024674244
1	0x3cfa85a8	0.03058131
2	0xbc84efb8	-0.016227588
3	0xbd168d1c	-0.036755666
4	0x3c76a260	0.015053362
5	0x3cd0f80c	0.025508903
6	0x3d6d97be	0.05800604
7	0xbc9277d0	-0.017879397
8	0xbb5098c0	-0.0031829327
9	0xbd279526	-0.040913723
10	0x3d77fd04	0.06054403
11	0xbd173464	-0.036915198
12	0x3d41e13a	0.047333933
13	0xbd3da2ee	-0.04629796
14	0x3cb49f78	0.022048697
15	0xbd096b98	-0.033549875
16	0x3c74c648	0.014939852
17	0x3d786d16	0.060650907
18	0x3d32eeae	0.043684654
19	0xbca30af8	-0.019902691
20	0x3d2e9b00	0.04262829
21	0x3d48888c	0.048958346
22	0xbcc3a37c	-0.023881666
23	0xbd29d4c8	-0.04146269
24	0x3cc55584	0.024088629
25	0x3d0fe926	0.035134457
26	0x3d648e6c	0.055799887
27	0xbd1004a6	-0.035160683
28	0xbd05260a	-0.03250698
29	0x3cb031b4	0.021508075
30	0xbd2fd7d4	-0.04293044
31	0x3d31d536	0.043416224
32	0xbd5458e2	-0.051842578
33	0xbc1d9a08	-0.009619243
34	0xbcbc49bc	-0.022984378
35	0xbd020caa	-0.03175036
36	0x3d1d98a8	0.038475662
37	0xbca6e7cc	-0.020374201
38	0x3d14d04e	0.036331467
39	0x3d0ddf5c	0.03463684
40	0x3d04e330	0.032443225
41	0x3d2f09f6	0.04273411
42	0xbd4e931e	-0.05043327
43	0xbd14d274	-0.036333516
44	0xbd03b244	-0.03215243
45	0x3d11017c	0.035401806
46	0x3d384e2e	0.044996433
47	0xbd44b7c0	-0.0480268
48	0x3b333ca0	0.0027349368
49	0xbd6b0f1e	-0.057387464
50	0x3d4a1654	0.0493377
51	0xbd31bbd8	-0.043392032
52	0xbd7797d8	-0.060447544
53	0xbbf04a20	-0.007333055
54	0xbd19f01c	-0.0375825
55	0x3c79e5b8	0.015252523
56	0x3beb25c0	0.007176131
57	0x3d1b23f0	0.03787607
58	0x3be8cd70	0.007104568
59	0x3c8048ac	0.015659653
60	0x3d7b538e	0.06135898
61	0x3b8adfa0	0.004238084
62	0xbbb34ba0	-0.0054716617
63	0x3c1b8ad0	0.009493545
64	0xbd0a2fbc	-0.03373693
65	0x3b9a8280	0.004715264
66	0xbd01f9f6	-0.031732522
67	0xbd32a986	-0.0436187
68	0x3d688c5a	0.056774475
69	0xbcffd04c	-0.031227253
70	0xbd61692c	-0.05503194
71	0x3d6eaf3c	0.058272585
72	0x3c3e44a8	0.011613049
73	0xbd58c73a	-0.052924372
74	0xbcbcee78	-0.02306293
75	0xbd55367e	-0.05205392
76	0x3bb168d0	0.005414106
77	0xbcad0220	-0.021119177
78	0xbb8ca340	-0.004291922
79	0x3c7c0c28	0.015383758
80	0xbc873994	-0.016506948
81	0x3c6f3b28	0.014601506
82	0xbc9a05dc	-0.018801622
83	0xbae92b00	-0.0017789304
84	0xbd0a851c	-0.03381835
85	0x3cdd14c8	0.026987448
86	0x3d27bc8e	0.040951304
87	0x3c00a5b0	0.007852003
88	0x3cea8300	0.028626919
89	0xbc90e57c	-0.017687552
90	0x3d25acd8	0.04044804
91	0xbd0b9b24	-0.0340835
92	0x3c032d20	0.008006364
93	0x3cce7110	0.025200397
94	0xbb81ae70	-0.003957562
95	0xbd0cd2a0	-0.034380555
96	0x3c49a9c8	0.012308545
97	0x3d30c270	0.04315418
98	0xbd23c6cc	-0.03998451
99	0x3d188f74	0.037246183
100	0xbcd839ec	-0.026394807
101	0xbca71ec0	-0.020400405
102	0xbd3b4038	-0.04571554
103	0x3b8403c0	0.0040287673
104	0xbd72e2a2	-0.059298165
105	0xbd07e970	-0.033181608
106	0xbcddcde4	-0.027075715
107	0xbcff2064	-0.031143375
108	0xbc8f312c	-0.017479502
109	0x3c6d0e10	0.014468685
110	0xbd1589da	-0.03650842
111	0xbc208c38	-0.009799056
112	0x3ccda634	0.025103666
113	0xbb342e20	-0.0027493313
114	0x3d703f1a	0.05865393
115	0xbce163d8	-0.02751343
116	0xbc5e8088	-0.013580449
117	0xbd35a550	-0.044347107
118	0xbd3b4fae	-0.045730285
119	0xbd0b2366	-0.033969305
120	0xbc5689e0	-0.013094395
121	0xbd4ad724	-0.04952158
122	0x3bf9ac30	0.0076194033
123	0x3cff9584	0.031199224
124	0xbcf8e2ac	-0.030381523
125	0x3c9b8b08	0.018987194
126	0xbb8c4200	-0.0042803288
127	0x3d26f184	0.04075767
128	0x3d11c1d6	0.035585247
129	0x3ca00f20	0.019538462
130	0xbd7f0c84	-0.062267795
131	0xbc899254	-0.016793407
132	0x3cda05f4	0.026614167
133	0xbc9a9360	-0.018869102
134	0xbb465a60	-0.003026627
135	0xbcf17cd4	-0.029478468
136	0x3cf0c6e4	0.029391713
137	0x3d4d2abc	0.050089583
138	0x3cf10030	0.029419035
139	0xbd789112	-0.060685225
140	0x3c0fd8c8	0.008779712
141	0x3cd8c51c	0.026461177
142	0xbd04ec4e	-0.03245192
143	0xbd2c8000	-0.042114258
144	0x3bf206c0	0.0073860586
145	0xbd5b4cea	-0.053540148
146	0xbc443ef8	-0.011977904
147	0x3cad17b8	0.021129474
148	0x3d3556ba	0.044272162
149	0xbc23ace8	-0.0099899545
150	0x3c43d980	0.0119537115
151	0xbcd377e0	-0.025813997
152	0x3d2eb618	0.042654127
153	0xbb655f60	-0.0034999475
154	0xbc376990	-0.011194602
155	0x3cfec1ac	0.03109821
156	0xbbdf0830	-0.006806396
157	0x3c863a3c	0.01638519
158	0x3c609e28	0.013709582
159	0xbd548040	-0.05188012
160	0xbd2ab8ae	-0.04168003
161	0xbcfe27a4	-0.031024761
162	0x3d6b6f68	0.057479292
163	0x3d574134	0.052552417
164	0xbc56bd68	-0.013106681
165	0x3c64fe98	0.0139767155
166	0x3d448bc8	0.04798487
167	0xbcf381c0	-0.029724956
168	0xbc35b008	-0.011089332
169	0x3d0373aa	0.032092728
170	0xbd28c3be	-0.0412023
171	0xbadcdf80	-0.0016851276
172	0x3ccae83c	0.024768941
173	0x3d43d2ae	0.04780834
174	0x3c992df4	0.01869867
175	0x3d4de720	0.050269246
176	0x3cb52d40	0.022116303
177	0xbc668398	-0.01406946
178	0xbd649016	-0.055801474
179	0x3d6de2ac	0.0580775
180	0x3c05cab0	0.008166
181	0xbcfb3edc	-0.030669622
182	0x3b043840	0.002017513
183	0x3d35993a	0.04433558
184	0xbcc0eb68	-0.02354975
185	0x3bde72f0	0.006788604
186	0x3d26c9a4	0.040719643
187	0xbcd03124	-0.025414057
188	0xbc6bb120	-0.014385492
189	0xbd46ebd2	-0.04856474
190	0x3bec56d0	0.0072124973
191	0xbc6b6e48	-0.014369555
192	0x3b5da5a0	0.0033820644
193	0xbc24ec28	-0.01006607
194	0xbd17ed80	-0.037091732
195	0x3d165ea2	0.036711343
196	0xbd54eb2e	-0.051982097
197	0x3c799f90	0.015235797
198	0xbd1fb1fc	-0.0389881
199	0xbd4bdd7e	-0.04977178
200	0x3d52d43e	0.05147194
201	0xbc6e31c0	-0.0145382285
202	0xbd15aaac	-0.03653972
203	0x3cf1af00	0.029502392
204	0x3d77d4d4	0.060505703
205	0x3d4c01ae	0.04980629
206	0x3d798488	0.060917407
207	0xbd4ab5ca	-0.049489774
208	0xbd62ebd2	-0.055400677
209	0xbc93c334	-0.018037416
210	0xbd652bfe	-0.055950157
211	0x3d7a0966	0.06104412
212	0x3aa5d6c0	0.0012652501
213	0x3d24c618	0.04022798
214	0x3d59fca4	0.053219453
215	0xbd15e268	-0.03659287
216	0x3d0b8586	0.034062885
217	0x3cec08c8	0.028812781
218	0xbd748ee6	-0.05970659
219	0xbc39bc70	-0.011336431
220	0x3cf08424	0.029359885
221	0x3ceecc5c	0.02915018
222	0xbd3cb720	-0.04607308
223	0x3d65429e	0.055971734
224	0xbcc82f2c	-0.024436556
225	0x3c28d5a0	0.010304838
226	0xbca4dd80	-0.02012515
227	0x3c89900c	0.01679232
228	0x3d3158ba	0.043297507
229	0x3c9fc804	0.019504555
230	0xbd1ed82c	-0.038780376
231	0x3cb9a2d0	0.022660643
232	0x3d330c38	0.043712825
233	0x3ca7bc38	0.020475492
234	0xbd0d4bda	-0.034496166
235	0x3a800c40	0.0009769276
236	0xbd4500c2	-0.048096426
237	0xbce3e8c8	-0.02782096
238	0xbd5f3a7a	-0.054499127
239	0xbc0d7c90	-0.008635655
240	0xbcc251cc	-0.023720644
241	0xbd248e26	-0.040174626
242	0x3c15f238	0.009151988
243	0xbd135e5e	-0.035978667
244	0xbd1a362a	-0.03764931
245	0xbc502108	-0.012703188
246	0x3d369bee	0.0445823
247	0x3d28bfe8	0.04119864
248	0xbc500548	-0.012696572
249	0xbd14ec4e	-0.03635817
250	0x3c20cf08	0.009814985
251	0x3d214f18	0.03938207
252	0xbd08e428	-0.03342071
253	0xbbf2b620	-0.007406965
254	0x3cefb5a8	0.029261425
255	0x3c0137e0	0.007886857

fc2.bias f4 [256]
0	0xbca60cc0	-0.020269752
1	0xbc199fe8	-0.0093765035
2	0x3d4be5a9	0.049779568
3	0x3c1794f9	0.009251826
4	0x39d4eafa	0.00040610862
5	0xb9064600	-0.00012805313
6	0xbd165fab	-0.03671233
7	0xbd550fc6	-0.052016996
8	0x3d3d4fcf	0.04621869
9	0x3bb46459	0.0055051264
10	0xbc4a52bf	-0.01234883
11	0xbb242212	-0.0025044722
12	0xbd3a9004	-0.0455475
13	0xbb0c5d56	-0.0021417937
14	0x3d54582b	0.051841896
15	0x3c814405	0.015779505
16	0xbbe3a57e	-0.0069472184
17	0x3cb7e898	0.022449777
18	0xbd55f233	-0.052232932
19	0x3d4a3cb2	0.04937429
20	0xbcfca751	-0.030841501
21	0xbd422bb7	-0.04740497
22	0x3d24c9ec	0.04023163
23	0x3ce127ac	0.027484737
24	0x3d4c79b2	0.049920745
25	0xbd0c577c	-0.03426312
26	0x3d0d019a	0.034425355
27	0x3d00e4f5	0.03146835
28	0x3d062b38	0.03275606
29	0x3d1aec7a	0.037823178
30	0x3d83d93a	0.06437917
31	0x3d3d2b98	0.046184152
32	0xbd2aba69	-0.04168168
33	0xbc497354	-0.012295563
34	0xbcf2935c	-0.029611282
35	0x3aa31208	0.0012441287
36	0xbd57cea2	-0.052687295
37	0x3d035e56	0.032072388
38	0x3c5a1310	0.013310209
39	0xbc235d1a	-0.009970928
40	0x3d14aeea	0.036299624
41	0x3d1f2c34	0.038860515
42	0x3d695930	0.05696982
43	0x3d056c1d	0.032573808
44	0xbd5717ab	-0.052512806
45	0x3d12ae69	0.03581086
46	0x3d2f7d8e	0.042844348
47	0x3d73c1d7	0.059511032
48	0xbd58eb42	-0.052958734
49	0xbcf4dca5	-0.029890368
50	0x3c232a7a	0.009958858
51	0xbd25b6fc	-0.04045771
52	0x3a84be40	0.00101275
53	0xbc7ce362	-0.015435072
54	0x3cbe781b	0.02325063
55	0xbce6d5a1	-0.028178038
56	0x3d26e2ef	0.040743764
57	0xbd5b281d	-0.053505052
58	0x3ccad06a	0.024757583
59	0xbc972939	-0.018452274
60	0xbd05891a	-0.032601453
61	0x3d2b0949	0.041756902
62	0x3d58ce8e	0.05293136
63	0xbcac0283	-0.020997291
64	0x3c7420ef	0.01490043
65	0xbbb2afce	-0.0054530865
66	0xbd2524be	-0.040318243
67	0xbcd6317e	-0.026146647
68	0xbcd51074	-0.026008822
69	0x3d08ddcd	0.03341465
70	0x3c726e79	0.014796847
71	0x3c94b95a	0.018154789
72	0xbd7027c8	-0.05863169
73	0x3d80c3b2	0.06287326
74	0x3cdbae24	0.026816435
75	0xbb73f7db	-0.003722659
76	0x3a4f7de4	0.00079151825
77	0x3d470407	0.048587825
78	0x3d4ec1e2	0.05047787
79	0xbd7ec73b	-0.06220172
80	0xbb732231	-0.0037099237
81	0x3d026b38	0.031840533
82	0xbd622c9a	-0.055218317
83	0xbbe99640	-0.007128507
84	0xbc9ad7e0	-0.018901765
85	0xbcb1e110	-0.021713763
86	0x3d88ca73	0.06679239
87	0xbd325a28	-0.04354301
88	0x3d36ab20	0.04459679
89	0x3cc40e1b	0.023932507
90	0x3d1a0057	0.03759798
91	0x3d13317c	0.035935864
92	0x3c8fd193	0.017555987
93	0x3ca9ae6b	0.020713052
94	0x3d58440e	0.052799277
95	0xbb9702ad	-0.0046084733
96	0x3d881dc2	0.06646301
97	0x3c86e90d	0.01646855
98	0xbd279f66	-0.0409235
99	0xbbaf43d9	-0.0053486642
100	0xbc9315f5	-0.017954806
101	0x3b600c29	0.0034186936
102	0x3d4a8b35	0.049449164
103	0x3d5625c6	0.052282117
104	0xbcf01710	-0.029307872
105	0xbb303521	-0.0026887136
106	0x3d547b0a	0.05187515
107	0x3c91ed02	0.01781321
108	0x3d0d1e7a	0.034452893
109	0xbd65e918	-0.0561305
110	0x3d7723a4	0.060336724
111	0xbcab557e	-0.02091479
112	0xbd56b3b6	-0.05241748
113	0xbd60c4d4	-0.05487521
114	0x3d864a40	0.06557131
115	0xbc3ad458	-0.011403166
116	0xbc030fb8	-0.007999353
117	0x3bde70d0	0.0067883506
118	0x3cb605f3	0.022219634
119	0xbd71d4fd	-0.059041012
120	0x3cc42e35	0.023947814
121	0x3d432bb4	0.0476491
122	0xbc8eca6c	-0.017430507
123	0xbbc23d00	-0.005927682
124	0xbc184e98	-0.009296082
125	0x3d43573e	0.047690623
126	0xbcd582a9	-0.02606328
127	0x3d6646fd	0.056220043
128	0xbd140a13	-0.03614242
129	0x3c3349fc	0.010942932
130	0xbc9bac97	-0.019003196
131	0xbd28be59	-0.041197155
132	0xbd7aae48	-0.061201364
133	0xbd6e0148	-0.05810669
134	0x3d469890	0.04848534
135	0xbc04ab50	-0.008097485
136	0x3bdb6695	0.0066955783
137	0x3cd0d820	0.025493681
138	0xbd6fd60c	-0.05855374
139	0xbd295d9b	-0.041349035
140	0x3d0f1916	0.034936033
141	0x3d6d450e	0.057927184
142	0x3d6ae266	0.057344817
143	0xbd0b0e94	-0.03394945
144	0xbd018268	-0.031618506
145	0xbd2b6754	-0.04184659
146	0x3cffb7eb	0.031215629
147	0xbcfdb550	-0.030970246
148	0x3d318ded	0.04334824
149	0xbc5b7fed	-0.013397199
150	0x3d18d3aa	0.037311234
151	0x3b95c8b9	0.004571047
152	0x3bc39917	0.0059691775
153	0x3ca8de70	0.020613879
154	0xbd2b31ef	-0.041795667
155	0xbd6b01ae	-0.05737465
156	0x3d18403b	0.03717063
157	0xbd3ed0d2	-0.046585865
158	0x3d2c647d	0.04208802
159	0x3c3915e8	0.011296727
160	0xbd742a30	-0.059610546
161	0x3ccdb2e3	0.025109714
162	0xbd3ebdf1	-0.04656786
163	0xbd2c2882	-0.04203082
164	0xbd7a1948	-0.061059266
165	0x3cc658da	0.02421229
166	0x3ce612ca	0.028085131
167	0x3d51fb31	0.051264945
168	0xbaad43d6	-0.0013219069
169	0xbd07a028	-0.03311172
170	0x3d7f9040	0.062393427
171	0xbd214f4d	-0.039382268
172	0xbd4c19c8	-0.049829274
173	0xbd385284	-0.045000568
174	0x3c90e6ad	0.01768812
175	0x3c39d00e	0.011341108
176	0xbd68533d	-0.056720007
177	0x3d45b0df	0.04826438
178	0x3d2486a0	0.04016745
179	0x3aa04fd4	0.0012230822
180	0xbd309349	-0.043109212
181	0xbd3f0dd9	-0.046644066
182	0x3d441adc	0.047877178
183	0xbd4c1438	-0.04982397
184	0x3d381cef	0.04494947
185	0xbb903d99	-0.0044018743
186	0x3ce06e7e	0.027396437
187	0x3ca00e95	0.019538203
188	0x3c9d033c	0.019166581
189	0xbc88e242	-0.01670945
190	0xbd58249f	-0.0527693
191	0x3d643f70	0.05572456
192	0x3b44ce39	0.0030030145
193	0x3d04b4e7	0.032399084
194	0xbd2529fb	-0.04032324
195	0xbd5c1ab8	-0.05373642
196	0x3d51e7fd	0.051246632
197	0xbd843a5c	-0.06456444
198	0x3d2385a2	0.039922364
199	0xbcb1aa32	-0.0216876
200	0x3d1588ae	0.0365073
201	0x3beebeec	0.0072859433
202	0x3c024568	0.007951118
203	0xbd496df6	-0.049177133
204	0x3d53313a	0.051560618
205	0x3b13db99	0.002256131
206	0xbd51c16e	-0.05120986
207	0x3d60310a	0.054734267
208	0x3b682734	0.0035423758
209	0xb9e09200	-0.00042833388
210	0x3a42e33f	0.0007434375
211	0xbcf69a64	-0.030102916
212	0xbc938750	-0.018008858
213	0x3d5ee432	0.054416843
214	0xbbd6dcc0	-0.006557077
215	0x3c1db416	0.009625455
216	0x3c55fe3e	0.013061104
217	0x3cdfcf27	0.027320458
218	0xbc4bf3f8	-0.012448303
219	0x3cbc5500	0.02298975
220	0xbd5f68cf	-0.054543313
221	0xbd54135c	-0.051776275
222	0xbd366751	-0.044532124
223	0xbd46288f	-0.048378523
224	0xbd5a3fda	-0.05328355
225	0xbd4a632a	-0.049410976
226	0xbc8207be	-0.015872832
227	0x3d333e89	0.04376081
228	0x3cd4428c	0.025910638
229	0x3d4d1218	0.050066084
230	0x37d6a4a0	2.5587447e-05
231	0x3c580d1a	0.013186717
232	0x3d443f48	0.047911912
233	0x3c84911b	0.016182473
234	0x3d19b260	0.037523627
235	0x3d3eed33	0.04661293
236	0x3d0d1568	0.034444243
237	0x3d0619b0	0.03273934
238	0x3c849147	0.016182555
239	0x3c4899f2	0.012243735
240	0x3d0c8d24	0.03431429
241	0x3ce3e3a0	0.027818501
242	0x3d0ad9c0	0.03389907
243	0x3d36681e	0.044532888
244	0x3d436be3	0.04771031
245	0x3a35faee	0.00069419935
246	0xbcc33408	-0.023828521
247	0x3d0916e3	0.033469092
248	0xbd455cf1	-0.04818434
249	0xbcfb41ee	-0.030671086
250	0xbc72d4a6	-0.014821207
251	0xbd39ecf7	-0.045392003
252	0xbd0373cd	-0.032092858
253	0x3d65e498	0.056126207
254	0x3c8acd96	0.016943734
255	0xbd5a2b64	-0.053264037

logits.weight f4 [10, 256]
0	0x3d282e5e	0.041059844
1	0x3d04b644	0.032400385
2	0xbd5a641a	-0.05331812
3	0x3d2a49eb	0.0415744
4	0x3d17d311	0.037066523
5	0xbcc8253a	-0.024431814
6	0x3bc3e0d5	0.00597773
7	0x3d203eb4	0.0391223
8	0xbd2f227b	-0.042757493
9	0x3d53a2eb	0.051669043
10	0x3cf9dced	0.030500853
11	0xbc61ee5b	-0.0137897385
12	0x3d26bc5c	0.040706977
13	0xbbb3a96d	-0.0054828436
14	0x3c75e6fe	0.015008686
15	0x3d0c8502	0.034306534
16	0xbd3f4b21	-0.046702508
17	0xbd49a416	-0.04922875
18	0x3b2e26c1	0.0026573392
19	0x3d2f40b7	0.042786326
20	0x3b2b0f34	0.002610159
21	0x3d2787f8	0.040901154
22	0xbd777528	-0.060414463
23	0x3d563328	0.05229488
24	0xbcd51248	-0.026009694
25	0x3c8230cf	0.015892414
26	0x3d827cd7	0.063714676
27	0x3c7ab996	0.015303036
28	0x3d6ba6e0	0.05753219
29	0xbd4dcad1	-0.05024225
30	0x3bcad147	0.0061894986
31	0xbcdb2294	-0.026749887
32	0xbd68b6bd	-0.056814898
33	0x3d05cfd1	0.032668892
34	0xbd3e26d8	-0.046423763
35	0xbd622991	-0.055215422
36	0xbcd97226	-0.026543688
37	0x3d2d2235	0.04226895
38	0xbcc13d09	-0.023588674
39	0xbbb878d9	-0.0056296405
40	0x3d2f5d32	0.042813487
41	0x3d6558c0	0.05599284
42	0x3d861330	0.065466285
43	0xbd69c7f5	-0.05707546
44	0x3c8c81ab	0.017151674
45	0x3c09bd36	0.008406928
46	0xbbf236fa	-0.0073918076
47	0x3d52fcca	0.05151061
48	0x3cc49d61	0.024000825
49	0x3ba71723	0.0050991937
50	0xbd0a0e67	-0.03370514
51	0xbd10ef6b	-0.035384577
52	0xbbde8fc0	-0.0067920387
53	0xbd3080d4	-0.04309161
54	0xbd192dfe	-0.037397377
55	0xbd39008a	-0.04516653
56	0xbc864d25	-0.016394207
57	0x3d785dea	0.06063644
58	0xbd05ce92	-0.032667704
59	0x3c51f382	0.012814404
60	0xbc724413	-0.014786738
61	0x3c03d47c	0.008046266
62	0xbc90b348	-0.017663613
63	0x3af2384e	0.0018479915
64	0x3d3ae0a1	0.04562438
65	0xbc81d489	-0.015848415
66	0x3d144f59	0.036208484
67	0xbc451396	-0.012028595
68	0x3c36a2d8	0.011147223
69	0xbd2efd97	-0.04272231
70	0x3b53a3b0	0.003229361
71	0xbc8c6d16	-0.01714186
72	0x3c734d30	0.014849946
73	0xbd0edfaf	-0.03488129
74	0x3d857095	0.06515614
75	0xbd3fd6dc	-0.046835765
76	0xbb41c67d	-0.002956777
77	0xbc098a6e	-0.008394821
78	0xbcdf7b53	-0.027280485
79	0xbd40f059	-0.047104213
80	0xbd4a035f	-0.04931962
81	0x3be028a6	0.006840783
82	0x3d4ce454	0.05002244
83	0x3c4f8598	0.012666129
84	0xbd0918a4	-0.033470765
85	0x3d7580b9	0.059937213
86	0x3d80e23f	0.06293153
87	0xbd07ecf1	-0.03318495
88	0x3d3fdf65	0.046843905
89	0xbd33aa2f	-0.04386347
90	0x3d270562	0.040776618
91	0xbd58818a	-0.052857913
92	0xbce611fc	-0.028084747
93	0x3d39ad9f	0.045331594
94	0x3c12355c	0.008923855
95	0x3b6cfdef	0.0036162098
96	0xbcbc11bd	-0.022957677
97	0xbccf8676	-0.02533267
98	0xbc9dac12	-0.019247089
99	0xbc8bbbd6	-0.01705734
100	0xbb92af54	-0.004476467
101	0xbcb4c5b6	-0.022066932
102	0x3d848a4a	0.06471689
103	0x3d3f4e74	0.046705678
104	0x3d54a470	0.051914632
105	0xbc8d0fea	-0.017219502
106	0x3d812d4f	0.0630747
107	0x3d656e5d	0.056013454
108	0x3c521218	0.012821697
109	0x3d335734	0.043784335
110	0x3bfbe3ac	0.0076870527
111	0xbd4b5d96	-0.049649797
112	0x3cda9cd8	0.026686117
113	0xba765914	-0.0009397429
114	0x3cc1c3f2	0.023653004
115	0x3c8dc818	0.017307326
116	0x3d61866c	0.055059835
117	0xbd7d7e8a	-0.061888255
118	0x3d35835e	0.044314735
119	0x3d3e5c3d	0.046474684
120	0x3cb2dbc3	0.021833306
121	0xbb867e60	-0.0041044205
122	0xbc830684	-0.015994318
123	0xbc550f60	-0.013004154
124	0x3afd2340	0.0019312873
125	0x3d25e17e	0.04049825
126	0x3d57ba1b	0.05266772
127	0xbccbad43	-0.024862891
128	0xbc2009e4	-0.009767983
129	0xbd0537af	-0.032523807
130	0x3ce2e6c4	0.027697928
131	0x3d034cfd	0.032055844
132	0xbd1b6068	-0.037933737
133	0x3c94cf85	0.01816536
134	0x3cfff3cc	0.031244181
135	0x3d0b58e6	0.034020327
136	0xbd1c088b	-0.038094085
137	0x3d06a569	0.03287259
138	0x3d397dff	0.045286175
139	0xbd206339	-0.039157126
140	0xbd09ca58	-0.033640236
141	0xbcfec88a	-0.031101484
142	0x3d3a3740	0.045462847
143	0xbd1c1ffa	-0.038116433
144	0x3d70a0d3	0.058747124
145	0x3d865dc1	0.06560851
146	0x3b588e83	0.0033043928
147	0x3d6bf3ac	0.05760543
148	0x3d2e2279	0.042513344
149	0x3cd41828	0.025890425
150	0xbcd9273e	-0.02650797
151	0xbd07cf0e	-0.033156447
152	0x3d721afd	0.05910777
153	0x3b3fac40	0.0029246956
154	0x3cfe1376	0.03101514
155	0xbbf83f80	-0.007575929
156	0xbbb5cb56	-0.005547921
157	0xbc89552c	-0.016764246
158	0x3c00fa61	0.007872195
159	0xbcd51724	-0.02601201
160	0xbd3eccd2	-0.04658205
161	0x3cdad191	0.026711257
162	0x3d33fbe7	0.043941405
163	0x3d4d361c	0.05010043
164	0x3d7e6b3c	0.062113985
165	0x3c60da74	0.013723958
166	0x3d77295a	0.06034217
167	0x3be28f2e	0.006914041
168	0xbbaea36b	-0.0053295395
169	0xbd387228	-0.045030743
170	0xbd3e1adc	-0.046412334
171	0xbd682d0a	-0.056683578
172	0x3ca77620	0.020442069
173	0x3c4844c2	0.012223424
174	0x3ce2bfda	0.027679373
175	0xbbdec85c	-0.006798787
176	0xbd1fb2d9	-0.03898892
177	0x3d7fe2e3	0.062472235
178	0x3d0b47a8	0.034003884
179	0xbd57644c	-0.052585885
180	0x3b8b9d2f	0.004260681
181	0x3d4caa47	0.049967077
182	0xbd60737a	-0.054797627
183	0x3d08cbe6	0.033397578
184	0x3d2cca3f	0.042185064
185	0x3c106f3b	0.008815582
186	0x3d007c88	0.031368762
187	0xbc314d2b	-0.010821621
188	0xbd78d56a	-0.060750403
189	0xbc32e70c	-0.010919344
190	0x3c63df2c	0.013908189
191	0xbd6c536a	-0.057696737
192	0x3c06cc60	0.008227438
193	0xbc235671	-0.00996934
194	0xbce4d77b	-0.02793478
195	0x3d6799ea	0.05654327
196	0x3d2808c0	0.04102397
197	0x3d2a9e87	0.04165509
198	0xbce21e54	-0.027602352
199	0x3d047e15	0.032346804
200	0xbc0a172a	-0.008428374
201	0xbd3cd79c	-0.04610406
202	0xbd59bcae	-0.053158455
203	0x3d520d90	0.051282465
204	0xbd0269f8	-0.03183934
205	0xbd50d4c6	-0.050984167
206	0xbd1e58d9	-0.03865895
207	0x3c913345	0.017724643
208	0x3c9cca58	0.019139454
209	0x3d26d900	0.04073429
210	0x3ccb5696	0.02482156
211	0x3d200c8c	0.039074466
212	0x3d6e97be	0.05825018
213	0x3d6a4980	0.057199
214	0xbcf1b248	-0.029503956
215	0xbc0b1741	-0.008489431
216	0x3d207571	0.0391745
217	0xbc7f4b07	-0.015581853
218	0xbd05291a	-0.0325099
219	0x3d454346	0.04815986
220	0x3d61dead	0.055144
221	0xbd067530	-0.032826602
222	0x3d26cfd7	0.040725555
223	0x3d628531	0.055302802
224	0xbd57bb30	-0.05266875
225	0x3d5a5225	0.053300995
226	0x3d6676fd	0.05626582
227	0x3cbcfc77	0.023069603
228	0xbc8fcb5b	-0.017553022
229	0xbd571383	-0.052508842
230	0x3d5a7cac	0.053341553
231	0x3d3444a2	0.044010766
232	0xbd1a8843	-0.037727606
233	0xbd6760b3	-0.056488704
234	0x3cbca2bd	0.023026818
235	0x3d493398	0.04912147
236	0xbb1c7244	-0.0023871819
237	0x3cd17e82	0.025573019
238	0xba7d442c	-0.00096613425
239	0x3ba85620	0.00513722
240	0xbd60dfc4	-0.0549009
241	0x3ce9ae12	0.028525386
242	0xbd25ec09	-0.040508304
243	0x3c3a4111	0.011368052
244	0x3b8b7fd5	0.004257182
245	0xbcf07769	-0.029353814
246	0x3c6958d8	0.014242373
247	0xbd2774c6	-0.04088285
248	0xbccca079	-0.024978863
249	0xbd271e2e	-0.040800266
250	0xbd74727e	-0.0596795
251	0xbd5465d3	-0.05185492
252	0x3c29c9c8	0.01036305
253	0xbc528999	-0.012850189
254	0xbd06e8b2	-0.03293676
255	0xbd2cc2e8	-0.042178065

logits.bias f4 [10]
0	0x3b86da8c	0.0041154083
1	0x3d836ffd	0.064178444
2	0x3ce15ed6	0.027511042
3	0x3b81cc4c	0.0039611217
4	0xbbfe069e	-0.0077522537
5	0x3c4e4f84	0.0125922
6	0xbcc4b4d6	-0.02401201
7	0x3c1cfed2	0.009582238
8	0xbc946e86	-0.018119108
9	0x3d896e9a	0.06710549
