policy_squad2_multi_argmax_wt_v3_norefuse.pt (torch, 420269 bytes, 6 tensors)

fc1.weight f4 [256, 144]
0	0x3c175801	0.00923729
1	0x3d891198	0.06692809
2	0xbd96c7a2	-0.07362296
3	0xbacd62e7	-0.0015669734
4	0x3da93b77	0.08263295
5	0xbc9a4a36	-0.018834215
6	0x3cafa715	0.021441976
7	0x3b506d75	0.0031803523
8	0xbac3d976	-0.0014942128
9	0xbb92f517	-0.0044847834
10	0xbd4b8bde	-0.049693935
11	0x3b0f8800	0.002190113
12	0x3d90bd7c	0.07067391
13	0xbd36228b	-0.044466536
14	0xbd891cea	-0.06694968
15	0xbc153bf0	-0.0091085285
16	0x3c30ee13	0.010798949
17	0xbd33501d	-0.043777574
18	0xbd0a175c	-0.033713683
19	0xbd820e24	-0.06350353
20	0xbb50f683	-0.0031885214
21	0xbd19cf58	-0.037551254
22	0x3d8446e1	0.064588316
23	0xbd8e0e9d	-0.06936381
24	0x3d3d06c5	0.046149034
25	0xbd6cae86	-0.057783626
26	0xbd5d3f8e	-0.05401569
27	0x3d6b36fc	0.057425484
28	0xbb8bbc4e	-0.004264391
29	0xbd245394	-0.04011877
30	0xbd0d2809	-0.03446201
31	0x3d8f6213	0.07001128
32	0xbd8ab5ea	-0.067729786
33	0x3d8a2b69	0.06746561
34	0xbd8651cf	-0.065585725
35	0xbd537741	-0.0516274
36	0xbd3586c7	-0.044317987
37	0xbc1f4080	-0.009719968
38	0xbd1b3ff5	-0.03790279
39	0xbccbb728	-0.02486761
40	0xbd71926c	-0.05897753
41	0xbd9f6e0e	-0.07784663
42	0x3d37b893	0.044853758
43	0x3d6ec477	0.058292832
44	0xbca97366	-0.02068491
45	0xbd265717	-0.0406104
46	0x3c9da0c3	0.019241696
47	0x3c9eb895	0.019375125
48	0xbc7e79c7	-0.015531964
49	0xbda37acb	-0.07982405
50	0xbbb3cf4c	-0.005487358
51	0xbd7b88e7	-0.061409857
52	0xbd2c2dd5	-0.042035896
53	0x3d7a6760	0.061133742
54	0x3ca62068	0.020279124
55	0x3c913f01	0.017730238
56	0x3cd835d9	0.026392864
57	0xbc566851	-0.013086394
58	0xbd5fa1cf	-0.054597672
59	0xbd8a3244	-0.06747869
60	0xbd848e7d	-0.0647249
61	0xbd412897	-0.04715785
62	0x3d622a1d	0.055215944
63	0xbd67a1a5	-0.05655064
64	0x3d34669f	0.04404318
65	0x3d6d48b2	0.057930656
66	0xbd386fd6	-0.04502853
67	0x3cd1248a	0.025530118
68	0x3d66baeb	0.056330603
69	0xbd48e9d0	-0.049051106
70	0xbb49923f	-0.0030757335
71	0x3d5f5dd5	0.054532845
72	0xbd52d1b5	-0.051469523
73	0x3d3a6c5f	0.045513507
74	0xbc91f31b	-0.017816117
75	0x3d8b3cf0	0.06798732
76	0xbd951ba0	-0.0728066
77	0xbca8fd39	-0.020628558
78	0xbd0bac12	-0.034099646
79	0x3d754fc8	0.05989054
80	0xbd03c72e	-0.032172374
81	0xbbbee58d	-0.0058257044
82	0xbcfff3c8	-0.031244174
83	0x3cd9e10e	0.026596572
84	0x3d67e23a	0.05661223
85	0xbc8beea3	-0.017081564
86	0x3c884ed0	0.016639143
87	0x3cf9ee14	0.030509032
88	0x3cf1aeca	0.029502291
89	0xbc0b88b6	-0.008516481
90	0xbd6f588f	-0.058434065
91	0x3ce0d9d5	0.02744762
92	0x3d34d907	0.044152286
93	0xbd3cc5d5	-0.046087105
94	0x3d139e2b	0.036039513
95	0x3ad915d8	0.0016562296
96	0x3bf9cfc2	0.0076236436
97	0x3d8af507	0.067850165
98	0xbd89b870	-0.06724632
99	0xbb929e8f	-0.004474468
100	0x3d7985e2	0.060918696
101	0xbd88c168	-0.06677514
102	0x3d4ae65c	0.049536094
103	0xbda926e2	-0.082593694
104	0xbd827f82	-0.063719764
105	0xbd5ab4b2	-0.05339498
106	0x3d83b91f	0.064317934
107	0x3d1d332a	0.038378872
108	0xbd28ae9f	-0.041182157
109	0x3c082467	0.00830946
110	0xbc2be2a9	-0.010491052
111	0xbc9baa06	-0.019001972
112	0x3d25fe76	0.040525876
113	0xbdac0614	-0.08399597
114	0xbd3ef04f	-0.046615895
115	0xbcf79606	-0.030222904
116	0xbd1d1549	-0.038350377
117	0xbd614d85	-0.05500557
118	0x3d8d65c5	0.069041766
119	0xbda6ad86	-0.08138566
120	0xbbe722da	-0.007053715
121	0x3da4d2b5	0.08048002
122	0xbd160ff8	-0.036636323
123	0x3d910db9	0.070826955
124	0xbcd7a04a	-0.026321549
125	0x3b0f8e8c	0.0021905033
126	0xbccf75b5	-0.025324682
127	0x3cca29c6	0.024678122
128	0x3d7a49d2	0.061105557
129	0xbd936398	-0.071967304
130	0xbdb167ba	-0.086623624
131	0xbce7cb41	-0.028295161
132	0x3d883321	0.06650377
133	0x3c5a1d77	0.013312689
134	0xbd263c40	-0.040584803
135	0x3d2d4972	0.04230637
136	0x3bea1870	0.0071440265
137	0xbda72f3c	-0.08163306
138	0x3d615f0a	0.055022277
139	0xbda214f6	-0.07914154
140	0xbc901a4d	-0.017590666
141	0xbce00be4	-0.02734942
142	0xbd74d111	-0.059769694
143	0x3bb0b554	0.0053927097
144	0xbdb6116f	-0.08890044
145	0x3db94375	0.090460695
146	0xbc7d1bd0	-0.015448526
147	0x3da9a872	0.082840815
148	0xbdc49e04	-0.096004516
149	0x3c51bd63	0.012801501
150	0x3d6e1970	0.058129728
151	0x3d441baf	0.047877964
152	0x3dd6b0f1	0.10482968
153	0x3b778049	0.0037765673
154	0xbd3a0d52	-0.04542286
155	0xbd575532	-0.052571483
156	0xbcbfe3b5	-0.023424009
157	0x3daeb4f8	0.08530611
158	0xbdb0def2	-0.086362734
159	0x3dc1a377	0.094550066
160	0xbd962dc6	-0.07332949
161	0xbd8e8fbc	-0.06961009
162	0x3db1a1e5	0.08673457
163	0xbcad0a66	-0.021123122
164	0xbd9ab651	-0.07554305
165	0x3d4b63f5	0.049655873
166	0xbd39a6eb	-0.0453252
167	0xbd0f250f	-0.03494745
168	0xbd6b4410	-0.057437956
169	0xbe1a341d	-0.15058942
170	0x3af30331	0.001854038
171	0xba91c3d9	-0.0011120989
172	0x3bbbdd8a	0.0057331966
173	0x3d494811	0.049140994
174	0x3d8adf81	0.06780911
175	0xbda1ef89	-0.07907016
176	0xbbd76db0	-0.006574355
177	0x3de3a25d	0.11114953
178	0x3caeadd7	0.021323128
179	0x3b8fab3a	0.0043844255
180	0xbd37dac7	-0.044886377
181	0xbd39993f	-0.045312162
182	0xbb1682cc	-0.0022966145
183	0xba9b035b	-0.0011826562
184	0x3cff1930	0.03113994
185	0xbdb479b6	-0.08812277
186	0x3d4fd184	0.05073692
187	0x3b793dd4	0.0038031237
188	0xbc0f2e85	-0.008739118
189	0xbd25430d	-0.040347148
190	0xbcc70c37	-0.024297817
191	0xbd7157c8	-0.058921605
192	0xbcdda95c	-0.027058296
193	0x3d25e02f	0.040497
194	0x3d967c88	0.07347971
195	0xbc429a6e	-0.011877639
196	0x3d27391f	0.04082596
197	0xbdbb6103	-0.09149363
198	0x3d2f67eb	0.042823713
199	0xbd79153a	-0.06081126
200	0xbdb7cf20	-0.08975053
201	0x3d9a5f24	0.07537678
202	0xbd30de0b	-0.043180507
203	0xbd74239a	-0.059604265
204	0x3cfd05b3	0.030886507
205	0x3ceca432	0.028886888
206	0xbd0779b3	-0.033075046
207	0xbd0b77da	-0.034049846
208	0x3d297771	0.041373674
209	0x3e002060	0.1251235
210	0x3c87df2a	0.016585905
211	0xbd16c7c7	-0.036811616
212	0x3d6ce63a	0.05783675
213	0xbdb971b5	-0.09054891
214	0x3c61ef94	0.01379003
215	0xbe07313b	-0.13202374
216	0x3d92ea91	0.07173646
217	0xbd5d03a3	-0.053958546
218	0xbdc70b50	-0.097189546
219	0xbd34a4c1	-0.044102434
220	0x3dd2c310	0.102911115
221	0x3ca512a9	0.0201505
222	0x3de35341	0.11099864
223	0xbcb1677c	-0.02165579
224	0xbda16f00	-0.078825
225	0x3d060b5a	0.03272567
226	0xbd8a0e6e	-0.067410335
227	0xbdf6be37	-0.12047999
228	0xbdb15ced	-0.08660302
229	0x3c104be5	0.008807157
230	0x3d8034a5	0.06260041
231	0x3ae556db	0.0017497198
232	0xbd518eb7	-0.051161494
233	0x3ca79e14	0.02046112
234	0xbd99a4c0	-0.07502127
235	0x3d94c634	0.07264367
236	0xbd7df333	-0.06199951
237	0x3d64e4eb	0.055882376
238	0xbd983139	-0.074312635
239	0xbb305a07	-0.002690913
240	0x3c01b3f3	0.007916438
241	0x3daff234	0.085911185
242	0x3c5040c8	0.012710758
243	0x3d6a1ad3	0.057154488
244	0x3bffc58d	0.0078055323
245	0x3d99698b	0.07490834
246	0x3de5f7f7	0.11228936
247	0x3b6662dc	0.003515414
248	0x3d10d577	0.035359826
249	0x3cb18fd3	0.021675026
250	0x3d887663	0.066632055
251	0x3d07d3d5	0.033161003
252	0xbd41aa09	-0.0472813
253	0x3b846dca	0.004041408
254	0x3dff4853	0.124649666
255	0xbd2d9362	-0.042376883

fc1.bias f4 [256]
0	0x3b8f5449	0.0043740612
1	0xbd0b5cde	-0.034024112
2	0x3d480296	0.04883059
3	0x3d12f771	0.03588051
4	0x3ccdbc47	0.025114192
5	0x3d9410d9	0.07229776
6	0x3c950f25	0.018195698
7	0x3d62f2de	0.055407397
8	0x3d9d23f1	0.07672871
9	0x3db83932	0.08995284
10	0xbb5b05e2	-0.0033420254
11	0xbd3e2c56	-0.046429
12	0xbd0e20a1	-0.034699086
13	0x3dbb7e01	0.09154893
14	0xbd780d1a	-0.06055937
15	0xbd79e3c8	-0.061008245
16	0x3d28e2c8	0.0412319
17	0xbd36e8ac	-0.044655487
18	0xbd048dc7	-0.032361772
19	0xbdb00fce	-0.085967645
20	0x3db90b96	0.09035413
21	0x3c8eb3ca	0.017419714
22	0x3d66c4f2	0.056340165
23	0xbc80cebb	-0.015723577
24	0xbd809304	-0.06278041
25	0xbd0c94df	-0.034321662
26	0xbcbc159e	-0.022959527
27	0x3c908620	0.01764208
28	0xbd1c6b28	-0.03818813
29	0xbc9398cf	-0.0180172
30	0x3c964431	0.018343063
31	0xbc6c0e96	-0.014407774
32	0xbd57775b	-0.05260406
33	0x3ab547f3	0.0013830647
34	0xbd809410	-0.06278241
35	0x3d0b011a	0.033936597
36	0xbd0ad165	-0.0338911
37	0x3bd196ad	0.006396136
38	0x3c8ed6c5	0.017436394
39	0x3cac41b2	0.02102742
40	0xbd2afeb0	-0.041746795
41	0xbb9cbbbf	-0.0047831233
42	0x3ca19e3e	0.019728776
43	0xbd8db9bc	-0.06920192
44	0x3d690fc9	0.05689982
45	0x3d30aba3	0.043132436
46	0xbd6b67c9	-0.057472024
47	0x3d7e6207	0.062105205
48	0x3d8932fa	0.06699176
49	0xbd9e365e	-0.077252135
50	0xbc20aeb3	-0.009807277
51	0xba05c627	-0.00051030744
52	0x3d53089b	0.05152188
53	0x3d91cc7d	0.07119081
54	0xbd9686d8	-0.07349938
55	0xbcc6db6d	-0.024274552
56	0x3d13023f	0.035890814
57	0xbcf6d387	-0.030130161
58	0x3c00de76	0.007865539
59	0xbd44f922	-0.048089154
60	0xbd441c61	-0.047878627
61	0xbd84e7cf	-0.064895265
62	0xbd9a04a5	-0.07520417
63	0x3d015495	0.031574804
64	0xbd808d9c	-0.0627701
65	0x3d8510e3	0.064973615
66	0x3cc47c89	0.023985164
67	0x3d316703	0.04331113
68	0xbda9802f	-0.08276402
69	0x3cf1ab87	0.029500736
70	0xbb3cd091	-0.0028810839
71	0xbcc7bcd6	-0.024382036
72	0xbd936f31	-0.071989425
73	0x3da4a3ed	0.08039079
74	0x3d28bf8b	0.041198295
75	0xbb38a831	-0.0028176422
76	0xbcec8cf4	-0.028875805
77	0x3cc80a20	0.02441889
78	0xbbad5ae5	-0.0052903765
79	0xbd408037	-0.046997275
80	0xbdaca2d9	-0.08429498
81	0xbc2c7af5	-0.010527362
82	0x3ca78328	0.020448282
83	0xbca9c572	-0.020724032
84	0xbdb75620	-0.08951974
85	0x3da70103	0.0815449
86	0x3cfe3867	0.031032754
87	0xbd5e3e31	-0.05425853
88	0xbb6db0e1	-0.0036268758
89	0xbce6a27d	-0.028153652
90	0xbd6e0df9	-0.058118794
91	0x3ccb19e7	0.024792625
92	0x3b9429a1	0.004521564
93	0x3d16e0b5	0.03683539
94	0x3d93232f	0.07184445
95	0x3ce9168f	0.02845314
96	0xbd72c7da	-0.059272625
97	0x3d331af1	0.043726865
98	0x3d1fc0a5	0.03900208
99	0x3d37ba87	0.04485562
100	0xbd8161fb	-0.063175164
101	0x3cd64852	0.026157532
102	0x3ce127e0	0.027484834
103	0x3d8e4614	0.0694696
104	0xbc64624d	-0.013939452
105	0xbcc0ef5b	-0.023551634
106	0x3dc03264	0.09384611
107	0x3c407644	0.011746947
108	0x3cc77b0f	0.024350671
109	0x3d8082a4	0.06274918
110	0x3cc0b440	0.02352345
111	0x3d93ca61	0.07216335
112	0xbdb0d9da	-0.08635302
113	0x3d555bf8	0.05208966
114	0x3d669fe1	0.056304816
115	0x3d655c3e	0.055996172
116	0x3da31903	0.07963755
117	0xbd3a8e2f	-0.045545753
118	0xbd7a55ac	-0.06111686
119	0xbd22b3da	-0.0397223
120	0x3c64c1fb	0.013962264
121	0xbd464371	-0.04840416
122	0xbc139ceb	-0.00900958
123	0xbd7d0eaf	-0.06178158
124	0xbd3baceb	-0.045819204
125	0x3d704ba4	0.058665887
126	0xbd81498d	-0.06312857
127	0x3c15d6d8	0.009145461
128	0xbb89c205	-0.004204037
129	0x3d39bc46	0.045345567
130	0x3d8a1ae8	0.06743413
131	0x3c339a68	0.010962106
132	0x3d89ae68	0.067227185
133	0x3da84045	0.082153834
134	0xbdaed414	-0.085365444
135	0x3d7cd736	0.06172868
136	0x3d1a4cb9	0.037670825
137	0xbd7398c8	-0.059471875
138	0x3d2a9b8d	0.04165225
139	0xbd1fec0e	-0.03904348
140	0x3d441bfc	0.04787825
141	0xbb0b1948	-0.0021224786
142	0xbd852936	-0.06502001
143	0x3d4b6ed5	0.049666245
144	0xbd4fc485	-0.050724525
145	0x3db9ac59	0.09066076
146	0x3cd97302	0.026544098
147	0x3cccefe1	0.025016727
148	0xbd815678	-0.06315321
149	0x3c828737	0.015933616
150	0x3d7eccff	0.06220722
151	0x3c7057f7	0.01466941
152	0x3d5f7937	0.05455896
153	0x3d6170e3	0.055039298
154	0x3d56010c	0.052247092
155	0x3d24791b	0.040154558
156	0xbab9ee1a	-0.001418534
157	0x3d9bb11b	0.076021396
158	0xbca1947c	-0.019724123
159	0x3d741bc4	0.059596792
160	0xbc6cdaec	-0.014456492
161	0x3da45470	0.08023918
162	0xbd81b125	-0.06332616
163	0x3d0bbc58	0.034115165
164	0x3d1124bb	0.03543542
165	0xbd95994d	-0.073046304
166	0xbce94de0	-0.028479517
167	0x3d68cef4	0.05683799
168	0x3c972d1d	0.018454129
169	0xbd268215	-0.0406514
170	0xbc15c8b3	-0.009142089
171	0xbd76b5d0	-0.060231984
172	0x3ceb5fa2	0.028732125
173	0x3cb4d6f1	0.022075148
174	0xbd667d1b	-0.056271654
175	0x3cc6749c	0.024225526
176	0xbcd2e3d1	-0.025743397
177	0x3d8103db	0.062995635
178	0xb9ee9db5	-0.00045512398
179	0x3b292041	0.0025806578
180	0xbd456450	-0.04819137
181	0x3d42bc7a	0.047543027
182	0x3db1d187	0.08682542
183	0x3cf8d835	0.030376533
184	0xbc119687	-0.008885986
185	0xbb9e9e5c	-0.0048406553
186	0xbd9c67dd	-0.07636998
187	0x3d5b99b1	0.05361337
188	0xbbd909e8	-0.0066234954
189	0x3c40069f	0.011720329
190	0x3d0f5b08	0.034998924
191	0xbd7477b3	-0.059684467
192	0xbd31b5bb	-0.043386202
193	0x3d1fc7ae	0.03900879
194	0x3d080918	0.033211797
195	0xbdbd0600	-0.0922966
196	0x3da5b251	0.08090652
197	0x3c36efcd	0.011165571
198	0x3cca4e66	0.024695586
199	0x3d9c295d	0.07625077
200	0x3d7c328c	0.061571643
201	0x3d03996b	0.032128733
202	0xbbac206c	-0.0052528884
203	0xbd868282	-0.06567861
204	0xbda5e513	-0.08100333
205	0xbd331efd	-0.043730725
206	0xbd048043	-0.032348882
207	0x3baabdc8	0.005210612
208	0x3c6c4845	0.014421527
209	0xbd88b413	-0.066749714
210	0x3d6453a0	0.055743814
211	0x3da67382	0.081275
212	0xbd12c21b	-0.035829645
213	0x3d4b526c	0.04963915
214	0xbc921333	-0.01783142
215	0x3d9abbd9	0.0755536
216	0xbd0ad41b	-0.033893686
217	0x3c4a27b9	0.012338572
218	0x3c9108e8	0.017704442
219	0xbc403872	-0.011732208
220	0x3cf05a14	0.029339828
221	0x3d34aa23	0.044107568
222	0x3c60839b	0.013703252
223	0xbda33612	-0.079692975
224	0xbd9ca052	-0.07647766
225	0xbcfbaaf6	-0.030721169
226	0x3d3a8160	0.045533538
227	0x3d78ef19	0.060774896
228	0xbc748224	-0.014923606
229	0x3d94aee0	0.07259917
230	0x3d830e90	0.06399262
231	0x3d158cd8	0.036511272
232	0x3d32f7e5	0.043693442
233	0xbd23c2c2	-0.039980657
234	0x3ce93016	0.028465312
235	0xbd5a5a37	-0.05330869
236	0x3d0992a2	0.033587106
237	0xbd7ca871	-0.061684076
238	0xbca64909	-0.020298498
239	0x3da49ae8	0.080373585
240	0xbd4e324c	-0.050340936
241	0x3d75d78a	0.060020007
242	0xbcb1738c	-0.021661542
243	0x3d8094fa	0.06278415
244	0x3d8e7421	0.069557436
245	0x3daf43db	0.08557864
246	0xbd782503	-0.060582172
247	0x3da530fe	0.08065985
248	0x3d85ac71	0.06527031
249	0x3d4ed7d0	0.050498784
250	0xbd6d07fe	-0.05786895
251	0xbd0e3b56	-0.034724556
252	0xbd22f0d5	-0.039780457
253	0x3d9e25c4	0.07722047
254	0x3d8f8df5	0.07009498
255	0xbd8d5bfe	-0.06902312

fc2.weight f4 [256, 256]
0	0xbc1f9ba8	-0.009741701
1	0xbd56d43e	-0.052448504
2	0xbd20c5e7	-0.039251234
3	0xbc4f7e1a	-0.012664342
4	0x3e09603f	0.13415621
5	0xbd0ad311	-0.033892695
6	0xbd3db59f	-0.046315785
7	0xbd92766e	-0.07151495
8	0x3bb58cb4	0.0055404548
9	0x3dc39f9d	0.09551928
10	0x3d9490b4	0.072541624
11	0x3cc1ca5a	0.023656059
12	0xbbae4e1b	-0.0053193695
13	0x3d67aa2e	0.05655878
14	0x3cfa6918	0.03056769
15	0x3d2bc5a0	0.041936517
16	0xbd469a2a	-0.048486866
17	0x3d404af0	0.046946466
18	0x3ddc1b32	0.107473746
19	0xbd367a50	-0.04455024
20	0xbcc4fe44	-0.024047025
21	0x3dd482ba	0.103764966
22	0xbd6ccfb5	-0.057815272
23	0xbd83682b	-0.06416353
24	0x3d345514	0.04402645
25	0x3d635789	0.055503402
26	0xbc442593	-0.011971849
27	0x3cb38eb0	0.021918625
28	0xbcc33d5c	-0.02383297
29	0x3c56ca00	0.013109684
30	0x3ab2e45c	0.0013648379
31	0xbce017e5	-0.027355144
32	0x3cfa5d02	0.030561928
33	0x3ddfddd1	0.1093098
34	0xbdafaf68	-0.08578378
35	0xbc07c4f2	-0.0082867015
36	0x3d554db7	0.052076068
37	0xbd5a6c53	-0.053325962
38	0xbd97ec27	-0.07418089
39	0x3cc49e68	0.024001315
40	0x3b167ac0	0.0022961348
41	0x3c28f755	0.010312875
42	0x3cafdf56	0.0214688
43	0x3c65c17d	0.014023182
44	0x3c89a615	0.016802827
45	0x3d791684	0.06081249
46	0x3b54e43e	0.0032484676
47	0xbd667884	-0.056267276
48	0xbd8210bf	-0.0635085
49	0xbbc0d34a	-0.0058845626
50	0x3d38ddc3	0.045133363
51	0xbd96ba2a	-0.07359727
52	0xbc8dc4e8	-0.017305806
53	0xbc8e4703	-0.017367845
54	0x3c977211	0.018487008
55	0xbbc97466	-0.006147909
56	0xbdb28551	-0.08716834
57	0xbd46950b	-0.048481982
58	0x3d394a6e	0.045236997
59	0xbd7185ec	-0.05896561
60	0xbd0067fa	-0.03134916
61	0x3d0f62d1	0.035006348
62	0x3d23541f	0.039875146
63	0x3cdbab3d	0.026815051
64	0x3d101690	0.035177767
65	0x3d201ee1	0.03909195
66	0xbcc4c219	-0.024018334
67	0x3b9de2f0	0.004818313
68	0xbc6488c1	-0.01394862
69	0x3d8b8388	0.06812197
70	0xbcbd2925	-0.023090908
71	0x3cd0ace6	0.02547307
72	0x3d69ca00	0.057077408
73	0x3d923a1a	0.07139988
74	0x3b377f98	0.0027999636
75	0x3d94c643	0.07264378
76	0x3ce5065a	0.02795713
77	0x3da43807	0.08018499
78	0x3d73efb6	0.059554778
79	0xbd1cd8fb	-0.038292866
80	0x3ce0b7e9	0.027431445
81	0xbd3cd188	-0.046098262
82	0x3c54bc0e	0.012984289
83	0xbe0a1f7d	-0.13488574
84	0xbd41a718	-0.047278494
85	0xbcf4a57f	-0.029864071
86	0xbc872fd1	-0.016502293
87	0x3dc2321f	0.09482216
88	0xbd376e2b	-0.0447828
89	0x3cf96013	0.03044132
90	0xbd01ee6d	-0.03172152
91	0x3dacb4d1	0.084329255
92	0xbdbddd6c	-0.092707485
93	0xbb1bde9b	-0.0023783806
94	0x3d7430d3	0.059616875
95	0xba32753a	-0.0006807629
96	0x3dbaa063	0.091126226
97	0xbd8ca5d1	-0.068675645
98	0xbd24890f	-0.04016977
99	0x3caf0830	0.021366209
100	0x3d65a9df	0.056070205
101	0x3df25280	0.11832142
102	0x3b3a684f	0.002844352
103	0x3cc03007	0.023460401
104	0x3d179f6d	0.037017275
105	0x3d274815	0.040840227
106	0x3c9cb57e	0.019129511
107	0x3ca22cde	0.019796785
108	0x3c5c2ae9	0.013437965
109	0x3d8c63bf	0.068549626
110	0x3cd0b025	0.025474617
111	0xbd70564e	-0.058676057
112	0xbd0928e6	-0.03348627
113	0x3d8d63a6	0.06903772
114	0x3cb70b94	0.022344388
115	0xbc354654	-0.011064131
116	0xbd3d75fa	-0.04625509
117	0xbdbe9b3a	-0.09306951
118	0xbcd588ba	-0.026066173
119	0x3d27a5f4	0.04092975
120	0x3c63f46b	0.013913254
121	0x3c766220	0.015038043
122	0x3db0f0f2	0.08639707
123	0xbb606468	-0.0034239534
124	0xbc49ce5c	-0.012317266
125	0x3d72c2ce	0.05926781
126	0x3d21e441	0.03952432
127	0xbd013c78	-0.031551808
128	0x3d8ae3f8	0.06781763
129	0xbd165835	-0.036705215
130	0xbbb4df47	-0.005519781
131	0x3cc00db6	0.023444038
132	0xbc1f37be	-0.00971788
133	0xbc70e564	-0.0147031285
134	0x3d566434	0.052341655
135	0x3cd3371f	0.02578312
136	0xbc707d81	-0.01467836
137	0x3c7b1068	0.015323736
138	0xba28b588	-0.00064357417
139	0x3c8b3e5a	0.016997505
140	0xbce4919a	-0.02790146
141	0xbcc9e882	-0.024647001
142	0x3d5a2d15	0.05326565
143	0xbc85f5b2	-0.016352508
144	0xbd0e4fd2	-0.03474409
145	0xbc1ccf03	-0.00957084
146	0x3c89377f	0.016750095
147	0x3d2f673e	0.04282307
148	0x3dafc76f	0.08582961
149	0xbbe6c7a0	-0.00704284
150	0x3d31af5f	0.043380138
151	0xbd8f6d82	-0.07003309
152	0xbcac8079	-0.021057354
153	0xbccd8a08	-0.025090232
154	0x3ad00707	0.0015871235
155	0xbb8abfa0	-0.0042342693
156	0xbd972491	-0.07380021
157	0x3d298ba6	0.041392945
158	0xbd699e23	-0.057035577
159	0xbcf8281f	-0.030292569
160	0x3d9ed3bc	0.07755229
161	0x3db4aaba	0.08821626
162	0xbd7a0ab7	-0.061045375
163	0x3ceb5e6b	0.028731545
164	0x3d86f160	0.065890074
165	0xbcc16dd6	-0.023611944
166	0x3dad9ff2	0.08477773
167	0xbd408402	-0.047000892
168	0x3dc7e2bb	0.09760042
169	0x3c6df16c	0.0145228915
170	0x3d19f176	0.03758379
171	0x3d3cb52d	0.04607122
172	0xbc99f383	-0.018792873
173	0x3d54b232	0.051927753
174	0xbd5d1ed2	-0.05398447
175	0xbcf3dcc7	-0.02976836
176	0xbc495a19	-0.012289547
177	0xbd125f33	-0.03573532
178	0x3d9312e3	0.07181337
179	0x3cb43c3e	0.022001382
180	0x3cef7ccb	0.02923431
181	0xbcf49ca4	-0.029859848
182	0xbe238ad5	-0.15970929
183	0x3b9b6cea	0.004743208
184	0x3db4dfae	0.08831726
185	0x3ccdacf1	0.025106879
186	0x3cbc0d7a	0.022955645
187	0x3d028efb	0.031874638
188	0xbdcf6bdb	-0.10127994
189	0xbc5d9e37	-0.013526491
190	0x3d391e78	0.045195073
191	0xbcb2ff65	-0.021850297
192	0xbd3f4d15	-0.04670437
193	0x3c8c182a	0.017101366
194	0xbd33c3a4	-0.04388775
195	0x3d662a3b	0.056192618
196	0x3c8293c5	0.015939603
197	0x3ca00136	0.019531827
198	0x3d725a91	0.059168402
199	0x3dd6a7d9	0.10481233
200	0x3bb6366d	0.0055606873
201	0x3d7e57c6	0.062095426
202	0xbd11d34d	-0.035601903
203	0xbd538fc6	-0.051650785
204	0xba30dfa8	-0.00067471946
205	0xbcafdd22	-0.021467749
206	0x3d37581d	0.044761766
207	0x3cdfbe47	0.027312411
208	0xbde06300	-0.10956383
209	0xbc68613b	-0.014183338
210	0xbc951e1d	-0.018202836
211	0xbc11f8d9	-0.008909428
212	0xbd850624	-0.06495312
213	0x3d12a66c	0.035803244
214	0xbd076084	-0.03305103
215	0x3cd6ab1c	0.026204638
216	0x3cea97ef	0.0286369
217	0x3ca4f827	0.02013786
218	0xbadc29e8	-0.0016797157
219	0x3c00dfb0	0.007865831
220	0xbafdc0b9	-0.0019359804
221	0xbc622489	-0.013802656
222	0x3de05861	0.10954357
223	0xbde19fe9	-0.110168286
224	0x3d4c2b87	0.0498462
225	0x3d0b4e72	0.03401036
226	0x3c87284d	0.01649871
227	0xbdab7d7c	-0.083735436
228	0x3d3f6533	0.04672737
229	0xbbe8622b	-0.0070917807
230	0xbd0c92ff	-0.034319874
231	0xbb70dd9d	-0.0036753186
232	0xbd2c4b65	-0.04206409
233	0x3da3faa6	0.08006792
234	0xbb681e62	-0.00354185
235	0xbc393fde	-0.011306731
236	0x3c0ce54f	0.008599593
237	0xbd894311	-0.06702245
238	0x3c9bdd5b	0.019026449
239	0xbd22cd1a	-0.03974638
240	0xbe1f9d01	-0.15587236
241	0x3d4a7900	0.0494318
242	0x3be53e68	0.006995965
243	0xbc4eab79	-0.012614124
244	0xbd953725	-0.072859086
245	0x3c520f2d	0.012821001
246	0x3c6784b2	0.014130758
247	0xbc107c74	-0.008818734
248	0xbb0183d6	-0.0019762418
249	0xbd0a120b	-0.033708613
250	0x3d1cb2b1	0.03825635
251	0xbcbabeae	-0.022796001
252	0xbd611a57	-0.05495676
253	0xbcf4dcf8	-0.029890522
254	0x3d5cb0ec	0.053879663
255	0x3dcd6152	0.10028328

fc2.bias f4 [256]
0	0x3c83008b	0.01599147
1	0xbc977325	-0.018487522
2	0xbca2d238	-0.01987563
3	0x3ccc34d8	0.024927542
4	0x3d0b230e	0.033968978
5	0xbb288cf2	-0.0025718776
6	0xbd14e2af	-0.036348995
7	0x3c51fc9a	0.012816573
8	0x3d48185c	0.048851356
9	0xbc6ec0fe	-0.01457238
10	0xbbb9cfc0	-0.0056705177
11	0xbd0ffc41	-0.035152677
12	0xbcd5c244	-0.02609361
13	0x3d28f333	0.041247558
14	0xbca79c41	-0.02046025
15	0xbc75ced9	-0.01500293
16	0xbd5f894a	-0.05457429
17	0x3d579119	0.05262861
18	0xbd493bd5	-0.049129326
19	0xbc056e52	-0.008143978
20	0xbcb3d588	-0.021952406
21	0x3be0b75e	0.0068577966
22	0xbcdc2ebe	-0.026877757
23	0x3d8b409c	0.06799433
24	0xbb9d13aa	-0.004793604
25	0xbc4bb939	-0.012434297
26	0x3d5b67bc	0.053565726
27	0x3d20caf9	0.03925607
28	0xbd4f6b45	-0.05063941
29	0x3d084e14	0.033277586
30	0x3ce81b43	0.028333312
31	0x3c4a4ab3	0.012346911
32	0x3d8a4fbc	0.067534894
33	0x3c94fb92	0.018186364
34	0x3d1dd07b	0.0385289
35	0xbd2113b7	-0.039325442
36	0x3ce769df	0.028248725
37	0x385f6d70	5.3269265e-05
38	0x3d171758	0.036887497
39	0xbd78eb34	-0.060771182
40	0x3cf82e55	0.03029553
41	0x3d742297	0.0596033
42	0x3ce9487a	0.028476942
43	0xbd07ebab	-0.033183735
44	0x3bfc13bf	0.0076927836
45	0x3cc1a9a3	0.02364046
46	0xbc799677	-0.0152336275
47	0xbd68621d	-0.056734193
48	0x3d26abaa	0.040691055
49	0xbd68fc15	-0.05688103
50	0xbd396411	-0.045261446
51	0xbc778507	-0.0151074
52	0xb879141c	-5.9384955e-05
53	0x3ccb34f0	0.024805516
54	0x3cc4fc89	0.0240462
55	0x3cf3d225	0.02976329
56	0xbcfe4912	-0.031040702
57	0xbd3a8abe	-0.04554247
58	0x3d7c1170	0.061540067
59	0x3ce007bd	0.02734744
60	0xbd083df4	-0.033262208
61	0x3d3dd7b2	0.04634828
62	0x3ce7960d	0.028269792
63	0xbd1e89a1	-0.038705472
64	0x3d721f90	0.05911213
65	0x3d543ade	0.051813953
66	0x3d140498	0.036137193
67	0xbc8c224f	-0.017106203
68	0xbbaf8c06	-0.0053572683
69	0x3cbeadf7	0.023276312
70	0x3d148f93	0.036269736
71	0x3d67908c	0.056534335
72	0x3cb6cc99	0.022314357
73	0xbcaa5a97	-0.02079515
74	0xbd58ced8	-0.052931637
75	0xbc6fc982	-0.014635446
76	0xbd15ce4a	-0.036573686
77	0xbd11fb86	-0.035640262
78	0xbd7efd1a	-0.062253095
79	0x3b708f68	0.003670657
80	0x3d4271d0	0.04747182
81	0x3d4e55ef	0.05037492
82	0x3d87e997	0.066363506
83	0xbbcd48ef	-0.006264798
84	0x3ca471db	0.020073822
85	0x3d5f4935	0.054513175
86	0x3d93bb6b	0.072134815
87	0xbd14d2d4	-0.036333874
88	0x3d3d064d	0.046148587
89	0xbd897073	-0.06710901
90	0xbc10ea19	-0.008844876
91	0xbcb54f67	-0.022132589
92	0x3d08a408	0.033359557
93	0xbd154a67	-0.03644791
94	0x3d502343	0.05081488
95	0x3cf87013	0.030326879
96	0x3cbdef94	0.023185529
97	0xbc00bd0d	-0.007857573
98	0x3d6d72d2	0.05797083
99	0xbcb65ad3	-0.022260105
100	0x3c24de37	0.010062746
101	0x3d850ae7	0.0649622
102	0x3cee2632	0.029070947
103	0x3bd1c40e	0.0064015454
104	0xbd0d30a6	-0.034470223
105	0xbcb13116	-0.021629851
106	0xbd53dc4b	-0.05172376
107	0xbce79f59	-0.028274225
108	0x3c8216b0	0.015879959
109	0x3d71c18a	0.059022464
110	0x3cfb66e7	0.030688716
111	0x3d79f9a7	0.061029103
112	0xbd2688c0	-0.04065776
113	0xbd0aa404	-0.033847824
114	0xbc5a4ab6	-0.013323477
115	0x3d03270e	0.032019667
116	0xbcaeb466	-0.021326255
117	0xbd08ebba	-0.03342793
118	0x3d4ba742	0.049720056
119	0x3d5a8df4	0.053358033
120	0xbd56528c	-0.052324817
121	0xbd6c6ba8	-0.057719857
122	0x3c520be3	0.012820217
123	0xbcd47de4	-0.025938936
124	0x3d699268	0.05702439
125	0x3d7bfe8c	0.06152205
126	0xbcb5d33f	-0.022195457
127	0x3c9e5567	0.019327832
128	0xbd5b27bb	-0.053504687
129	0x3cdbdd9c	0.02683907
130	0xb918cf67	-0.00014573113
131	0x3d7f6fd0	0.062362492
132	0x3d7ba26b	0.06143419
133	0xbd8b2c44	-0.067955524
134	0xbd6bb460	-0.057545066
135	0xbd613c1b	-0.05498896
136	0x3c1301c7	0.008972592
137	0x3d749d7a	0.059720494
138	0xbcdf3234	-0.027245618
139	0xbcbefeca	-0.023314852
140	0x3d6b5e09	0.057462726
141	0xbcfe1698	-0.031016633
142	0x3d5e7f3b	0.054320555
143	0xbbf795e8	-0.007555712
144	0x3d59d397	0.053180303
145	0xbcda7313	-0.0266662
146	0x3bffef18	0.0078104846
147	0xbc85f435	-0.016351799
148	0xbce634c1	-0.028101327
149	0x3b20c39c	0.0024530655
150	0xbbcf0ffa	-0.006319043
151	0x3ccac639	0.024752723
152	0xbcad1b6e	-0.021131244
153	0x3a6d4ff5	0.0009052747
154	0xb92d22f8	-0.00016511593
155	0x3d33fe4e	0.043943696
156	0x3cbb9768	0.022899345
157	0xbc016814	-0.007898349
158	0xbd428d10	-0.04749781
159	0xbca57e6c	-0.020201884
160	0xbc328375	-0.0108956
161	0x3ce32f37	0.027732475
162	0xbd88c7b2	-0.06678714
163	0x3c85b7df	0.016323028
164	0xbc0302cc	-0.007996272
165	0xbd14778e	-0.03624683
166	0x3a708f31	0.00091766106
167	0x3cca3c0f	0.024686841
168	0xbd1452bd	-0.036211718
169	0xbb8093d3	-0.003923872
170	0xbd4d919f	-0.050187703
171	0x3b889db2	0.0041691894
172	0x3c5af332	0.013363646
173	0xbd5f5dc7	-0.054532792
174	0x3c976583	0.018481022
175	0xbc342ff9	-0.010997766
176	0x3d936196	0.071963474
177	0xbd4b180f	-0.04958349
178	0x3d812b52	0.06307091
179	0xbc81bbfc	-0.015836708
180	0x3c1fa175	0.009743084
181	0xbd18ea95	-0.03733309
182	0xbd4c4cfe	-0.049878113
183	0xbd0930b9	-0.03349373
184	0x3c5f8bc4	0.013644163
185	0xbca7c5a4	-0.020479985
186	0x3d6c0020	0.057617307
187	0xbb5b552b	-0.0033467512
188	0x3ca65226	0.020302843
189	0x3d321b32	0.043482967
190	0x3d6e2ad2	0.058146305
191	0x3d0290d2	0.031876393
192	0xbcad5d30	-0.0211626
193	0xbce43994	-0.027859487
194	0x3ce8823c	0.028382413
195	0x3d06f1d0	0.032945454
196	0xbba5fb4d	-0.005065358
197	0xbcafec8b	-0.021475097
198	0x3d80ba9c	0.06285593
199	0x3bfd6297	0.0077327
200	0xbd3160d8	-0.043305248
201	0xbd4e1363	-0.050311457
202	0xbbf5d255	-0.00750188
203	0xbd7e9758	-0.06215605
204	0xbc9fb38a	-0.01949479
205	0xbd174743	-0.036933195
206	0x3d92c7a1	0.071669824
207	0xbca3bdf9	-0.019988047
208	0x3ccd4921	0.025059285
209	0xbd1a0fa5	-0.037612576
210	0xbc930c66	-0.017950248
211	0x3d597f25	0.05309977
212	0x3cb5c13e	0.022186872
213	0x3c1b816e	0.009491308
214	0x3d7e2fab	0.06205718
215	0xbd516ce0	-0.051129222
216	0xbcb42c09	-0.021993654
217	0x3d004b33	0.031321716
218	0x3bc5f775	0.006041462
219	0xbb9bc9f2	-0.0047542984
220	0x3accadb2	0.001561573
221	0x3c0d3307	0.008618123
222	0x3c63ca99	0.0139032835
223	0xbd6cd7be	-0.057822935
224	0xbd2ff30f	-0.042956408
225	0x3d276d4b	0.040875714
226	0x3d322c75	0.04349943
227	0xbc934903	-0.01797915
228	0x3d5f539e	0.054523103
229	0x3d455f7b	0.04818676
230	0x3d49b7c1	0.049247507
231	0x3cacab8c	0.021077894
232	0xbcff4985	-0.031162987
233	0x3d3a97e4	0.04555501
234	0x3d1cb4cb	0.038258355
235	0xbc3af27f	-0.011410355
236	0xbd01c962	-0.031686194
237	0x3d822669	0.063549824
238	0xbc988998	-0.018620297
239	0xbb4b3b99	-0.0031010865
240	0x3cbfa678	0.023394808
241	0xbc910d16	-0.017706435
242	0x3cc16747	0.023608817
243	0xbd1adb0f	-0.037806567
244	0x3d3b606c	0.045746252
245	0x3d53e527	0.05173221
246	0xbc1a0155	-0.009399732
247	0x3d443223	0.047899377
248	0x3d825ab9	0.0636496
249	0x3d041670	0.03224796
250	0x3c200130	0.009765908
251	0xbd2be9f0	-0.041971147
252	0xbb9fcb90	-0.0048765615
253	0x3d6a53b6	0.05720874
254	0x3acc7b64	0.0015600738
255	0x3cd6b36b	0.0262086

logits.weight f4 [5, 256]
0	0xbdec02ae	-0.115239486
1	0xbd3d7e74	-0.046263173
2	0xbd03c9f4	-0.03217502
3	0x3c91f091	0.017814906
4	0x3d9f8ea9	0.07790882
5	0x3d4c889a	0.04993496
6	0xbcf10acd	-0.029424096
7	0x3d93f2a4	0.072240144
8	0x3d04ee7f	0.03245401
9	0xbd67913f	-0.056535
10	0xbc8cc2ca	-0.017182726
11	0x3d524f76	0.05134531
12	0xbd30eaf3	-0.043192815
13	0xbd0654b5	-0.032795627
14	0xbcbf48a8	-0.023350075
15	0xbdb15642	-0.086590305
16	0xbd0e1a32	-0.03469295
17	0x3d3c25e0	0.045934558
18	0xbc1d93c7	-0.009617752
19	0xbce03451	-0.027368696
20	0x3ca5f42c	0.020258032
21	0xbdc1a401	-0.094551094
22	0x3d3bf5b5	0.04588862
23	0xbc7e1892	-0.015508788
24	0xbd89cc84	-0.067284614
25	0xbc2c6cb4	-0.010523964
26	0x3d57851b	0.052617174
27	0xbd489bb0	-0.0489766
28	0xbd46cb83	-0.048533928
29	0x3c10224e	0.008797241
30	0x3da10669	0.07862551
31	0xbd4882bc	-0.048952803
32	0xbd88270c	-0.066480726
33	0xbdc7e609	-0.097606726
34	0xbcf8e040	-0.030380368
35	0x3d55230d	0.05203538
36	0x3da67c38	0.081291616
37	0xbbfab89e	-0.0076514026
38	0xbd23fd0b	-0.040036242
39	0xbc89d58a	-0.016825456
40	0x3d1674f4	0.03673263
41	0x3d85978b	0.06523045
42	0x3db01105	0.08596996
43	0xbd067cf0	-0.032833993
44	0xbe011a1e	-0.12607619
45	0xbcd774bd	-0.026300782
46	0x3d359932	0.04433555
47	0x3d8f2c3d	0.0699086
48	0xbd9150ff	-0.07095527
49	0xbcf55153	-0.029946005
50	0x3d4d98ae	0.050194435
51	0x3b8ab2ab	0.0042327247
52	0x3d03bf86	0.032165073
53	0xbcd17401	-0.02556801
54	0xbd1a3fca	-0.03765849
55	0xbcf40527	-0.029787613
56	0x3cf29461	0.029611768
57	0xbd8ad7a4	-0.067794114
58	0xbdc9d489	-0.09854991
59	0x3d4e4252	0.050356217
60	0x3d86ff48	0.0659166
61	0xbcb475c3	-0.02202881
62	0x3d4fc2ab	0.05072276
63	0x3d8264b1	0.063668616
64	0x3d620919	0.055184457
65	0x3c8e1842	0.017345551
66	0xbd9b2a6f	-0.07576453
67	0x3c664680	0.014054894
68	0x3da44aa9	0.08022053
69	0xbd3d6877	-0.046242204
70	0x3c724025	0.014785801
71	0xbb44d653	-0.0030034974
72	0xbc069ace	-0.008215619
73	0x3c3fef3e	0.011714755
74	0x3d675949	0.056481633
75	0xbd8e46ff	-0.06947135
76	0x3b81c67b	0.0039604283
77	0xbd970e76	-0.07375805
78	0xbd04dbf9	-0.032436345
79	0x3d34b1ea	0.044114985
80	0x3cff583e	0.031170007
81	0xbc8a4ef0	-0.016883343
82	0x3d2aae28	0.041669995
83	0xbc1ee8ff	-0.009699105
84	0xbc66c498	-0.014084958
85	0x3b99dfe2	0.0046958784
86	0xbd6f7cdf	-0.058468696
87	0xbd4413fd	-0.047870625
88	0x3c23be38	0.009994082
89	0x3cd0af46	0.025474202
90	0x3bd54293	0.0065081804
91	0x3ca0f93f	0.0196501
92	0xbdb10e2a	-0.0864528
93	0xbdeec8f3	-0.11659422
94	0xbddc0319	-0.10742778
95	0x3ce49c24	0.027906485
96	0x3cb84a62	0.022496406
97	0x3c8d219b	0.017227938
98	0x3d8e9335	0.06961671
99	0xbc5c65f3	-0.013452041
100	0x3d11cb00	0.035593987
101	0x3d348773	0.044074487
102	0xbd46197e	-0.048364155
103	0x3d9bd877	0.07609647
104	0xbccf344e	-0.025293496
105	0xbd8d8479	-0.06910033
106	0x3d548ddd	0.051893104
107	0xbbe17e2b	-0.0068814955
108	0x3d8c29c8	0.06843907
109	0x3dcd812f	0.100344054
110	0x3d63ac43	0.055584203
111	0x3cc52c41	0.024068953
112	0xbd4247e0	-0.047431827
113	0x3cabc56c	0.020968162
114	0xbd562fce	-0.052291684
115	0xbd46464e	-0.04840689
116	0x3d31d995	0.043420393
117	0x3d8cb711	0.06870855
118	0x3d3b0a64	0.045664206
119	0xbd3dc795	-0.046332914
120	0x3bed8d47	0.0072495076
121	0xbc8cd5f9	-0.017191874
122	0xbb8581e8	-0.004074324
123	0x3b457908	0.0030131955
124	0xbd69d1c5	-0.057084817
125	0x3d9ee15f	0.0775783
126	0xbdd6637e	-0.104681954
127	0x3da8df24	0.08245686
128	0xbc8209b9	-0.015873777
129	0x3d02cb9d	0.031932462
130	0x3caef961	0.021359148
131	0x3d9a5218	0.075351894
132	0x3d5bb7a7	0.05364194
133	0x3ce85130	0.028359026
134	0x3d92e6ff	0.07172965
135	0x3d4c08b8	0.049813002
136	0x3dae5267	0.08511811
137	0x3cd98867	0.0265543
138	0x3b8e434d	0.004341519
139	0x3d22966e	0.039694242
140	0x3c4363d5	0.011925657
141	0xb9899577	-0.00026242036
142	0xbcdf86c5	-0.027285943
143	0x3ba730ef	0.005102269
144	0x3dd4c127	0.103884034
145	0xbd34fcc7	-0.04418638
146	0xbd0592fd	-0.032610882
147	0xbd129dd4	-0.035795048
148	0x3d284878	0.041084737
149	0x3c28485e	0.01027116
150	0xbc963f04	-0.018340595
151	0x3adf96a6	0.0017058447
152	0x3d1ba8f8	0.038002938
153	0xbc887e6e	-0.016661849
154	0x3dacb8c4	0.08433679
155	0xbd2326e8	-0.039832026
156	0x3d51e774	0.05124612
157	0xbd09f2da	-0.033678867
158	0xbcd698f2	-0.026195977
159	0xbd946ad3	-0.072469376
160	0xbd3a210b	-0.04544167
161	0x3d242760	0.040076613
162	0x3c97ea94	0.018544473
163	0x3d8eb8cd	0.06968842
164	0x3cc381e0	0.02386564
165	0xbcbdba64	-0.023160167
166	0xbc6b5ef9	-0.014365905
167	0xbc51010e	-0.012756599
168	0x3d1fc23d	0.0390036
169	0x3cf69598	0.030100629
170	0x3c1e353a	0.009656245
171	0x3d7e8d37	0.06214639
172	0x3d5d846b	0.05408136
173	0xbc67ad56	-0.014140448
174	0x3c2b9813	0.010473269
175	0xbbc1d597	-0.0059153545
176	0xbddc691e	-0.10762237
177	0x3dae6a5b	0.085163794
178	0xbd1da220	-0.038484693
179	0xbd27b276	-0.040941678
180	0x3dff4a72	0.12465371
181	0xbc055e25	-0.008140122
182	0xbd1c2904	-0.038125053
183	0x3da84dbb	0.08217951
184	0xbd4898e2	-0.048973925
185	0xbd12a219	-0.03579912
186	0x3c00bbc8	0.007857271
187	0x3d21f0d1	0.0395363
188	0x3c5b0720	0.013368398
189	0x3cc58a76	0.024113875
190	0x3d2be668	0.04196778
191	0xbcfa2e94	-0.030539788
192	0x3d8769f6	0.06612007
193	0xbcacc65d	-0.02109068
194	0xbd69ed23	-0.057110917
195	0x3d07a60f	0.03311735
196	0xbd5925eb	-0.053014677
197	0xbd7e00d4	-0.06201251
198	0xbdeacd61	-0.11464954
199	0xbd2276d0	-0.03966409
200	0x3c03979a	0.00803175
201	0x3d9de4d4	0.07709661
202	0x3d283b49	0.041072164
203	0x3d71cef4	0.059035257
204	0x3d015837	0.03157827
205	0x3bca780b	0.006178861
206	0x3c8ffcca	0.017576594
207	0xbd44451b	-0.047917467
208	0xbd0a278a	-0.033729114
209	0x3d5fccec	0.054638788
210	0xbd33a9b2	-0.043863006
211	0xbc706620	-0.014672786
212	0xbd56dabe	-0.052454703
213	0xbce12f64	-0.027488418
214	0x3d9a3488	0.07529551
215	0x3db5528b	0.088536344
216	0x3d954029	0.07287628
217	0xbc804b3f	-0.01566088
218	0xbd4a0d3a	-0.04932902
219	0xbda16047	-0.078796916
220	0xbc7d4921	-0.01545933
221	0xbd8bcf73	-0.06826677
222	0x3d93c5f5	0.07215492
223	0xbd474957	-0.048653927
224	0xbc28d3ad	-0.010304374
225	0x3daa01bf	0.08301114
226	0x3d23beaa	0.039976753
227	0x3ddb65a0	0.10712743
228	0xbd8f0213	-0.069828175
229	0x3d8dbbbf	0.06920575
230	0x3d91881b	0.07106038
231	0x3b42d6a0	0.0029729977
232	0xbdec4647	-0.11536842
233	0xbbea05c2	-0.0071417997
234	0xbc60821e	-0.013702897
235	0xbcd7eb78	-0.026357397
236	0x3c69fb1a	0.014281059
237	0x3d25d201	0.04048348
238	0xbc1a346f	-0.009411915
239	0xbcf11d2b	-0.029432854
240	0xbd41b7a5	-0.047294278
241	0xbc9913b6	-0.018686157
242	0x3db110dd	0.086457945
243	0x3cfb9925	0.030712673
244	0x3dcc356c	0.09971127
245	0xbd62afc3	-0.0553434
246	0xbaa82a01	-0.0012829901
247	0x3c5f646b	0.013634781
248	0xbdd0ca54	-0.10194841
249	0xbd83f017	-0.06442278
250	0x3d05502a	0.032547154
251	0xbc7fd6b7	-0.015615157
252	0x3d651d46	0.05593612
253	0xbd46c982	-0.048532017
254	0x3d226fa6	0.039657257
255	0xbcf5eeb5	-0.030021051

logits.bias f4 [5]
0	0xbcd86296	-0.026414197
1	0x3d250cb0	0.040295303
2	0xbd4d2929	-0.05008808
3	0x3d7c5189	0.061601195
4	0x3d6cfdff	0.057859417
