policy_squad2_multi.pt (torch, 419941 bytes, 6 tensors)

fc1.weight f4 [256, 144]
-0.05304795 0.4050743 -0.28862536 0.17470254 -0.4873344 -0.25681886 -0.07717366 0.13518709
-0.023492662 -0.16129464 0.18947771 -0.32096466 0.025914595 0.118719175 -0.18438229 0.013929036
0.310276 -0.3564364 -0.0790027 0.21068816 0.021112021 -0.011914554 0.0575323 -0.011745561
-0.29536477 -0.15317957 0.034093596 0.37219024 -0.13308711 0.21978007 0.0480614 0.1780675
-0.030074703 -0.012022328 0.083217695 -0.20684817 -0.11427695 0.36725456 -0.13292798 -0.18337825
0.4638082 -0.2620887 0.050618574 -0.003677583 -0.059535004 0.06402547 -0.28206956 0.3631671
-0.07802273 -0.07899131 0.008210615 -0.056816783 0.052020703 0.39794642 -0.05688562 0.1627722
0.04426893 0.013942771 -0.015346507 -0.20000923 -0.011516932 -0.04369839 -0.18717313 -0.06878745
-0.06486964 -0.29003173 0.3670703 0.3410794 0.1795688 -0.063782275 0.0874091 0.091873236
0.3336613 -0.088872366 -0.08355518 0.07598971 -0.08099261 0.25016382 -0.27084187 -0.116111726
-0.21343337 0.1015118 0.027161403 0.12433998 0.0380866 0.23063502 -0.2849166 0.048474483
0.118296154 -0.3001276 0.3752194 0.073203936 -0.11111967 -0.12574242 0.007839621 -0.14227536
-0.0068696598 -0.081844054 0.038192958 -0.26614833 0.07601186 0.1378978 0.31094545 0.019280175
-0.05547239 -0.37468934 -0.21221435 0.06859669 -0.29554588 -0.28192934 -0.057995714 -0.030580375
-0.024656616 -0.14663552 0.030091403 -0.24882643 -0.13495013 -0.17307352 -0.21357156 -0.2426804
0.009819305 0.053371105 -0.019479461 -0.07163092 -0.054243013 0.19530812 0.071249165 0.07418249
1.5324994 1.2929279 1.5472847 1.5181898 1.5346019 1.561966 1.2270397 1.437538
1.1215416 0.98742944 0.37941748 1.139519 1.3304006 1.5273708 1.4956989 1.3887911
-0.10337006 0.35958502 -0.23329684 0.15965064 -0.49716145 -0.109462395 -0.14788282 0.065503
0.10584905 -0.20485552 0.055111635 -0.19614305 0.048212383 0.0113132335 -0.14144918 0.019009028
0.33864075 -0.21415623 -0.070587 0.07363931 0.019328486 -0.115128264 0.03163203 0.10316092
-0.44852135 -0.2285134 0.08751322 0.44578734 0.015761178 0.28613552 0.02100831 0.10025157
-0.057059266 -0.08363695 0.03823781 -0.10285964 -0.12842995 0.26862606 -0.038752943 -0.12945361
0.43941593 -0.21678306 0.017863378 -0.021658076 -0.01186668 0.12444938 -0.19215487 0.27992207
-0.024923945 -0.10070019 0.049895257 -0.09632434 0.046089053 0.30432445 -0.07805944 0.18386574
0.12396278 0.073461294 0.066218995 -0.15072013 -0.019087365 -0.048486713 -0.19324838 -0.028098032
-0.09923243 -0.24804272 0.3869382 0.31315574 0.19512445 -0.031180939 0.120523125 0.08522192
0.36550316 -0.09257324 -0.041608613 0.04653109 -0.1152943 0.22760539 -0.24572389 -0.09728954
-0.20047162 0.106554165 0.00080032577 0.08724676 -0.034777567 0.24954511 -0.30152148 0.007348045
0.13223282 -0.2357887 0.4332676 0.11552374 -0.084132716 -0.25671798 -0.003092271 -0.15646383
0.002750582 -0.24286257 -0.099846095 -0.19064614 0.082229964 0.17020866 0.23673527 -0.074922055
-0.119873 -0.29329494 -0.28673485 0.0752652 -0.30163342 -0.30820096 -0.031632956 -0.037114713
00000000: cf48 59bd e665 cf3e b4c6 93be 39e5 323e
00000010: e583 f9be c37d 83be 390d 9ebd 7c6e 0a3e
00000020: af73 c0bc 6c2a 25be 7206 423e 7b55 a4be
00000030: d84a d43c 0a23 f33d b6ce 3cbe 9d36 643c
00000040: 7fdc 9e3e d57e b6be 2bcc a1bd a3be 573e
00000050: 1ef3 ac3c 4335 43bc fda6 6b3d 7470 40bc
00000060: 0d3a 97be 1bdb 1cbe baa5 0b3d b88f be3e
00000070: fd47 08be 070e 613e 08dc 443d 5457 363e
00000080: 395f f6bc 4cf9 44bc 0a6e aa3d 02d0 53be
00000090: 090a eabd ca08 bc3e 461e 08be 82c7 3bbe
000000a0: 4578 ed3e 7d30 86be 6c55 4f3d 9b03 71bb
000000b0: fada 73bd c91f 833d 6c6b 90be 0af1 b93e
000000c0: 62ca 9fbd 32c6 a1bd d185 063c b7b8 68bd
000000d0: a913 553d a2bf cb3e e500 69bd c1ad 263e
000000e0: 5653 353d 3870 643c ea6f 7bbc 38cf 4cbe
000000f0: 84b1 3cbc 15fd 32bd 50aa 3fbe 6fe0 8cbd
00000100: 60da 84bd 0a7f 94be a3f0 bb3e f6a1 ae3e
00000110: e2e0 373e 48a0 82bd 8b03 b33d 0928 bc3d
00000120: a7d5 aa3e b702 b6bd fa1e abbd 7ea0 9b3d
00000130: 74df a5bd 7915 803e c9ab 8abe fccb edbd
00000140: 478e 5abe 6be5 cf3d 9781 de3c f6a5 fe3d
00000150: b200 1c3d 962b 6c3e 97e0 91be 2e8d 463d
00000160: 4145 f23d 53aa 99be c21c c03e f2eb 953d
00000170: b692 e3bd 9fc2 00be c171 003c a2b0 11be
00000180: e21a e1bb db9d a7bd 3870 1c3d 9844 88be
00000190: 1bac 9b3d 1535 0d3e 3e34 9f3e 75f1 9d3c
000001a0: 0437 63bd 48d7 bfbe b84e 59be 6c7c 8c3d
000001b0: ca51 97be 0b59 90be ea8c 6dbd b283 fabc
000001c0: acfc c9bc 9f27 16be 3f82 f63c 5bcc 7ebe
000001d0: 5e30 0abe 2f3a 31be 81b2 5abe 3681 78be
000001e0: 26e1 203c a99b 5a3d 6493 9fbc 3bb3 92bd
000001f0: ec2d 5ebd dafe 473e 15eb 913d fdec 973d
00000200: f128 c43f a97e a53f 6d0d c63f 0b54 c23f
00000210: d66d c43f 80ee c73f a30f 9d3f 3f01 b83f
00000220: ad8e 8f3f 2dc8 7c3f 0243 c23e c2db 913f
00000230: 914a aa3f e380 c33f 1073 bf3f e8c3 b13f
00000240: afb3 d3bd 871b b83e 5ee5 6ebe 757b 233e
00000250: f28b febe d22d e0bd 986e 17be 7026 863d
00000260: 63c7 d83d a5c5 51be bdbc 613d b9d9 48be
00000270: 597a 453d 245b 393c 0ed8 10be d2b8 9b3c
00000280: 5262 ad3e c54b 5bbe eb8f 90bd 35d0 963d
00000290: c656 9e3c 5ec8 ebbd 9690 013d 0846 d33d
000002a0: 97a4 e5be 6bff 69be 223a b33d 3d3e e43e
000002b0: 961d 813c 5b80 923e 9f19 ac3c b250 cd3d
000002c0: fab6 69bd d949 abbd 409f 1c3d 13a8 d2bd
000002d0: 2483 03be 5b89 893e 68bb 1ebd 7d8f 04be
000002e0: 20fb e03e 61fc 5dbe 3856 923c 476c b1bc
000002f0: 776c 42bc 51df fe3d 3fc4 44be f251 8f3e
00000300: 4d2d ccbc e73b cebd f85e 4c3d b245 c5bd
00000310: e0c7 3c3d 6ad0 9b3e a1dd 9fbd 4d47 3c3e
00000320: 33e0 fd3d e072 963d d39d 873d 6156 1abe
00000330: 1b5d 9cbc 019a 46bd e7e2 45be d82d e6bc
00000340: 5f3a cbbd e9fe 7dbe c41c c63e f355 a03e
00000350: b4ce 473e 2b6f ffbc d4d4 f63d d488 ae3d
00000360: 3b23 bb3e 0a97 bdbd cb6d 2abd 6297 3e3d
00000370: 6b1f ecbd 6311 693e 0b9f 7bbe bd3f c7bd
00000380: 6f48 4dbe 1239 da3d f4cc 513a 6eae b23d
00000390: ec72 0ebd c188 7f3e 0661 9abe dec7 f03b
000003a0: 0a68 073e 9872 71be 40d5 dd3e b697 ec3d
000003b0: c64d acbd 8a70 83be b3a7 4abb 0e38 20be
000003c0: 1c43 343b f7b0 78be 1c7c ccbd be38 43be
000003d0: 2f68 a83d 2e4b 2e3e bb6a 723e bc70 99bd
000003e0: fa7f f5bd c12a 96be e9ce 92be a424 9a3d
000003f0: b26f 9abe 84cc 9dbe 8f91 01bd 9905 18bd

fc1.bias f4 [256]
1.5771518 1.5743383 1.5091368 1.4246519 1.518355 1.3761401 1.4254669 1.434248
1.5169954 1.4542284 1.5559058 1.4532706 1.4795488 1.4999965 1.5584242 1.550755
1.5597869 1.5708811 1.473498 1.4379317 1.5067996 1.554409 1.4912158 1.4697202
1.4287447 1.4784857 1.5047252 1.5034275 1.4908562 1.5253539 1.4375641 1.4824386
1.5295953 1.5618283 1.4191923 1.4688632 1.5247066 1.5760628 1.4764168 1.5515718
1.5214971 1.5284177 1.4348946 1.4279219 1.5133508 1.5162356 1.4759763 1.5000361
1.5557419 1.5467025 1.4953667 1.5532302 1.4078907 1.4566439 1.4740406 1.5033942
1.5277817 1.4290808 1.5579718 1.4974189 1.4156462 1.5205448 1.5148239 1.4767228
1.5500365 1.5606856 1.5487092 1.4544032 1.5670855 1.4202192 1.4642086 1.4108903
1.5159223 1.4512377 1.538451 1.5510182 1.4937685 1.5177402 1.4840415 1.4991758
1.5200008 1.549528 1.5253447 1.4440198 1.5429819 1.5053451 1.5590985 1.4759233
1.3764676 1.5543599 1.4786397 1.5158387 1.520814 1.4592531 1.4205083 1.4841627
1.4284762 1.4953792 1.4232014 1.4370545 1.5231962 1.411572 1.5804574 1.481128
1.478701 1.5074645 1.4110975 1.475635 1.4918619 1.492136 1.5772943 1.4269478
1.424565 1.4745986 1.4079202 1.5156561 1.5545331 1.483223 1.5037905 1.509409
1.560604 1.494528 1.4366854 1.5430061 1.5704919 1.4904197 1.5415213 1.5623844
1.5200789 1.5386077 1.5144953 1.54717 1.4861755 1.4274105 1.4279867 1.5405737
1.4347881 1.4450063 1.5629977 1.5675807 1.569787 1.4625307 1.4815112 1.4862442
1.4229549 1.4869179 1.5281458 1.5521759 1.4819582 1.4188102 1.4405671 1.542156
1.5076617 1.4980193 1.4732994 1.5076957 1.4831533 1.460727 1.5443798 1.5097145
1.5408256 1.5288199 1.4026786 1.4771177 1.5724359 1.4585207 1.4909968 1.5528498
1.541577 1.4450219 1.4322461 1.5279894 1.4741168 1.4235071 1.4690405 1.4119377
1.5344421 1.3918355 1.5155971 1.556907 1.4750661 1.4828387 1.4985083 1.5037909
1.5253658 1.541954 1.4593832 1.4218014 1.4961392 1.4792458 1.4309112 1.4662287
1.4920565 1.450179 1.5462184 1.434785 1.5324645 1.4645206 1.5634886 1.5666311
1.5240701 1.4285175 1.4194609 1.4072354 1.4988103 1.4758141 1.4420896 1.4092916
1.3926914 1.5291908 1.429698 1.5688361 1.533247 1.4407872 1.4187748 1.4277337
1.5045536 1.4542749 1.4396619 1.5402216 1.506835 1.5672938 1.4391761 1.542732
1.5521293 1.4228778 1.461097 1.4394456 1.4456284 1.4666884 1.4443094 1.5315484
1.4248853 1.4801818 1.5323105 1.5119617 1.5073173 1.401367 1.5408822 1.5406774
1.5194963 1.5046136 1.4819143 1.4984051 1.5456526 1.5336741 1.5222485 1.4161062
1.4166521 1.3829803 1.4692914 1.470872 1.4641063 1.4857254 1.5162787 1.5640646
00000000: 1ce0 c93f eb83 c93f 652b c13f fe5a b63f
00000010: 7559 c23f 5c25 b03f b375 b63f 7095 b73f
00000020: e82c c23f 2824 ba3f ec27 c73f c504 ba3f
00000030: db61 bd3f e3ff bf3f 727a c73f 247f c63f
00000040: 19a7 c73f a212 c93f 959b bc3f 250e b83f
00000050: cfde c03f e0f6 c63f 29e0 be3f cb1f bc3f
00000060: 1be1 b63f 053f bd3f d69a c03f 5070 c03f
00000070: 60d4 be3f cc3e c33f 1a02 b83f 8cc0 bd3f
00000080: c7c9 c33f fde9 c73f 18a8 b53f b603 bc3f
00000090: 9629 c33f 6dbc c93f 3afb bc3f e899 c63f
000000a0: 6bc0 c23f 31a3 c33f a0aa b73f 25c6 b63f
000000b0: 7bb5 c13f 0214 c23f cbec bc3f 2f01 c03f
000000c0: 8d22 c73f 59fa c53f 2d68 bf3f 3fd0 c63f
000000d0: c335 b43f 4f73 ba3f 5dad bc3f 396f c03f
000000e0: 5a8e c33f 1fec b63f 9f6b c73f 6cab bf3f
000000f0: e533 b53f 36a1 c23f c0e5 c13f 4105 bd3f
00000100: 9967 c63f 8cc4 c73f 1a3c c63f e229 ba3f
00000110: 4296 c83f bec9 b53f 306b bb3f 0e98 b43f
00000120: be09 c23f 28c2 b93f f6eb c43f c487 c63f
00000130: ce33 bf3f 5045 c23f 12f5 bd3f fee4 bf3f
00000140: 638f c23f ef56 c63f 7f3e c33f a4d5 b83f
00000150: 6e80 c53f 26af c03f 8a90 c73f 0eeb bc3f
00000160: 1730 b03f 44f5 c63f 1144 bd3f 0107 c23f
00000170: 08aa c23f cec8 ba3f 37d3 b53f 0bf9 bd3f
00000180: 4fd8 b63f 9668 bf3f 772b b63f 67f1 b73f
00000190: 18f8 c23f 64ae b43f 6e4c ca3f 9a95 bd3f
000001a0: 1346 bd3f 99f4 c03f d89e b43f 9ce1 bc3f
000001b0: 55f5 be3f 50fe be3f c8e4 c93f 3aa6 b63f
000001c0: 2558 b63f a6bf bc3f bb36 b43f 0501 c23f
000001d0: f1fa c63f 40da bd3f 357c c03f 5034 c13f
000001e0: dfc1 c73f b24c bf3f 4fe5 b73f 3981 c53f
000001f0: e105 c93f 13c6 be3f 9250 c53f 36fc c73f
00000200: f291 c23f 19f1 c43f fbda c13f ab09 c63f
00000210: 003b be3f 63b5 b63f 45c8 b63f 8531 c53f
00000220: 23a7 b73f f7f5 b83f 4f10 c83f 7ca6 c83f
00000230: c8ee c83f 3534 bb3f 29a2 bd3f 403d be3f
00000240: 6323 b63f 5353 be3f 489a c33f b3ad c63f
00000250: ceb0 bd3f 939b b53f 8164 b83f 5e65 c53f
00000260: 0ffb c03f 19bf bf3f 1395 bc3f 2cfc c03f
00000270: f8d7 bd3f 1af9 ba3f 3dae c53f 533e c13f
00000280: c639 c53f 5fb0 c33f f98a b33f 3112 bd3f
00000290: 9445 c93f ceb0 ba3f fcd8 be3f c8c3 c63f
000002a0: 6552 c53f 7af6 b83f d753 b73f 2895 c33f
000002b0: dcaf bc3f 7b35 b63f 8509 bc3f 60ba b43f
000002c0: 9968 c43f aa27 b23f 16ff c13f bb48 c73f
000002d0: f7ce bc3f a9cd bd3f 1fcf bf3f 387c c03f
000002e0: 303f c33f c05e c53f 12cd ba3f 97fd b53f
000002f0: 7d81 bf3f ed57 bd3f 1928 b73f 62ad bb3f
00000300: b5fb be3f 779f b93f 7cea c53f 09a7 b73f
00000310: cc27 c43f 6975 bb3f 6520 c83f 5e87 c83f
00000320: bb14 c33f a9d9 b63f e5b0 b53f 4a20 b43f
00000330: 04d9 bf3f 7ae7 bc3f 6496 b83f ab63 b43f
00000340: b643 b23f 86bc c33f 5800 b73f 9fcf c83f
00000350: 7041 c43f b76b b83f 6a9a b53f fabf b63f
00000360: 3695 c03f ae25 ba3f d746 b83f fb25 c53f
00000370: f8df c03f 159d c83f ec36 b83f 3e78 c53f
00000380: 2cac c63f dc20 b63f 3a05 bb3f c13f b83f
00000390: 5a0a b93f 72bc bb3f 21df b83f c709 c43f
000003a0: a462 b63f 9976 bd3f c022 c43f f687 c13f
000003b0: c6ef c03f fe5f b33f a13b c53f eb34 c53f
000003c0: db7e c23f 2e97 c03f 5eaf bd3f bdcb bf3f
000003d0: f2d7 c53f 6f4f c43f 0ad9 c23f f842 b53f
000003e0: db54 b53f 8005 b13f be11 bc3f 8945 bc3f
000003f0: d667 bb3f 402c be3f 6c15 c23f 4533 c83f

fc2.weight f4 [256, 256]
0.052594967 -0.030560086 0.05041824 -0.060945306 -0.0006621517 -0.0377997 -0.0077448958 0.026716774
-0.022284867 -0.059624176 0.023286114 0.013051969 -0.059847035 -0.013427543 -0.05890977 -0.044422157
0.017678807 -0.04879373 0.043973997 0.01073458 0.044666816 0.015492178 -0.05101296 0.009435452
0.035888817 -0.01723684 -0.035649065 -0.01626449 0.0045452956 -0.004348223 -0.0022743377 0.04421172
-0.057570316 -0.06375761 0.012787792 -0.03609793 -0.0480886 -0.021511124 0.0030016813 -0.044877738
0.0015415875 0.029965399 -0.0027549162 -0.039219957 -0.034014735 0.013425543 -0.016209388 -0.05548564
-0.059378937 0.004220084 0.050148495 -0.043692604 -0.049523693 0.031707797 0.036303755 -0.028739199
-0.024347961 -0.06835998 0.04422435 -0.023637101 -0.06331371 -0.04429191 0.0030054657 0.0329563
-0.051939763 0.042005032 -0.057202008 -0.051010087 -0.029340731 0.03263975 0.044326346 0.028061034
0.01261768 -0.052236248 -0.034571085 0.0394107 0.005756039 -0.016104966 0.0058172285 0.037116636
-0.0012919749 -0.010678966 0.042255275 -0.022750877 0.032137148 -0.008564937 0.011798166 -0.032666065
-0.034510367 0.0044871913 0.020999318 0.033896483 0.006740612 -0.0018822862 -0.032678332 0.03807434
-0.025695201 -0.039710987 0.018398227 0.033720996 -0.04805561 0.048564475 0.033252373 -0.0017481844
0.0021313624 -0.05780988 0.015701242 -0.04137228 -0.020927526 -0.044181053 0.01556863 -0.03282961
0.009268868 -0.006983621 -0.06590176 0.03761661 -0.048729513 0.039691176 -0.06757855 -0.061495792
0.0067280703 0.04647167 -0.046564657 -0.029410968 0.03131515 0.05211898 -0.04396781 -0.026767269
0.033633493 0.008840659 -0.067006364 0.038871437 -0.014695493 -0.0050985017 -0.017190946 -0.024379048
-0.039406642 -0.022848886 0.036952734 0.031599965 -0.04952373 -0.047070578 -0.047929145 0.025646066
-0.069113284 0.01996855 0.024016337 0.005688228 0.036939234 0.0059061907 -0.06571169 -0.023147507
-0.047489595 -6.4497355e-05 -0.04402801 0.010472135 0.0030643444 -0.03702957 0.02561009 -0.01749443
0.033737987 -0.06097107 0.045985978 0.017050039 0.025701243 -0.041339017 0.030167285 0.035517015
-0.0067059016 -0.025188692 -0.03317783 0.01077658 0.035886176 0.018118285 -0.045499276 0.023891427
-0.0010273539 0.00755009 -0.039154723 -0.06099599 0.039493382 -0.048098754 -0.044760358 0.04362161
-0.018086627 -0.0007985255 0.02246199 -0.04393921 0.046473008 -0.003179871 0.025786748 -0.039214768
0.0034904745 -0.04523552 -0.060676474 -0.001548335 -0.057403866 -0.04996902 0.018331002 0.0029977744
0.015120145 0.023977453 0.046975035 0.027429344 -0.044265524 0.002811647 -0.009181677 -0.048446383
-0.027310349 -0.052179024 -0.0530146 -0.051293664 0.0022227014 -0.059237298 -0.056798555 -0.02934999
-0.0065595144 -0.005767427 -0.02031574 -0.06370757 0.022639692 -0.02725913 0.009261496 -0.014773861
-0.00050265936 -0.052818775 0.011655454 -0.019866787 -0.055481926 0.03874822 5.5040473e-05 -0.0080972975
-0.06251519 -0.06433286 -0.0076507786 0.028737165 0.0028456848 -0.055515572 0.002280332 -0.0018721533
-0.030665081 0.027887832 -0.034132455 -0.020212669 0.00727528 -0.051854484 -0.037123885 0.001790412
0.046945717 -0.025797604 0.040743966 0.013513916 0.04602768 -0.05693581 0.027414108 -0.029292913
00000000: d26d 573d 2559 fabc 5b83 4e3d c9a1 79bd
00000010: 4094 2dba dcd3 1abd e5c8 fdbb 23dd da3c
00000020: c18e b6bc 7b38 74bd 85c2 be3c edd7 553c
00000030: 2a22 75bd 33ff 5bbc 5f4b 71bd 02f4 35bd
00000040: 25d3 903c efdb 47bd 141e 343d 18e0 2f3c
00000050: 8df4 363d e7d2 7d3c f7f2 50bd 2797 1a3c
00000060: 2700 133d 4634 8dbc c104 12bd 1c3d 85bc
00000070: b4f0 943b 8a7b 8ebb 0e0d 15bb 5917 353d
00000080: dace 6bbd 5a93 82bd e383 513c 6cdb 13bd
00000090: 8df8 44bd 1938 b0bc dbb7 443b b8d1 37bd
000000a0: 180f ca3a ff79 f53c d38b 34bb 1ba5 20bd
000000b0: 0953 0bbd cff6 5b3c 8dc9 84bc e944 63bd
000000c0: 5437 73bd a148 8a3b 8268 4d3d 04f7 32bd
000000d0: 5bd9 4abd 09e0 013d 3fb3 143d 786e ebbc
000000e0: 6075 c7bc 5100 8cbd 9824 353d 98a2 c1bc
000000f0: 9eaa 81bd 6f6b 35bd 59f7 443b 2ffd 063d
00000100: cabe 54bd 780d 2c3d a74c 6abd f4ef 50bd
00000110: f95b f0bc 42b1 053d 8b8f 353d 41e0 e53c
00000120: 63ba 4e3c adf5 55bd 699a 0dbd 1d6d 213d
00000130: 289d bc3b 90ee 83bc 739e be3b 9d07 183d
00000140: 7c57 a9ba d4f6 2ebc de13 2d3d 0c60 babc
00000150: 3ea2 033d f353 0cbc 184d 413c dacc 05bd
00000160: be5a 0dbd 4a09 933b c306 ac3c 0ad7 0a3d
00000170: 5ae0 dc3b 0bb7 f6ba b7d9 05bd d7f3 1b3d
00000180: be7e d2bc fda7 22bd e1b7 963c 071f 0a3d
00000190: f6d5 44bd 8beb 463d a433 083d 5623 e5ba
000001a0: 54ae 0b3b 0dca 6cbd e49f 803c fb75 29bd
000001b0: 3470 abbc 31f7 34bd 9113 7f3c 5778 06bd
000001c0: 73dc 173c dcd6 e4bb 80f7 86bd e013 1a3d
000001d0: 9998 47bd 3793 223d 9f66 8abd 03e3 7bbd
000001e0: 2577 dc3b 1459 3e3d 95ba 3ebd 45ef f0bc
000001f0: 5144 003d b67a 553d 9717 34bd 0847 dbbc
00000200: 46c3 093d 69d8 103c a23a 89bd a837 1f3d
00000210: 5dc5 70bc 5511 a7bb 07d4 8cbc 92b6 c7bc
00000220: dc68 21bd 962d bbbc c05b 173d f76e 013d
00000230: 65d9 4abd 14cd 40bd 5a51 44bd b317 d23c
00000240: 448b 8dbd 1695 a33c e9bd c43c 5164 ba3b
00000250: 984d 173d b888 c13b da93 86bd d79f bdbc
00000260: 7384 42bd c142 87b8 b756 34bd 5193 2b3c
00000270: 2bd3 483b 52ac 17bd 40cc d13c 7b50 8fbc
00000280: d830 0a3d cdbc 79bd cb5b 3c3d 86ac 8b3c
00000290: 6a8b d23c 1a53 29bd 6221 f73c 4a7a 113d
000002a0: 2ebd dbbb 8458 cebc 7ae5 07bd 4190 303c
000002b0: 62fd 123d cc6c 943c 735d 3abd f4b7 c33c
000002c0: 47a8 86ba bf66 f73b b460 20bd eed6 79bd
000002d0: d0c3 213d 3303 45bd a356 37bd 93ac 323d
000002e0: 682a 94bc 2454 51ba 3502 b83c 9af9 33bd
000002f0: 7b5a 3e3d 6265 50bb bb3e d33c aa9f 20bd
00000300: 72c0 643b e148 39bd e587 78bd 80f1 caba
00000310: 5120 6bbd 51ac 4cbd e62a 963c 4f76 443b
00000320: 7cba 773c 5d6c c43c e568 403d 81b3 e03c
00000330: c44f 35bd 9c43 383b bf6e 16bc b76f 46bd
00000340: f4b9 dfbc acb9 55bd d625 59bd 4e19 52bd
00000350: beaa 113b cfa2 72bd 9aa5 68bd 646f f0bc
00000360: 32f1 d6bb affc bcbb 326d a6bc 1d79 82bd
00000370: e076 b93c 8a4e dfbc 88bd 173c 100e 72bc
00000380: e6c4 03ba 8058 58bd 84f6 3e3c acbf a2bc
00000390: 0441 63bd 74b6 1e3d 42db 6638 87aa 04bc
000003a0: f707 80bd f2c0 83bd 62b3 fabb 346a eb3c
000003b0: ab7e 3a3b 4c64 63bd 9f71 153b 0a63 f5ba
000003c0: 5635 fbbc 0675 e43c 79ce 0bbd 0a95 a5bc
000003d0: 7965 ee3b 5e65 54bd 370f 18bd 42ac ea3a
000003e0: 274a 403d 7f55 d3bc 25e3 263d 7969 5d3c
000003f0: 8587 3c3d 8635 69bd 8d93 e03c b1f7 efbc

fc2.bias f4 [256]
-0.05644796 1.1249454 1.1384017 -0.06505202 1.181593 1.1175766 -0.0032991432 1.1839241
-0.039068017 -0.054990713 1.1609457 1.1548328 0.013075103 1.1715646 0.0385835 1.1864071
0.042129688 1.1669803 1.114892 1.2314801 0.019512314 0.009293787 1.0995083 0.004682562
1.2078846 1.1953796 1.201379 1.1330673 -0.0018336925 0.024604307 -0.031628583 1.2216176
1.231023 1.1527429 -0.06951254 1.1436872 1.1757097 1.1060519 1.1565642 1.1770085
1.1374726 1.1544394 0.0022325614 -0.02866592 1.1449109 -0.018131914 1.1899954 0.02818588
1.2007623 1.2033463 0.026261877 1.1414365 1.1082923 1.0931861 0.0185209 -0.013590012
1.2334859 1.1370513 1.124031 -0.045663673 1.1267867 1.1572677 0.03711064 -0.050615083
1.1832067 0.037250847 1.2132007 1.1898447 1.130362 -0.021630159 1.1643217 1.188631
1.1447709 1.1604608 1.2034829 1.146648 -0.07396831 1.1438085 0.027441876 1.1685271
1.1724783 1.1490096 1.2281631 -0.036717888 0.017624667 1.126108 1.1866758 1.1985868
0.03284269 1.0981176 0.015638234 1.2155864 1.1341447 1.1778716 0.03829465 1.1779172
1.1713457 1.1291645 1.1947505 1.1784469 0.049697552 -0.003385605 0.03632315 1.1970828
1.1013813 0.05331471 1.1809783 1.2022811 -0.05795667 1.1929889 0.030921733 -0.030415764
1.2612345 0.015290235 1.2274295 1.1842544 -0.05451324 1.1364485 1.2055526 1.0984246
1.1641374 -0.058627527 -0.0642013 1.1576431 1.1028609 0.02402792 1.1813546 -0.061349455
1.0938177 -0.063951954 -0.052753355 1.2040069 1.1649499 -0.030204624 -0.015902366 -0.033969257
1.1021379 1.1087435 0.028146924 -0.010672299 -0.05135649 -0.068653785 1.1522689 0.036070816
-0.004620766 0.0069198115 -0.06619484 -0.06983581 1.1717972 1.1770794 1.1938969 -0.02214762
1.2143652 1.2374582 1.1498985 0.049516756 0.006924521 1.1861115 -0.061347615 0.029705781
1.1799333 0.018944943 1.1636038 -0.040113337 1.1940762 1.1632874 -0.042333852 -0.053845324
1.1348947 1.1965467 1.1950622 1.1292205 1.1436256 -0.060090553 1.1654267 -0.020406561
0.03196605 0.014101425 -0.02252368 0.017079446 1.1600355 1.1732666 0.013113959 1.0681986
1.087582 0.018980524 0.0136236735 1.23816 1.1016605 0.033820245 1.1503096 0.050926045
0.022525882 1.2130239 1.1346289 0.031308886 -0.020586794 -0.025823995 -0.004442436 1.1216339
1.1757033 0.042480722 1.1346046 -0.02260417 -0.058507144 1.1482655 1.1836393 -0.017409358
-0.014809938 0.026676133 -0.000426383 1.1800344 -0.010070459 1.2383993 -0.062034797 -0.048374876
1.1606025 -0.06427318 0.0045784535 -0.013244704 0.0292459 1.1303179 1.115191 -0.04263302
1.0651371 0.02714412 -0.0014488504 1.1785879 1.1608918 -0.07250732 1.0916998 1.264621
-0.052148994 0.026548827 1.1639429 1.1388049 0.039353665 1.231375 -0.02135096 -0.055251006
1.129541 -0.06970522 0.017659608 0.031405974 0.01482261 1.2278357 1.0956477 0.024496324
1.2198789 1.1706873 -0.057457767 1.199368 1.2423006 0.015277199 -0.047374655 1.1950226
00000000: fa35 67bd 36fe 8f3f 26b7 913f fe39 85bd
00000010: 703e 973f c00c 8f3f 7036 58bb d38a 973f
00000020: c905 20bd f13d 61bd de99 943f 90d1 933f
00000030: f538 563c d4f5 953f bb09 1e3d 30dc 973f
00000040: 2e90 2c3d 9c5f 953f c8b4 8e3f 24a1 9d3f
00000050: 4ad8 9f3c f844 183c b0bc 8c3f 2d70 993b
00000060: f69b 9a3f 3302 993f c9c6 993f 5908 913f
00000070: 8358 f0ba f98e c93c f98c 01bd f75d 9c3f
00000080: 2992 9d3f 148d 933f 975c 8ebd 5864 923f
00000090: a87d 963f 1c93 8d3f 4c0a 943f 37a8 963f
000000a0: b498 913f acc4 933f 2a50 123b cbd4 eabc
000000b0: 718c 923f 6189 94bc c551 983f 13e6 e63c
000000c0: 94b2 993f 4007 9a3f 2623 d73c 971a 923f
000000d0: 86dc 8d3f 86ed 8b3f 24b9 973c a4a8 5ebc
000000e0: dee2 9d3f e68a 913f 3fe0 8f3f d509 3bbd
000000f0: 8c3a 903f 5921 943f 5401 183d c351 4fbd
00000100: 5173 973f 5894 183d 294a 9b3f d54c 983f
00000110: b4af 903f bb31 b1bc 7e08 953f 1025 983f
00000120: da87 923f fb89 943f ba0b 9a3f 5dc5 923f
00000130: b37c 97bd 5168 923f c9cd e03c 4c92 953f
00000140: c513 963f bf12 933f 7334 9d3f 7f65 16bd
00000150: 9b61 903c 4f24 903f fee4 973f 4b6b 993f
00000160: 0e86 063d 1e8f 8c3f c11b 803c 5698 9b3f
00000170: a72b 913f 7fc4 963f dada 1c3d fec5 963f
00000180: a8ee 953f 7688 903f 96ed 983f 59d7 963f
00000190: a98f 4b3d 07e1 5dbb 95c7 143d 023a 993f
000001a0: 10fa 8c3f 8660 5a3d 4c2a 973f 59e4 993f
000001b0: f963 6dbd dcb3 983f 934f fd3c 7b2a f9bc
000001c0: 2270 a13f e583 7a3c 691c 9d3f a695 973f
000001d0: 4649 5fbd 2577 913f 8c4f 9a3f 2d99 8c3f
000001e0: 7402 953f 6b23 70bd f97b 83bd a62d 943f
000001f0: 8c2a 8d3f 33d6 c43c a136 973f 9149 7bbd
00000200: 3802 8c3f 3ef9 82bd e713 58bd e61c 9a3f
00000210: 141d 953f b06f f7bc ae45 82bc 5923 0bbd
00000220: db12 8d3f 4feb 8d3f 6194 e63c deda 2ebc
00000230: 2f5b 52bd 5b9a 8cbd 8c7d 933f febe 133d
00000240: cb69 97bb 96bf e23b 2991 87bd 1406 8fbd
00000250: 73fd 953f 8aaa 963f 9dd1 983f ed6e b5bc
00000260: 5270 9b3f 0865 9e3f e02f 933f 15d2 4a3d
00000270: 18e7 e23b 80d2 973f a347 7bbd 8a59 f33c
00000280: 0e08 973f 6d32 9b3c f8f0 943f e24d 24bd
00000290: 7dd7 983f 9ae6 943f 4366 2dbd ea8c 5cbd
000002a0: 3b44 913f 7128 993f ccf7 983f 4c8a 903f
000002b0: 5362 923f 8321 76bd b42c 953f a92b a7bc
000002c0: d5ee 023d aa09 673c 9583 b8bc 32ea 8b3c
000002d0: 0b7c 943f 9a2d 963f eedb 563c bbba 883f
000002e0: e335 8b3f 0b7d 9b3c d435 5f3c 077c 9e3f
000002f0: 3603 8d3f 1987 0a3d 583d 933f d497 503d
00000300: 3388 b83c 5e44 9b3f 853b 913f bf3d 003d
00000310: a3a5 a8bc d88c d3bc db91 91bb b391 8f3f
00000320: 727d 963f 4400 2e3d b93a 913f 612c b9bc
00000330: 30a5 6fbd 5dfa 923f 7e81 973f 129e 8ebc
00000340: 62a5 72bc e887 da3c 288c dfb9 5e0b 973f
00000350: 91fe 24bc de83 9e3f 3318 7ebd bc24 46bd
00000360: 9f8e 943f a8a1 83bd da06 963b 5100 59bc
00000370: 1995 ef3c 42ae 903f 94be 8e3f f69f 2ebd
00000380: 6a56 883f 585d de3c 5ae7 bdba f8db 963f
00000390: 1a98 943f b87e 94bd d2bc 8b3f 1adf a13f
000003a0: 2f9a 55bd ed7c d93c 15fc 943f 5cc4 913f
000003b0: 4f31 213d b29d 9d3f 35e8 aebc e14e 62bd
000003c0: cd94 903f 9cc1 8ebd e2aa 903c 8da3 003d
000003d0: 88da 723c b829 9d3f 2f3e 8c3f 84ac c83c
000003e0: fe24 9c3f 15d9 953f d658 6bbd e484 993f
000003f0: b503 9f3f 384d 7a3c ed0b 42bd 80f6 983f

logits.weight f4 [5, 256]
0.011113676 0.4329189 0.47060314 -0.04910852 0.39235097 0.37643403 -0.051317863 0.4592293
-0.010857747 -0.047344185 0.4742961 0.43358368 0.028603883 0.36480713 -0.033403836 0.4130094
-0.033341464 0.4026957 0.4776498 0.39753893 0.0081728585 -0.0016010657 0.45069927 0.048490882
0.4449345 0.45316002 0.41219097 0.4508608 0.040042583 0.003209354 -0.022113243 0.45503372
0.43803284 0.4479079 -0.052935604 0.39279124 0.36855197 0.38432667 0.37993062 0.44950855
0.40604138 0.4013327 -0.027937025 -0.009180541 0.44533318 0.054502487 0.46472225 -0.024153434
0.40705186 0.4376838 0.024634857 0.45465606 0.46149567 0.46898007 0.061858017 -0.024081875
0.4823461 0.47198153 0.48249787 0.061823476 0.48689678 0.46470252 -0.03801909 -0.041541442
0.43886432 -0.0255824 0.3748685 0.3662338 0.4381274 0.0065892516 0.39428774 0.4657266
0.41104224 0.483144 0.3734304 0.47694364 0.015000073 0.4397971 -0.017235765 0.3863418
0.4499946 0.40865645 0.4110925 0.0014316638 0.014989235 0.3928785 0.4419797 0.46005094
0.025364595 0.4728419 -0.003381587 0.45479307 0.4100205 0.4843656 -0.012112097 0.4169491
0.38307774 0.47442985 0.4711914 0.46175483 0.021385321 -0.03819279 -0.051309347 0.45747942
0.48525882 0.05820483 0.44003847 0.48653772 0.019357946 0.42349872 0.015609758 0.0058181174
0.4290837 0.013372276 0.4551008 0.47096807 -0.038385022 0.4302861 0.4670578 0.4625754
0.44865683 -0.03583306 -0.00560368 0.42146102 0.483541 -0.020396054 0.39995414 -0.05192651
0.46328065 0.043749485 -0.0048767813 0.43504283 0.46606436 -0.035734817 -0.026350835 -0.0045175655
0.46093062 0.39584637 0.030678114 0.045097683 -0.0143547775 -0.044261895 0.48065704 0.00033268167
-0.021048151 -0.047907114 -0.004037043 0.0012244645 0.45594552 0.42192477 0.42893344 -0.013152966
0.37842375 0.41256067 0.3843666 -0.038036767 0.04778802 0.41992116 0.035989225 0.038105443
0.48796657 0.021444814 0.433392 0.041259207 0.41262248 0.44931555 0.023914542 -0.027996982
0.39957383 0.46161273 0.44126606 0.48033154 0.43148544 -0.04157227 0.438009 -0.055061474
-0.023503235 -0.024666999 -0.048639227 -0.010781187 0.43748033 0.45801505 -0.019984301 0.4888706
0.4853008 0.040806923 0.07634894 0.42623118 0.46229553 -0.046701632 0.46002227 0.043965142
-0.023113819 0.38784337 0.40096828 0.033214368 0.032244727 -0.010102889 0.060835913 0.4270863
0.48327723 0.014297806 0.3712194 0.044492997 -0.043927453 0.41090092 0.41824767 -0.049519304
-0.007034292 0.023337148 0.02671488 0.38476753 -0.02898804 0.4242339 -0.030128788 -0.027944976
0.43461084 0.019197585 0.01675156 0.03358669 0.002809727 0.3815459 0.3976697 -0.05323132
0.4722583 0.056147568 0.040352445 0.47297174 0.4582954 0.043015074 0.4216632 0.3999854
-0.0030623605 0.009184052 0.464572 0.42497033 0.04323568 0.4032038 -0.013089968 0.022300364
0.4279366 -0.04516959 -0.0008533378 0.012514711 -0.06002272 0.42440835 0.4279536 0.026713716
0.39249843 0.41329637 -0.04638432 0.4317466 0.38908595 -0.045246817 0.066601984 0.46344948
00000000: 2316 363c 8ca7 dd3e e5f2 f03e 0426 49bd
00000010: 3ae2 c83e f6bb c03e ae32 52bd 1a20 eb3e
00000020: b1e4 31bc faeb 41bd f0d6 f23e aefe dd3e
00000030: b152 ea3c 00c8 ba3e 76d2 08bd f875 d33e
00000040: 0f91 08bd 212e ce3e 848e f43e 398a cb3e
00000050: 74e7 053c dada d1ba 0ec2 e63e 609e 463d
00000060: 74ce e33e 9704 e83e b20a d33e 3ad7 e63e
00000070: b103 243d 0654 523b d526 b5bc 2efa e83e
00000080: d745 e03e 2f54 e53e 01d3 58bd ef1b c93e
00000090: d8b2 bc3e 77c6 c43e 4486 c23e fc25 e63e
000000a0: a8e4 cf3e 7b7b cd3e 30dc e4bc fb69 16bc
000000b0: b602 e43e 003e 5f3d 13f0 ed3e 6cdd c5bc
000000c0: 1a69 d03e 1718 e03e 0acf c93c aec8 e83e
000000d0: 2949 ec3e 281e f03e d55e 7d3d 5a47 c5bc
000000e0: 11f6 f63e 90a7 f13e f609 f73e 9d3a 7d3d
000000f0: 894a f93e 7ded ed3e e8b9 1bbd 5c27 2abd
00000100: d3b2 e03e 2e92 d1bc c4ee bf3e ff82 bb3e
00000110: 3c52 e03e a6ea d73b 15e0 c93e b873 ee3e
00000120: 2174 d23e a65e f73e 4532 bf3e f531 f43e
00000130: dec2 753c 162d e13e 0532 8dbc 98ce c53e
00000140: b165 e63e 6b3b d13e b77a d23e aaa6 bb3a
00000150: 6995 753c 5f27 c93e 2a4b e23e cc8b eb3e
00000160: 69c9 cf3c 5518 f23e 9e9d 5dbb a3da e83e
00000170: 35ee d13e c5fe f73e d171 46bc 5a7a d53e
00000180: c422 c43e 78e8 f23e 0040 f13e 216b ec3e
00000190: 4530 af3c 0b70 1cbd c029 52bd be3a ea3e
000001a0: d873 f83e 3068 6e3d b94c e13e 791b f93e
000001b0: 8e94 9e3c d3d4 d83e 12c0 7f3c e8a5 be3b
000001c0: dcb0 db3e 6417 5b3c f902 e93e ba22 f13e
000001d0: 9d39 1dbd 764e dc3e 3322 ef3e afd6 ec3e
000001e0: 59b6 e53e b0c5 12bd 139f b7bb bdc9 d73e
000001f0: b092 f73e a015 a7bc cac6 cc3e e4b0 54bd
00000200: 1f33 ed3e a932 333d 68cd 9fbb efbd de3e
00000210: fd9f ee3e ac5e 12bd b5dd d7bc 1608 94bb
00000220: 19ff eb3e 60ac ca3e ab50 fb3c 59b8 383d
00000230: 4d30 6bbc f64b 35bd ae18 f63e c76b ae39
00000240: 2c6d acbc 403a 44bd 2c49 84bb 367e a03a
00000250: b171 e93e 8606 d83e 2a9d db3e 8a7f 57bc
00000260: c2c0 c13e 273b d33e b3cb c43e 71cc 1bbd
00000270: 5fbd 433d e8ff d63e 7069 133d 7414 1c3d
00000280: c1d6 f93e 09ad af3c 8ee5 dd3e 6aff 283d
00000290: 4143 d33e b00c e63e 6ee8 c33c ed59 e5bc
000002a0: f194 cc3e 8158 ec3e a0ed e13e 04ee f53e
000002b0: a9eb dc3e af47 2abd b742 e03e 2488 61bd
000002c0: db89 c0bc 7212 cabc ed39 47bd 93a3 30bc
000002d0: 6cfd df3e f380 ea3e 1eb6 a3bc 3f4d fa3e
000002e0: 5979 f83e 2925 273d d55c 9c3d f93a da3e
000002f0: 00b2 ec3e 364a 3fbd 0a88 eb3e cb14 343d
00000300: 3159 bdbc 6893 c63e b74b cd3e ca0b 083d
00000310: 0c13 043d 9686 25bc 142f 793d 0eab da3e
00000320: 1d70 f73e 5841 6a3c 7810 be3e 4a3e 363d
00000330: 46ed 33bd 9b61 d23e 8f24 d63e c1d4 4abd
00000340: eb7f e6bb 8c2d bf3c 2ad9 da3c 4000 c53e
00000350: 5378 edbc 3035 d93e a6d0 f6bc ddec e4bc
00000360: 5085 de3e 4144 9d3c 913a 893c 3292 093d
00000370: 6623 383b fc59 c33e 5d9b cb3e 1609 5abd
00000380: d7cb f13e fefa 653d 9b48 253d 5a29 f23e
00000390: b2a5 ea3e 9330 303d 3de4 d73e e3ca cc3e
000003a0: e2b1 48bb b578 163c 62dc ed3e b695 d93e
000003b0: e517 313d ba70 ce3e 4e77 56bc 41af b63c
000003c0: 821a db3e bf03 39bd 88b2 5fba 810a 4d3c
000003d0: 62da 75bd 0d4c d93e bc1c db3e b9d6 da3c
000003e0: 8ef5 c83e 959b d33e 7cfd 3dbd e40d dd3e
000003f0: 4636 c73e ba54 39bd 9f66 883d 4049 ed3e

logits.bias f4 [5]
0.37148285 0.3337621 -0.23461899 0.3813379 -0.79461247
00000000: 0033 be3e dee2 aa3e f63f 70be b93e c33e
00000010: b96b 4bbf
