policy_squad2_multi_argmax_wt.pt (torch, 420125 bytes, 6 tensors)

fc1.weight f4 [256, 144]
0	0xbc09e984	-0.008417491
1	0xbd4cb3d8	-0.0499762
2	0xbcf2ee4a	-0.02965464
3	0xbd885157	-0.06656139
4	0x3d13072b	0.035895508
5	0xbc8fb1e4	-0.01754088
6	0x3d6bb41a	0.057544805
7	0x3d6b4d9b	0.057447057
8	0xbd797895	-0.06090601
9	0x3dc74159	0.09729261
10	0xbdb2e7f2	-0.08735646
11	0x3d932f5f	0.0718677
12	0xbc18bf0c	-0.009322893
13	0xbcd82162	-0.026383106
14	0xbcfce5be	-0.030871268
15	0xbd60375e	-0.054740302
16	0x3bb2ef29	0.005460639
17	0xba8b65e9	-0.001063523
18	0xbd14e125	-0.036347527
19	0x3c57f453	0.01318081
20	0x3d890cb2	0.066918746
21	0xbd28bfcd	-0.04119854
22	0xbdd57e53	-0.10424485
23	0x3d8b42e1	0.067998655
24	0xbd2a6f16	-0.041609846
25	0x3cc72258	0.024308369
26	0x3d8836fe	0.06651114
27	0xbc0a1f85	-0.008430366
28	0x3d81a471	0.06330193
29	0xbd168e4e	-0.036756806
30	0x3baa2638	0.0051925443
31	0xbdea1d33	-0.114313506
32	0xbd203fd5	-0.039123375
33	0x3c9b01f1	0.018921824
34	0x3dbe81d1	0.09302104
35	0xbd4a580e	-0.04940038
36	0x3c72ad8c	0.014811885
37	0x3d9910c7	0.07473903
38	0xbd8206b9	-0.063489385
39	0x3d82bf0e	0.06384097
40	0x3db72c72	0.08944024
41	0xbc0f67e2	-0.008752795
42	0xbc9ec9b0	-0.019383281
43	0x3da8148a	0.082070425
44	0xbccd0af4	-0.025029637
45	0x3d82de2a	0.06390031
46	0xbd12d2cb	-0.03584556
47	0x3d8c497c	0.068499535
48	0xbcd005a0	-0.025393307
49	0xbd8853ad	-0.06656585
50	0x3b504d45	0.0031784337
51	0xbd867a83	-0.06566336
52	0xbd06de7a	-0.032927014
53	0x3bfbc278	0.0076830946
54	0x3da04621	0.07825876
55	0xba377ca1	-0.0006999467
56	0x3ce6cc9e	0.028173741
57	0x3b80b5d7	0.003927927
58	0x3d900368	0.070319
59	0xbd13013a	-0.03588984
60	0x3d7a4d5c	0.061108932
61	0xbd61ad76	-0.055097066
62	0xbd15fb24	-0.03661646
63	0xba996498	-0.0011702953
64	0xb9c81e7d	-0.00038169688
65	0x3d6ed391	0.058307234
66	0x3d825a46	0.063648745
67	0x3c03b2d2	0.00803824
68	0x3d3a57e7	0.045493986
69	0xbdc5bf85	-0.0965567
70	0xbd8dff61	-0.06933475
71	0x3d8a128b	0.06741818
72	0xbca7ca37	-0.020482166
73	0xbd1dd582	-0.038533695
74	0xbce307e6	-0.027713727
75	0xbd110d00	-0.03541279
76	0x3cfe85b6	0.031069618
77	0x3db21438	0.08695263
78	0xbdd09254	-0.1018416
79	0xbdb64016	-0.08898942
80	0x3d1ac4d0	0.03778535
81	0x3d08e49d	0.033421148
82	0xbd20d3ad	-0.03926437
83	0xbd5c16a9	-0.053732548
84	0xbcfe7197	-0.031060023
85	0xbd889e49	-0.066708155
86	0x3d5d2843	0.053993475
87	0x3ca6976d	0.020335877
88	0xbc8d2aa0	-0.01723224
89	0x3d223a12	0.03960616
90	0xbacab6af	-0.0015465821
91	0xbbb7236f	-0.005588941
92	0xbd0048a8	-0.03131929
93	0x3d827d1f	0.06371521
94	0xbd848025	-0.06469754
95	0x3d9c6107	0.07635694
96	0x3c576efb	0.013149018
97	0x3b87aaf2	0.0041402513
98	0x3d1f498e	0.038888507
99	0x3d99d17b	0.07510658
100	0x3dab6fe9	0.083709545
101	0xbd5dbfaa	-0.054137863
102	0x3d01a954	0.031655625
103	0x3d861f1d	0.06548903
104	0xbd88e955	-0.066851296
105	0xbd837497	-0.06418722
106	0xbd23f053	-0.040024113
107	0x3da6e45b	0.08149024
108	0xbced2762	-0.028949443
109	0xbda13f8e	-0.0787345
110	0xbd3e5fa1	-0.046477918
111	0xbda57770	-0.080794215
112	0x3d8da08e	0.06915389
113	0xbd32c4ae	-0.0436446
114	0x3d782f37	0.060591903
115	0xbbd77c18	-0.0065760724
116	0xbd0dd59e	-0.03462755
117	0xbd2af883	-0.041740905
118	0x3d81c998	0.06337279
119	0x3cbb5eaa	0.022872288
120	0x3db622f9	0.08893389
121	0x3d8492b4	0.06473294
122	0xbbd0c111	-0.0063706716
123	0x3c430c7c	0.011904832
124	0x3d1f35d1	0.038869683
125	0x3d9d9002	0.07693483
126	0x3c2e3a52	0.010634022
127	0x3d5d49c5	0.05402543
128	0xbd82a3de	-0.063789114
129	0xbdf03eac	-0.11730704
130	0x3df3674c	0.11884937
131	0xbd8c631b	-0.0685484
132	0x3cb81f11	0.022475751
133	0xbd65dc17	-0.056118097
134	0x3d166a54	0.036722496
135	0xbc0c0786	-0.008546716
136	0x3d8501a4	0.064944535
137	0xbd0a2e80	-0.033735752
138	0x3d1e6bc4	0.038676992
139	0x3d1f78a7	0.038933422
140	0xbba57048	-0.0050487854
141	0x3db895f6	0.09012978
142	0xbd5f76d7	-0.054556694
143	0xbca6ff39	-0.020385372
144	0x3afd6cde	0.0019334813
145	0x3c4a06e6	0.012330746
146	0xbd62e25d	-0.055391658
147	0x3d1317ec	0.035911486
148	0xbcce2776	-0.0251653
149	0x3c3402d2	0.010987001
150	0x3d17125f	0.036882754
151	0x3cb26c4e	0.02178016
152	0x3cf6b63b	0.030116191
153	0xbdbce6e2	-0.09223725
154	0x3da786c1	0.08179999
155	0xbd8b5832	-0.06803931
156	0x3d76ca5f	0.06025159
157	0x3ccbf447	0.024896754
158	0x3dff5710	0.12467778
159	0xbcc35172	-0.023842547
160	0xbd803a74	-0.06261149
161	0xbde3e12f	-0.11126935
162	0x3b9ba11c	0.0047494303
163	0xbdba8b68	-0.09108621
164	0x3c57dc5f	0.013175099
165	0xbcb74918	-0.022373721
166	0xbde94f44	-0.11392072
167	0xbd80ee1e	-0.06295417
168	0xbcc7af14	-0.024375476
169	0x3c02808e	0.00796522
170	0x3dcb3680	0.099225044
171	0xbb5abd06	-0.0033376827
172	0x3de542ce	0.111943826
173	0xbd176700	-0.036963463
174	0xbd05c098	-0.032654375
175	0x3c76a117	0.015053055
176	0xbcb98040	-0.022644162
177	0xbd25d19c	-0.040483102
178	0x3d4fbf6b	0.05071966
179	0xbcc750fd	-0.02433061
180	0x3cc160e9	0.02360578
181	0xbcd5ba92	-0.02608994
182	0x3c69fe99	0.014281892
183	0xbdace1e0	-0.0844152
184	0xbda565ef	-0.08076083
185	0xbc2cc1f5	-0.01054429
186	0x3d424daf	0.047437366
187	0xbd1200ea	-0.035645403
188	0x3b582e3a	0.0032986538
189	0x3d85f9a7	0.06541758
190	0x3cb01629	0.021494942
191	0x3db64cbc	0.08901355
192	0xbc443e6a	-0.011977771
193	0x3cda99d3	0.026684677
194	0x3d1392ad	0.036028553
195	0x3d85a008	0.06524664
196	0x3d986ca3	0.07442596
197	0x3b65fd60	0.003509365
198	0xbd32ce01	-0.043653492
199	0x3d0cef1d	0.034407724
200	0xbc8e5645	-0.01737512
201	0xbc8ec36a	-0.017427165
202	0xbb2cfe61	-0.0026396739
203	0x3d403af0	0.046931207
204	0x3b61f5cb	0.003447878
205	0xbd78d2c7	-0.060747888
206	0xbd3df47f	-0.046375748
207	0xbd78a8d7	-0.060707893
208	0x3d205e3a	0.03915236
209	0xbd5356d6	-0.051596485
210	0xbce47ea7	-0.027892424
211	0xbcf53272	-0.02993128
212	0x3bf19b23	0.00737323
213	0xbcbc7524	-0.023005076
214	0xbd4e6263	-0.050386798
215	0x3988d5fb	0.0002609937
216	0xbd985fc3	-0.0744014
217	0x3df05eee	0.117368564
218	0xbcff88bd	-0.031193132
219	0xbc695c98	-0.0142432675
220	0xbb1bb232	-0.0023757336
221	0xbcad82e3	-0.021180576
222	0xbd6069f1	-0.054788534
223	0xbd3d0a07	-0.04615214
224	0xbaf46fde	-0.0018649062
225	0x3d3de34c	0.046359345
226	0x3c591029	0.013248482
227	0xbd03b4c3	-0.03215481
228	0x3dcd169b	0.10014077
229	0x3d19e7c7	0.037574556
230	0x3c720132	0.014770793
231	0xbdf48d57	-0.11941021
232	0xbd03eaa7	-0.032206204
233	0x3d20441c	0.039127454
234	0xbd8da95c	-0.06917068
235	0xbdb32538	-0.08747333
236	0xbce04a80	-0.027379274
237	0xbd8e2837	-0.06941264
238	0x3d19738f	0.03746372
239	0xbd0c4c2b	-0.034252327
240	0xbc754182	-0.014969232
241	0xbc1a795f	-0.009428351
242	0x3db94a7e	0.090474114
243	0x3da3c5d2	0.079967156
244	0xba830ec5	-0.0009998908
245	0x3d361ef8	0.044463128
246	0xbd144d83	-0.036206733
247	0xbda6e0f9	-0.08148379
248	0x3dc1b660	0.094586134
249	0x3d0d9f1d	0.03457557
250	0x3d413453	0.04716904
251	0xbd899caa	-0.067193344
252	0x3d9b626b	0.07587131
253	0xbdd88bee	-0.105735645
254	0xbca8b2ed	-0.020593131
255	0xbd242e64	-0.040083304

fc1.bias f4 [256]
0	0x3c030c94	0.007998604
1	0x3c722e1e	0.014781503
2	0xbd0ff16e	-0.035142355
3	0xbd51d83b	-0.051231604
4	0x3d1925da	0.037389614
5	0x3ce1a311	0.027543576
6	0x3d19f178	0.0375838
7	0xbd3e106a	-0.046402372
8	0xbcaeae0a	-0.021323223
9	0xbd14b493	-0.03630502
10	0x3d062a8c	0.03275542
11	0xbd26ac1b	-0.040691476
12	0xbd546487	-0.051853683
13	0xbc806ae1	-0.015675964
14	0xbd1cd8aa	-0.038292564
15	0xbd19bd0e	-0.037533812
16	0xbd0f18cb	-0.034935754
17	0x3d687307	0.056750324
18	0x3d454a6b	0.048166674
19	0xbd81cb32	-0.063375846
20	0x3cf8c078	0.030365214
21	0x3d09ec6f	0.033672746
22	0xbc84f246	-0.016228806
23	0xbd91077c	-0.07081506
24	0xbc090bd0	-0.008364633
25	0xbcc95078	-0.024574503
26	0x3d77fbe7	0.060542967
27	0xbc990172	-0.018677447
28	0x3d440eb3	0.04786558
29	0x3ca6b3f9	0.02034949
30	0x3d5ed41a	0.054401495
31	0x3c6fa58d	0.014626873
32	0x3c73e328	0.014885701
33	0xbc500431	-0.012696312
34	0x3aca65f7	0.0015441765
35	0xbd2e219c	-0.04251252
36	0x3ca254c1	0.019815804
37	0x3d0ef603	0.034902584
38	0x3cfbab31	0.030721279
39	0x3c91257e	0.017718073
40	0x3d60e86c	0.054909155
41	0x3c7225d7	0.0147795295
42	0xbcfe8b5e	-0.031072315
43	0x3d89e8a2	0.06733824
44	0x3cf27934	0.02959881
45	0xbb49716d	-0.0030737773
46	0x3a13bd83	0.00056358444
47	0x3d7a3a26	0.06109061
48	0x3c130bb1	0.008974955
49	0x3db9ca03	0.09071734
50	0xbd8263e5	-0.063667096
51	0xbba8122b	-0.005129119
52	0xbbb7db63	-0.0056108697
53	0x3d36b030	0.04460162
54	0xbbc54b4f	-0.0060209404
55	0xbd28aafa	-0.04117868
56	0x3d5a72be	0.053332083
57	0xbc1da2db	-0.009621347
58	0x3d6f8129	0.058472786
59	0xbd7dbb92	-0.06194646
60	0x3d99ed75	0.075159945
61	0x3d5f4cf7	0.05451676
62	0xbd527176	-0.051377736
63	0xbd815401	-0.063148506
64	0xbd84233d	-0.06452034
65	0xbc280f50	-0.010257557
66	0xbd6be3ce	-0.0575903
67	0x3d29118d	0.041276503
68	0x3cdeb61c	0.027186446
69	0xbd847536	-0.06467669
70	0x3c5d9c68	0.01352606
71	0xbc4d73b0	-0.012539789
72	0x3d030055	0.03198274
73	0x3dc09b44	0.094046146
74	0xbd1bd0c3	-0.038040888
75	0xbd806a4a	-0.06270273
76	0xbb307085	-0.0026922536
77	0xbd9b0e7a	-0.075711206
78	0x3d34bbab	0.044124287
79	0xbd90c55f	-0.070688955
80	0xbd3e51fe	-0.046464913
81	0xbbf85686	-0.007578674
82	0xbd1e74df	-0.038685676
83	0x3c9844ea	0.018587548
84	0x3d8da72a	0.0691665
85	0x3d68ba96	0.056818567
86	0xbd4fac4b	-0.05070142
87	0x3d8ab5c5	0.06772951
88	0xb97f123e	-0.00024325491
89	0xbcb36016	-0.021896403
90	0xbdb1d571	-0.08683289
91	0xbd3b754a	-0.045766152
92	0x3d180825	0.037117142
93	0xbcd049d8	-0.025425836
94	0x3d7b4542	0.061345346
95	0xbd0496ae	-0.03237026
96	0x3d79218f	0.06082302
97	0x3c6d837f	0.014496683
98	0xbd27e242	-0.04098726
99	0xbbe4e105	-0.006984832
100	0x3cd8f525	0.026484082
101	0x3da4865b	0.08033439
102	0x3d23e8cd	0.040016938
103	0xbc978163	-0.018494314
104	0xbca5550a	-0.020182151
105	0x3dcfdf59	0.10150022
106	0xbc6125af	-0.013741895
107	0xbcb20b19	-0.021733807
108	0xbbf1548d	-0.0073648156
109	0xb9842d25	-0.00025210637
110	0x3dbb532b	0.091467224
111	0x3da51f18	0.08062571
112	0x3d2613dc	0.040546283
113	0x3c4b5ab1	0.012411759
114	0xbc99ba69	-0.018765645
115	0x3d6ecd87	0.058301475
116	0x3d02940d	0.031879473
117	0x3d54a686	0.05191662
118	0x3d4ee373	0.05050988
119	0x3d911550	0.07084143
120	0xbd190b97	-0.03736457
121	0xbd0a1867	-0.03371468
122	0x3c0bfe79	0.008544558
123	0xbcad0d02	-0.021124367
124	0xbd0b8c02	-0.03406907
125	0x3d89295c	0.06697342
126	0x3cc61109	0.024178045
127	0xbda1ccac	-0.07900366
128	0x3db3d5b1	0.08780993
129	0x3c0f700e	0.008754743
130	0xbd9c0e54	-0.076199204
131	0xbd14a362	-0.036288626
132	0x3c9f4edd	0.019446785
133	0x3d9c9af8	0.076467454
134	0x3d2c3fea	0.04205314
135	0xbd830367	-0.06397133
136	0xbd568ccd	-0.05238037
137	0xbd3184fa	-0.043339707
138	0x3de4d815	0.11174027
139	0x3d2b3979	0.041802857
140	0x3d8f1450	0.06986296
141	0xbd186445	-0.037205
142	0x3d18e077	0.03732344
143	0x3caf8437	0.02142535
144	0xbd9c65da	-0.07636614
145	0xbd787f92	-0.060668536
146	0x3d8473f7	0.06467431
147	0x3d047237	0.032335486
148	0x3d96126b	0.07327732
149	0x3c897590	0.016779691
150	0x3d9e25e1	0.077220686
151	0x3d072bba	0.033000685
152	0x3c99da04	0.018780716
153	0x3d0e6d8f	0.034772452
154	0x3d4db6f6	0.050223313
155	0x3d43a889	0.04776815
156	0x3c217bbe	0.009856163
157	0xbd8c4266	-0.06848602
158	0xbbc2c954	-0.0059444103
159	0x3d8057ea	0.06266768
160	0x3ca99e16	0.020705264
161	0x3caa7720	0.020808756
162	0xbb38627c	-0.0028134873
163	0x3dd7d95f	0.10539507
164	0xbd929d02	-0.07158853
165	0xbd837ca6	-0.06420259
166	0xbb996a79	-0.004681882
167	0x3d9ab795	0.07554547
168	0xbd512595	-0.05106123
169	0x3cbde327	0.023179604
170	0xbd4e44f5	-0.05035873
171	0xbd5a1c30	-0.053249538
172	0x3cb78165	0.022400567
173	0xbd3482d6	-0.044070087
174	0x3b144a1a	0.0022627176
175	0xbcb94009	-0.022613542
176	0x3d8a0666	0.06739502
177	0x3c555c88	0.013022549
178	0xbd12427b	-0.035707932
179	0x3d4dc82c	0.050239727
180	0x3d4cdb7f	0.050014015
181	0x3d89b677	0.067242555
182	0xbd41e326	-0.047335766
183	0xbd427af0	-0.047480524
184	0x3d82b46d	0.0638207
185	0x3d53004f	0.051513966
186	0x3d81d945	0.06340269
187	0xbd007783	-0.031363975
188	0x3cecb4ef	0.02889487
189	0x3d547720	0.05187142
190	0xbc39b5df	-0.011334865
191	0xbcdb41b0	-0.02676472
192	0x3c3496f8	0.011022322
193	0x3c5ff506	0.013669258
194	0x3d386f6b	0.04502813
195	0x3d979f6c	0.07403454
196	0xbc0b7ce7	-0.008513666
197	0x3d4c2f4c	0.049849793
198	0x3cbf675f	0.02336472
199	0x3d34cc5a	0.044140197
200	0xbc70faa0	-0.014708191
201	0xbd2f0082	-0.042725094
202	0xbcee63d4	-0.029100336
203	0xbd501e88	-0.050810367
204	0xbb16e077	-0.0023021975
205	0x3d5deee4	0.054182902
206	0x3d88a648	0.06672341
207	0x3cb597a1	0.022167029
208	0xba878b6b	-0.0010341232
209	0x3ca58995	0.020207206
210	0x3d7f4331	0.062319938
211	0x3dfd511f	0.12368988
212	0x3b2dd60c	0.0026525287
213	0x3aaad9c0	0.0013034865
214	0xbd4f6188	-0.050630122
215	0xbd869b0b	-0.06572541
216	0xbc7bb2cd	-0.015362454
217	0xbd139282	-0.036028393
218	0x3dd03741	0.10166789
219	0x3ca1d28b	0.019753715
220	0x3db7af98	0.08969039
221	0x3d9650b7	0.07339614
222	0x3d5ebcc9	0.05437926
223	0x3c101837	0.008794836
224	0x3bb80390	0.005615659
225	0x3d2ce718	0.042212576
226	0x3cc6940c	0.024240516
227	0xbd002acf	-0.031290825
228	0x3d8b0dd3	0.06789746
229	0xbd43f38e	-0.047839694
230	0xbd9340a5	-0.07190064
231	0xbc48c73c	-0.012254532
232	0xbcfd1a03	-0.030896192
233	0x3ca69066	0.020332526
234	0x3d39ce09	0.045362506
235	0x3d32a9c6	0.04361894
236	0x3d876304	0.066106826
237	0x3daf1008	0.085479796
238	0xbd2642c3	-0.040591013
239	0x3cb4753a	0.022028554
240	0x3c53ca42	0.01292664
241	0x3d727a75	0.059198815
242	0x3d882bc6	0.06648974
243	0xbda7740a	-0.081764296
244	0xbd8c20db	-0.06842204
245	0x3d379bf1	0.04482645
246	0x3da0e7ad	0.07856689
247	0xbc806732	-0.015674207
248	0xbbb65e1d	-0.0055654184
249	0x3d4e6f9b	0.050399404
250	0xbd8ed490	-0.06974137
251	0x3bb46e27	0.0055062952
252	0x3d82db50	0.06389487
253	0xbd027ab3	-0.031855296
254	0xbc3b6f26	-0.011440074
255	0x3d6ebea0	0.058287263

fc2.weight f4 [256, 256]
0	0xbd7374cd	-0.05943756
1	0xbc06eb5f	-0.008234828
2	0xbd87ee25	-0.06637219
3	0xbd9c2138	-0.076235235
4	0x3d2d0353	0.0422395
5	0x3d65099c	0.055917367
6	0x3c4b0688	0.012391694
7	0xbd8a39bc	-0.06749293
8	0x3d01b35b	0.031665187
9	0xbd2009d8	-0.039071888
10	0x3de460b6	0.11151259
11	0xbd85abe7	-0.065269284
12	0xbc9ab139	-0.018883334
13	0x3dc37228	0.09543258
14	0xbcf33315	-0.029687444
15	0xbc0ff01e	-0.008785276
16	0xbc0fc43e	-0.008774815
17	0x3bb596ab	0.0055416427
18	0xbbe2de90	-0.006923504
19	0x3de4d721	0.11173845
20	0xbd4c5fda	-0.0498961
21	0xbdaad98d	-0.08342276
22	0x3d8cbe6b	0.06872257
23	0xbc6b866e	-0.014375312
24	0x3c8ac324	0.016938753
25	0xbb9a815b	-0.0047151274
26	0x3dab865e	0.08375238
27	0x3d096054	0.03353913
28	0xbd9a27a3	-0.07527091
29	0xbd2554c7	-0.040364053
30	0x3ba76c98	0.005109381
31	0x3da8c402	0.082405105
32	0x3b81e6dc	0.003964288
33	0x3cf66e64	0.030081935
34	0x3b0a4970	0.00211009
35	0xbcc4a4b0	-0.02400431
36	0x3c4c0a1d	0.012453583
37	0x3d3476d9	0.044058654
38	0xbcdf1bd7	-0.027234955
39	0xbd3ea195	-0.046540815
40	0xbc9cfc49	-0.019163268
41	0x3b9575c0	0.004561156
42	0x3cef2924	0.029194422
43	0x3d0f4993	0.034982275
44	0x3d95696f	0.072955005
45	0xbd33f4a0	-0.043934464
46	0x3d2a56ca	0.041586675
47	0x3d119c8b	0.03554968
48	0x3d9aef19	0.075651355
49	0x3c23ace0	0.009989947
50	0x3d766d15	0.060162622
51	0xbca279ce	-0.019833472
52	0x3c9e76c1	0.019343736
53	0x3d388d0e	0.045056395
54	0xbc39c5ba	-0.011338646
55	0xbccfb5b9	-0.025355207
56	0xbd3f0720	-0.046637654
57	0xbd00a1b9	-0.03140423
58	0x3d2e58c5	0.042565126
59	0xbc8bc725	-0.017062733
60	0x3c954266	0.018220138
61	0xbc784673	-0.015153515
62	0x3d8e515c	0.06949112
63	0x3dee5c03	0.116386436
64	0xbd23979c	-0.039939508
65	0xbe030235	-0.1279381
66	0x3cafe9a0	0.021473706
67	0xbda8d723	-0.08244159
68	0xbd8b6d50	-0.06807959
69	0x3b29d717	0.0025915557
70	0x3d85dd54	0.065363556
71	0x3c4742b0	0.012161896
72	0x3d9f42ad	0.07776389
73	0xbdd3e54d	-0.1034647
74	0xbb8e4757	-0.0043420005
75	0xbd134cff	-0.0359621
76	0xbc7eb94d	-0.015547109
77	0x3c765c07	0.0150365895
78	0x3dbee84b	0.0932165
79	0x3cdda8db	0.027058056
80	0xbd4889fb	-0.048959713
81	0xbd15e2f2	-0.036593385
82	0x3dccda3f	0.10002565
83	0x3d674d66	0.056470297
84	0x3c781688	0.015142091
85	0x3d15d4b0	0.036579788
86	0x3e1d5484	0.15364271
87	0xbcf350ef	-0.029701678
88	0x3e169846	0.14706525
89	0x3b8109d4	0.003937939
90	0x3d0b85c1	0.034063105
91	0xbc8f7103	-0.017509943
92	0xbc6ce512	-0.0144589115
93	0x3ce0ae8f	0.027426986
94	0xbc46205f	-0.012092679
95	0xbc41a862	-0.011819931
96	0x3cbcea65	0.023060987
97	0x3cdce9ac	0.026966892
98	0x3c033058	0.0080071315
99	0x3bf5525d	0.007486625
100	0xbd4d8b05	-0.050181407
101	0x3d79bf56	0.060973488
102	0x3cbd9f00	0.023147106
103	0xbd5e4682	-0.05426646
104	0x3db6b1b1	0.08920611
105	0x3cedf61e	0.029048022
106	0xbd55e4c3	-0.052220117
107	0x3b056459	0.0020354001
108	0x3d88ee69	0.06686098
109	0xbd5292a9	-0.051409397
110	0xbca33d10	-0.019926578
111	0xbc86fe4e	-0.016478684
112	0x3d83fd17	0.064447574
113	0xbd9c5956	-0.07634227
114	0xbcc6d802	-0.024272922
115	0x3d84868e	0.06470977
116	0x3cd1fca3	0.025633162
117	0x3ac08857	0.001468907
118	0xbc578759	-0.013154828
119	0xbb6766a9	-0.0035308993
120	0x3d1daa1f	0.03849232
121	0xbcece9c1	-0.028920056
122	0x3d6123d7	0.05496582
123	0x3d4dd190	0.050248682
124	0x3d590bff	0.052989956
125	0x3da315a5	0.07963113
126	0x3ba47abf	0.0050195153
127	0xbd8abe2b	-0.06774553
128	0xbc0ebda3	-0.008712205
129	0xbc71a180	-0.014747977
130	0x3cd0580d	0.02543261
131	0xbc8831ee	-0.01662537
132	0x3ce5b478	0.028040156
133	0xbcb9254e	-0.022600796
134	0x3c071e8f	0.008247032
135	0xbd58de7f	-0.052946564
136	0x3d51e4ae	0.051243477
137	0xbd452c6d	-0.04813807
138	0xbdad8081	-0.08471776
139	0x3df25569	0.11832697
140	0xbcc0233b	-0.0234543
141	0x3d905fc2	0.07049514
142	0x3bb5fe1b	0.0055539734
143	0xbb051629	-0.0020307398
144	0x3d947a11	0.07249845
145	0x3d81d3fa	0.063392594
146	0x3d8fcbe8	0.07021314
147	0x3db4e344	0.0883241
148	0x3ce9c6b3	0.02853713
149	0x3d041666	0.032247923
150	0x3db83ba7	0.08995753
151	0xbd534bd8	-0.051586002
152	0x3ae19826	0.0017211481
153	0x3c7cb0e7	0.015423036
154	0xbd20929e	-0.039202325
155	0xb96853a8	-0.00022156409
156	0x3bcdb9c2	0.0062782476
157	0xbac05a3a	-0.0014675327
158	0xbd688cd0	-0.056774914
159	0xbcf34462	-0.029695693
160	0xbcd9960b	-0.026560804
161	0xbd52c0f6	-0.051453553
162	0x39d26a73	0.00040133632
163	0x3cc7dc69	0.024397092
164	0x3d82b95c	0.06383011
165	0x3d3fb987	0.046807792
166	0x3d75f09a	0.06004391
167	0x3d567399	0.052356336
168	0xbd45b18d	-0.04826503
169	0xbbe30947	-0.006928596
170	0x3e06ae1c	0.13152355
171	0x3d829b3e	0.06377266
172	0xbbdfd2ab	-0.0068305335
173	0xbd2e9e73	-0.042631578
174	0xbd2b3d7b	-0.04180668
175	0x3cf26530	0.029589266
176	0xbc75f6e2	-0.015012475
177	0x3cb4b696	0.02205972
178	0x3c3361c7	0.010948605
179	0xbd9e4723	-0.07728412
180	0xbdc7bdf0	-0.097530246
181	0x3c739482	0.01486695
182	0x3b34b752	0.0027575088
183	0x3d927be9	0.0715254
184	0x3d94904a	0.072540835
185	0x3cd91b9b	0.026502421
186	0x3d3b26a1	0.045691136
187	0x3d07e988	0.033181697
188	0xbbed6f69	-0.007245947
189	0x3c9e4cc4	0.019323714
190	0xbda64683	-0.08118918
191	0x3d515fbb	0.051116686
192	0xbd9d2715	-0.0767347
193	0xbd889118	-0.066682994
194	0xbd23bc75	-0.03997465
195	0xbd16a7f8	-0.03678128
196	0x3d83dacd	0.06438217
197	0xbc44de12	-0.012015836
198	0xbcd06f61	-0.025443735
199	0xbc77dc08	-0.015128143
200	0xbd9ec97b	-0.07753273
201	0xbd7479c9	-0.059686456
202	0xbd15e317	-0.036593523
203	0x3d4edae7	0.05050173
204	0x3db1dbd0	0.08684504
205	0x3d9013c3	0.07035019
206	0x3cf140ce	0.029449847
207	0xbcd80684	-0.026370294
208	0x3d21ce2a	0.039503254
209	0x3cfa824f	0.030579714
210	0xbc56dfd7	-0.013114891
211	0x3d39c198	0.04535064
212	0x3d9a15fd	0.07523725
213	0xbd13ac6d	-0.03605311
214	0x3c9dbbc4	0.019254573
215	0x3ce4cd25	0.027929852
216	0xbc842400	-0.016130447
217	0x3d8a5858	0.067551315
218	0xbd402aae	-0.046915703
219	0xbda37307	-0.07980924
220	0xbd8c0b44	-0.06838086
221	0x3c8b5ecb	0.017012974
222	0x3b153605	0.0022767794
223	0x3e12357b	0.14278214
224	0x3cafb8ac	0.021450363
225	0x3d2a60fb	0.041596394
226	0x3d91ca4c	0.07118663
227	0x3cd34f1f	0.025794564
228	0xbc82b2ab	-0.015954336
229	0x3dbd58d4	0.09245458
230	0xbd934f4e	-0.071928605
231	0x3d710498	0.05884227
232	0xbb843ef2	-0.004035824
233	0x3b819ebb	0.0039556897
234	0xbd35c99a	-0.044381715
235	0xbdaed495	-0.085366406
236	0x3d2c05bf	0.041997667
237	0xbc14e170	-0.009086952
238	0xbd025935	-0.031823356
239	0x3cecb455	0.028894583
240	0x3d8fdfc9	0.070251055
241	0xbda9b6ca	-0.08286817
242	0xbcb614e1	-0.022226753
243	0x3dadb4d6	0.08481757
244	0xbd00b0f7	-0.031418767
245	0xbb9b7828	-0.0047445484
246	0xbd0e3671	-0.034719888
247	0xbc3c1447	-0.011479444
248	0xbd0329f9	-0.03202245
249	0xbd1d72ea	-0.03843967
250	0xbcaaa5d6	-0.02083103
251	0xbbb7541b	-0.005594743
252	0xbd26f220	-0.040758252
253	0x3de33703	0.11094477
254	0xbd24e7bc	-0.04026006
255	0xbc5dd1ff	-0.0135388365

fc2.bias f4 [256]
0	0x3d11084b	0.0354083
1	0xbcaf5d2c	-0.021406732
2	0x3d3e53ec	0.046466753
3	0x3d2038ee	0.039116792
4	0x3d2d9177	0.042375054
5	0x3d316703	0.04331113
6	0x3ca5e5cc	0.020251177
7	0x3d53e7b7	0.051734652
8	0xbcc9681f	-0.024585782
9	0x3d2ccc34	0.04218693
10	0xbd4958d4	-0.04915698
11	0x3aaddde4	0.0013264981
12	0x3d44d617	0.048055734
13	0x3c5cb29c	0.013470318
14	0xbc0e4ea9	-0.008685746
15	0x3d3c1791	0.045920912
16	0x3cde2a47	0.027119769
17	0x3ce88f05	0.02838851
18	0x3cde34f6	0.027124863
19	0xbcf11d57	-0.029432936
20	0x3d13799e	0.036004655
21	0x3d0e6e14	0.034772947
22	0x3d464b61	0.04841173
23	0xbc68c827	-0.014207876
24	0x3d629afd	0.05532359
25	0x3c3b1358	0.011418186
26	0xbd6eaca9	-0.05827013
27	0x3d0fce70	0.035108984
28	0xbd602412	-0.0547219
29	0x3d62dfbf	0.055389162
30	0x3d356f7e	0.04429578
31	0xbc2a09cd	-0.010378313
32	0xbb752ad2	-0.0037409556
33	0xbc036743	-0.008020225
34	0x3c8a2d67	0.016867353
35	0x3a11f675	0.0005568036
36	0x3d26406f	0.040588792
37	0x3c0dd564	0.008656833
38	0x3d9e174c	0.07719287
39	0x3ce0e168	0.027451232
40	0xbd4cf50e	-0.05003839
41	0xbb93a58e	-0.0045058196
42	0xbb849369	-0.004045893
43	0xbcbff61a	-0.02343278
44	0xbc08be17	-0.008346102
45	0xbd0f15d9	-0.034932945
46	0xbd699512	-0.05702693
47	0xbc3c8a59	-0.011507594
48	0xbbfe496e	-0.0077602183
49	0x3d21a0e9	0.039460097
50	0x3c82584c	0.015911244
51	0x3d48f1c3	0.049058687
52	0x3d07c320	0.03314507
53	0xbd23a5df	-0.03995311
54	0x3cef9824	0.029247351
55	0xbd4425f8	-0.047887772
56	0x39ee3b86	0.00045439246
57	0x3c8a8773	0.01691029
58	0x3b8443e6	0.0040364144
59	0xbd2b5196	-0.041825853
60	0xbb6bd77d	-0.0035986595
61	0xbce3695d	-0.027760202
62	0xbd50eb56	-0.051005684
63	0x3c85585c	0.016277485
64	0x3d722e71	0.05912632
65	0xbd67bba8	-0.056575447
66	0xbbc0e445	-0.005886587
67	0xbcde1ec2	-0.027114276
68	0xbd18099d	-0.037118543
69	0x3d474e23	0.0486585
70	0xbc8072f0	-0.015679806
71	0x3bcfd337	0.0063423174
72	0x3d74caec	0.059763834
73	0x3cd73bfa	0.026273716
74	0x3d24a6f8	0.040198296
75	0xbc4b2f4a	-0.012401411
76	0xbcd01f44	-0.025405534
77	0xbd171de1	-0.03689373
78	0xbd1ce650	-0.03830558
79	0x3cc3615f	0.023850141
80	0x3c20393f	0.0097792735
81	0xbc8144e3	-0.015779918
82	0xbd2c287c	-0.042030796
83	0xbc0989ed	-0.0083947005
84	0x3d7c52ac	0.06160228
85	0xbc5033eb	-0.012707691
86	0xbc705b9d	-0.01467028
87	0x3caf11d6	0.02137081
88	0xbc2e48b2	-0.010637449
89	0x3d1d8cc1	0.03846431
90	0xbd23327d	-0.03984307
91	0x3cba7982	0.022763018
92	0xbd07f725	-0.03319468
93	0xbd3687f2	-0.04456324
94	0xbc184b13	-0.009295243
95	0x3d2a4c59	0.041576717
96	0xbd09f1da	-0.033677913
97	0x3cbd7ac1	0.023129823
98	0x3b3c6f70	0.0028752945
99	0xbd021983	-0.03176261
100	0xbd0231ab	-0.03178565
101	0x3ca40eaf	0.020026533
102	0xbd4e5807	-0.05037692
103	0xbd27dadd	-0.04098021
104	0xbb6ca0f1	-0.003610667
105	0x3d513cf6	0.051083528
106	0xbd09395c	-0.033501968
107	0x3d1b953c	0.037984118
108	0x3b9b68e9	0.004742731
109	0xb9e7c24d	-0.0004420452
110	0xbbfd52b4	-0.0077308062
111	0xbd2cda22	-0.042200215
112	0x3d73951b	0.05946837
113	0x3d1ed6f7	0.038779225
114	0x3d573573	0.052541208
115	0xbd39f5d2	-0.04540045
116	0xbd053953	-0.03252537
117	0x3d042675	0.032263238
118	0xbb878492	-0.0041356767
119	0xbd5054eb	-0.050862234
120	0x3d9a1bac	0.07524809
121	0x3b7cab34	0.0038554193
122	0xbaca7494	-0.001544612
123	0xbd4cf8df	-0.05004203
124	0x3c0e4ac1	0.008684815
125	0x3d1bcfcf	0.03803998
126	0x3d5a9396	0.053363405
127	0xbce1d4e5	-0.027567336
128	0xbd4394e5	-0.04774942
129	0xbd645405	-0.05574419
130	0xbd8dedf3	-0.06930151
131	0xbc7df376	-0.01549994
132	0x3beb871a	0.007187736
133	0xbcb621b7	-0.022232873
134	0xbd22757d	-0.039662827
135	0xbcc52081	-0.02406335
136	0x39f98467	0.00047591628
137	0xbc836916	-0.01604132
138	0xbd159cb9	-0.036526415
139	0x3c98466f	0.018588273
140	0x3c8cc84d	0.017185355
141	0x3d8f200c	0.06988534
142	0x3b32cdce	0.0027283314
143	0x3d3ab905	0.045586605
144	0xbce74c6e	-0.028234687
145	0xbd0e5c19	-0.0347558
146	0x3cd78915	0.026310483
147	0xbca00ffd	-0.019538874
148	0xbbcf7361	-0.006330893
149	0x3d526cd9	0.051373336
150	0x3ba4a9e6	0.0050251363
151	0xbd83ea39	-0.06441159
152	0xbcb370a4	-0.021904297
153	0x3d89da1c	0.06731054
154	0x39655f84	0.00021874724
155	0xbc77760b	-0.015103827
156	0x3b90b840	0.0044164956
157	0xbd58a7af	-0.05289429
158	0x3c8b9a42	0.01704133
159	0xbcb2fa54	-0.021847881
160	0x3ce1bc70	0.027555674
161	0xbcc4f284	-0.024041422
162	0xbd0fd85d	-0.03511845
163	0x3c82a338	0.01594697
164	0x3d3d238c	0.04617648
165	0xbd27c6aa	-0.040960945
166	0x3cee9b4f	0.029126791
167	0xbc4262ef	-0.011864408
168	0x3c4a4296	0.012344977
169	0xbc5e4af7	-0.013567678
170	0xbd75ceaf	-0.060011562
171	0x3c98baf9	0.018643843
172	0x3c12d73a	0.008962447
173	0xbd70a1d1	-0.05874807
174	0xbc83fa4e	-0.016110566
175	0xba5251e9	-0.000802307
176	0x3cd036d5	0.025416771
177	0x3cfa5517	0.030558152
178	0x3bab787b	0.0052328683
179	0x3d3d2647	0.046179082
180	0x3aa07b2f	0.0012243743
181	0x3d541404	0.0517769
182	0xbb2e38f7	-0.0026584247
183	0x3d165531	0.03670234
184	0xbd61f722	-0.055167325
185	0x3d0b724d	0.034044553
186	0xbcc2ff4f	-0.023803381
187	0x3c2e36b3	0.0106331585
188	0xbd179a11	-0.037012164
189	0x3d48003b	0.048828345
190	0x3d334df3	0.04377551
191	0x3d212908	0.03934577
192	0x3d690595	0.05689009
193	0x3b645698	0.0034841653
194	0xbcc6dd9f	-0.024275599
195	0x3cf9d561	0.030497255
196	0x3cf0ab7e	0.029378649
197	0xbb43532b	-0.002980421
198	0x3c988cda	0.01862185
199	0x3d3c7815	0.046012957
200	0x3d6e79fb	0.0582218
201	0xbc1ef794	-0.009702582
202	0xbd631d2b	-0.05544774
203	0xbd63d17d	-0.055619705
204	0x3d29de18	0.04147157
205	0x3d847908	0.064683974
206	0x3c1b9750	0.009496525
207	0xbd3d918f	-0.046281394
208	0x3c8a48c9	0.01688041
209	0x3c427c3e	0.011870442
210	0xbb3ca0b0	-0.00287823
211	0x3db701b0	0.08935869
212	0xbd41602d	-0.04721086
213	0xbd470e3d	-0.048597563
214	0xbd4d57e5	-0.05013265
215	0xbd0b06ec	-0.033942148
216	0xbd86b79b	-0.06577989
217	0x3d4d2e1f	0.050092813
218	0xbbd01f0c	-0.0063513573
219	0x3c42049f	0.011841922
220	0x3abc2e8d	0.0014357135
221	0x3db53d75	0.088496126
222	0x3d44b13c	0.048020586
223	0x3cde7d80	0.027159452
224	0x3d69dea2	0.057097085
225	0xbc2cdfab	-0.0105513735
226	0xbcc56b60	-0.024099052
227	0xbcd873df	-0.02642244
228	0xbc991204	-0.018685348
229	0x3cb15a2e	0.021649446
230	0xbafb76ca	-0.0019185182
231	0x3c8dc884	0.017307527
232	0x3d1928a1	0.037392262
233	0x3d5bbc3c	0.05364631
234	0xbd561175	-0.052262742
235	0xbd832117	-0.06402796
236	0xbcf6810e	-0.030090835
237	0xbd7dcc86	-0.061962627
238	0xbc1c4763	-0.009538504
239	0x3dc4d0bf	0.09610128
240	0x3bfc9de8	0.0077092536
241	0xbc78b8ee	-0.015180809
242	0xbd4eff4c	-0.05053644
243	0x3d5e6c91	0.054302756
244	0xbd216d49	-0.039410863
245	0xbd88d0e0	-0.06680465
246	0xbd348e45	-0.04408099
247	0x3ca8435d	0.020539934
248	0x3d97f749	0.07420213
249	0x3c6de7b4	0.014520574
250	0xbcfdc965	-0.030979821
251	0x3cd1c5d4	0.025607027
252	0xbcd03229	-0.025414543
253	0x3d2edae5	0.042689223
254	0xbd4d657d	-0.050145615
255	0xbcbc745d	-0.023004705

logits.weight f4 [5, 256]
0	0x3d5e14a6	0.05421891
1	0x3cb0d04f	0.021583704
2	0x3ce64c59	0.028112577
3	0xbd5324f0	-0.0515489
4	0x3b2ae57d	0.0026076727
5	0xbbcc4a95	-0.006234477
6	0x3d9e5abd	0.07732151
7	0xbd0ff13e	-0.035142176
8	0xbd81fa60	-0.06346583
9	0xbe01cfc4	-0.12676913
10	0x3d977672	0.073956385
11	0x3d04c6e5	0.032416243
12	0x3cade1d7	0.021225853
13	0x3d183264	0.03715743
14	0xbd2a6410	-0.041599333
15	0xbd42d2ed	-0.047564436
16	0x3d83efaf	0.064422004
17	0xbdba19c6	-0.09086947
18	0xbd665df6	-0.056241952
19	0xbd050f58	-0.032485336
20	0xbcbe9b4c	-0.02326741
21	0x3d918f18	0.07107371
22	0x3cc9b481	0.024622204
23	0x3d0ec113	0.0348521
24	0x3d5ba9d9	0.053628776
25	0xbe19aed7	-0.15008102
26	0xbd2f62be	-0.042818777
27	0x3d91f5c0	0.07126951
28	0xbc8b829a	-0.01703005
29	0x3d818eb3	0.06326046
30	0x3de8ed0c	0.11373338
31	0x3db28911	0.087175496
32	0x3c21119d	0.0098308595
33	0xbe0a15e1	-0.13484909
34	0x3d0bdf17	0.034148302
35	0x3db3902a	0.087677315
36	0x3d73343f	0.059375998
37	0x3d6adc2c	0.05733888
38	0xbd342170	-0.0439772
39	0x3bf3d59c	0.0074412357
40	0x3b385cff	0.0028131602
41	0xbd08167a	-0.03322456
42	0x3d8dfcb6	0.069329664
43	0xbccefaa7	-0.025266005
44	0xbdbaca96	-0.091206715
45	0x3dde830b	0.10864838
46	0xbcf627a6	-0.030048203
47	0xbc02cf8c	-0.007984053
48	0xbd91e18b	-0.07123097
49	0xbe18e79f	-0.14932106
50	0x3d1fae45	0.038984556
51	0xbd3fad64	-0.046796218
52	0xbdc3fd2d	-0.09569774
53	0xbd34ad26	-0.04411044
54	0x3cc08f04	0.023505695
55	0xbd59d072	-0.053177305
56	0x3d6891e0	0.056779742
57	0xbcddc162	-0.027069751
58	0x3d83a16b	0.064272724
59	0x3d349b39	0.044093344
60	0x3d90a38d	0.07062445
61	0xbdea83cd	-0.1145092
62	0xbd5a987f	-0.053368088
63	0xbc980367	-0.01855631
64	0xbd7be1b1	-0.061494533
65	0xbd31c89f	-0.043404218
66	0x3db0d39d	0.08634112
67	0x3d0e8ddd	0.03480326
68	0x3d0a3ca1	0.033749226
69	0x3c104bfc	0.008807179
70	0xbd2473e5	-0.04014959
71	0xbdb4d8b4	-0.08830395
72	0x3ba1ffce	0.0049438244
73	0xbd2ff32e	-0.042956524
74	0xbd4f0eff	-0.05055141
75	0xbd23fd64	-0.040036574
76	0x3deb800b	0.11499032
77	0xbd2a9e5d	-0.041654933
78	0x3d80676b	0.062697254
79	0x3d41b859	0.04729495
80	0x3d282c2b	0.041057747
81	0x3b52b785	0.0032152843
82	0x3c86d1eb	0.016457519
83	0x3c825f67	0.015914632
84	0x3dd3d1b7	0.10342734
85	0xbcf3fd0a	-0.029783744
86	0x3d12002e	0.035644703
87	0x3d67aa61	0.05655897
88	0x3b13e1a1	0.0022564905
89	0xbbfcf72b	-0.0077198944
90	0x3d364fcf	0.044509705
91	0x3d3da14d	0.046296407
92	0xbb84d963	-0.004054235
93	0xbc82414f	-0.015900282
94	0xbc9245b9	-0.017855512
95	0xbc24798a	-0.010038743
96	0x3d8df99f	0.06932377
97	0xbc9110cd	-0.017708207
98	0xbdbbae9c	-0.091641635
99	0x3e30b85e	0.1725783
100	0xbdad61cd	-0.0846592
101	0x3d6c2c95	0.057659704
102	0xbd0e872a	-0.03479687
103	0x3d88dd4e	0.066828355
104	0xbd7e31f8	-0.062059373
105	0xbd10ac71	-0.035320703
106	0x3dd65cd0	0.10466921
107	0xbd5aa817	-0.05338296
108	0x3cdb0069	0.026733594
109	0x3d3112fb	0.04323099
110	0x3dc803a0	0.097663164
111	0xbd07b959	-0.033135746
112	0xbde71502	-0.11283304
113	0xbd9697aa	-0.073531464
114	0x3cf786d2	0.030215655
115	0x3d89a7d5	0.067214645
116	0xbd6e1b9d	-0.058131803
117	0x3d1ab86b	0.03777353
118	0xba75e510	-0.0009380141
119	0x3c3474b5	0.011014153
120	0xbcff98d1	-0.031200798
121	0x3d01ba42	0.03167177
122	0x3d42b8f2	0.04753966
123	0x3ba43c6e	0.0050120866
124	0x3d39db48	0.04537514
125	0xbcf4ee01	-0.029898645
126	0x3d70927d	0.058733452
127	0xbc1618c5	-0.009161179
128	0x3d8684d0	0.06568301
129	0x3c6e36f5	0.01453947
130	0xbcebcf0e	-0.028785255
131	0xbcf10c42	-0.02942479
132	0xbd1ba2b2	-0.037996955
133	0xbd4d966d	-0.050192285
134	0xbd27b9cb	-0.04094867
135	0x3dd26cdb	0.10274669
136	0x3b610920	0.0034337714
137	0xbd1e4e79	-0.038649056
138	0xbd652ad2	-0.05594904
139	0xbc3d1229	-0.011539974
140	0xbca47be0	-0.0200786
141	0x3deae4c2	0.11469413
142	0x3ccd6bed	0.025075877
143	0x3d8fbffc	0.0701904
144	0xbd91d644	-0.07120946
145	0x3db2fc55	0.08739535
146	0xbe31dcf7	-0.17369448
147	0x3d52f626	0.051504277
148	0xbd53dd10	-0.051724494
149	0xbbe94b86	-0.007119599
150	0x3d6756e9	0.05647937
151	0xbbe7b76b	-0.0070714257
152	0xbd26195b	-0.040551525
153	0xbdaac70d	-0.08338747
154	0xbda50d66	-0.08059196
155	0x3cc9abe2	0.024618093
156	0xbcb0d946	-0.021587979
157	0xbceb86e8	-0.028750852
158	0xbde8a9d7	-0.113605194
159	0xbd41d50f	-0.04732233
160	0xbc8665af	-0.016405908
161	0x3d3e9219	0.04652605
162	0xbd027453	-0.031849217
163	0xbcf38357	-0.029725714
164	0x3c760b6b	0.015017371
165	0x3a8357a3	0.0010020625
166	0x3d434f6a	0.047683157
167	0x3dcf50ca	0.10122831
168	0x3d39ba3b	0.04534362
169	0x3d8a93b4	0.067664534
170	0x3beead1f	0.0072838212
171	0xbd34e706	-0.044165634
172	0xbdde8188	-0.1086455
173	0x3d4021af	0.046907123
174	0x3dad19a6	0.08452158
175	0x3de42117	0.11139124
176	0xbd25333e	-0.04033207
177	0xbc96c229	-0.01840313
178	0xbd4d53b9	-0.050128672
179	0xbd572b2f	-0.052531417
180	0x3cdf204c	0.02723708
181	0x3d3a67cd	0.04550915
182	0x3c6abd01	0.014327289
183	0x3d8fe33b	0.07025763
184	0xbcc35927	-0.023846222
185	0x3d9d1555	0.076700844
186	0xb81f7c5d	-3.8024376e-05
187	0x3d4095e7	0.047017958
188	0x3c57b56c	0.013165813
189	0xbd5209f9	-0.051279042
190	0xbd8a90bd	-0.06765888
191	0x3ca10b53	0.01965872
192	0xbd70e0bd	-0.058808077
193	0x3cc273c7	0.023736848
194	0xbd566417	-0.052341547
195	0xbe3c181c	-0.18368572
196	0xbd9568b1	-0.07295359
197	0x3da3dd7f	0.080012314
198	0x3c322b67	0.010874606
199	0x3da073cd	0.07834587
200	0x3d33b142	0.043870218
201	0xbc64e108	-0.013969667
202	0x3e00d3bd	0.12580772
203	0xbd3570b2	-0.044296928
204	0xbe224507	-0.15846644
205	0xbdd968ad	-0.106156684
206	0x3d3f8c27	0.04676452
207	0xbd5efb39	-0.054438803
208	0x3c8169e7	0.015797568
209	0x3dcf4d51	0.10122169
210	0x3d9cd394	0.07657543
211	0xbde17cbb	-0.110101186
212	0xbd185ae1	-0.037196044
213	0xbd4efc73	-0.050533723
214	0xbdeb549b	-0.114907466
215	0x3d8b9a8a	0.06816585
216	0xbd44f0cd	-0.048081208
217	0x3d62d7d5	0.055381615
218	0xbbe850bb	-0.007089702
219	0x3dbd3d19	0.09240169
220	0xbd59d1f2	-0.053178735
221	0xbda1da8f	-0.07903015
222	0x3d8fe31b	0.07025739
223	0xbd52cfce	-0.05146771
224	0xbd81fb8a	-0.063468054
225	0x3d0bdc11	0.03414542
226	0x3deae05d	0.11468575
227	0x3c696dcf	0.014247372
228	0xbd80ae7e	-0.06283282
229	0x3d4c1ce1	0.04983223
230	0x3d012cbf	0.031536814
231	0xbcb469d4	-0.022023119
232	0xbd86977d	-0.06571863
233	0x3dcb1ed3	0.09917989
234	0xbc23b69a	-0.009992266
235	0xbd23f5d2	-0.040029354
236	0x3da3e6db	0.080030166
237	0xbd50fe4d	-0.05102377
238	0xbc59e649	-0.013299533
239	0xbde3ad52	-0.111170426
240	0xbd1ac194	-0.037782267
241	0x3de513da	0.11185427
242	0x3d059da5	0.032621045
243	0xbdc7b31f	-0.097509615
244	0x3c936cdb	0.017996242
245	0xbd4b540d	-0.049640704
246	0xbd15bce0	-0.03655708
247	0xbbcd294d	-0.006261027
248	0xbd2cc497	-0.04217967
249	0x3d958d5b	0.07302352
250	0xbd404e66	-0.046949767
251	0x3dc79c05	0.09746555
252	0xbd398b91	-0.045299117
253	0xbd2af5be	-0.041738264
254	0x3d196ac8	0.03745535
255	0x3bedd59c	0.0072581302

logits.bias f4 [5]
0	0xbcdb9270	-0.026803225
1	0xbcf18199	-0.029480742
2	0x3d5ec8b2	0.054390617
3	0x3d3d3919	0.04619703
4	0x3d08506b	0.033279818
