policy_squad2.pt (torch, 422941 bytes, 6 tensors)

fc1.weight f4 [256, 142]
00000000: 0790 3fbe 58b8 75bd d789 63be ed74 783d
00000010: ae88 4bbe dabe 31bd 5801 363e af00 58bc
00000020: b4f2 c83d d1e6 a43c 949f 463e 24d9 65be
00000030: 020f 23bd dae1 793e 73ab 57bc 925b b7bd
00000040: ade4 6d3d 141f 3ebe e139 2fbe 9f1b 243e
00000050: 76d7 ea3d b5a9 36be cd49 ba3d 5f5a 833e
00000060: 5c79 65be 5348 2cbd 8543 183d 8a22 efbd
00000070: d622 133d 4fbe 823e e3f4 7cbd 1cb6 bf3d
00000080: 0f2d 913d 7dff 7fbd 6dac 793d 9996 4ebe
00000090: 14fb dbbd baa2 363e ca33 adbc 5975 03be
000000a0: 2efa 933b d6a6 c0bd 1778 073d 1165 0bbe
000000b0: 8247 0abe 5ef2 153e 3392 1cbe 23a9 ca3d
000000c0: 5d36 99bd fa06 14bd 71c9 cc3d 0592 9ebd
000000d0: 4bcd 8fbc a587 8b3c c681 ba3c 6d9a 5c3e
000000e0: cc40 143e 4988 0d3e aae2 123e 9099 c83c
000000f0: 9e5f eabd da32 b03d ec23 4fbe 1dad b13d
00000100: 1fdb 473d 35d4 47be 5395 763c 8cd1 0f3d
00000110: ec50 433d 66b0 7c3c 51bb 403d d88a 0c3e
00000120: 4eb1 03be 5196 1a3d ffa5 bbbd 4078 80be
00000130: f715 463e 583f f3bc c93e 473e dbcb ab3b
00000140: 1da3 f13d 9bee 703d 5a9e 083e 6977 85be
00000150: 2375 bcbd 44be a5bd d702 15be 7fac f63c
00000160: 2a87 3e3d a14b f4bc 28ab 363e ec4f 693c
00000170: 5907 f03d b3d1 26bc b671 263d 1913 9bbc
00000180: 347a 073e 6ec6 c83d 761a 8c3e f6d9 98bd
00000190: d2f5 a63d 6f56 103e bc51 92bd 86fa 813d
000001a0: 92b8 ce3d 3b34 8abd 8f6f 9abe 6f4f e43d
000001b0: 72d0 d7bd 9e60 15be 2889 193e e707 923d
000001c0: c945 6bbd d807 cc3d 4cf7 583e fec0 8bbc
000001d0: bac3 2e3e 5946 4fbd 94c3 583d 44b4 9fbd
000001e0: 2606 503e 2207 043e 6570 f2bc 1d78 d5bd
000001f0: 99c3 61bd b98a 28be 2515 a13d b034 9ebe
00000200: 2ace 483f 276c 4c3f c1d8 f33e 8b9d 3e3f
00000210: ce43 153f e57d 1a3f b269 383f 0229 b63d
00000220: aa1d 2d3f 0d1e 3d3f fdcf 3c3f 1161 323f
00000230: 232f 503f a5fd 493f 0852 38be 13c4 f6bd
00000240: d770 a1be 4fd4 ea3d 33cb 2bbd 21bf 2dbe
00000250: c5c7 853e f24b 7d3d 464d 093e 968a 6dbd
00000260: c2b4 6e3d 9926 813d cdfd 663d dc85 3e3e
00000270: 85fe 33be b7d8 1b3c e848 da3d 0a30 a2bd
00000280: c7c2 9ebe 6e20 edbc 29e9 113e 5c39 5fbe
00000290: d1cd 683d ac86 993e 9b23 54be bec6 dcbb
000002a0: b626 c7bd 6633 38be 8fd3 133b 3cbf 803c
000002b0: b3a9 2fbd d1f3 053e 5a67 e43d 58e4 443d
000002c0: 5bd8 13bb d729 82be 14c0 27bb cc83 87bd
000002d0: 54c0 4cbd 5315 023e d4ef 873b 65ad 823c
000002e0: 1c19 0e3e 8e27 ee3c 86e7 dbbd 0ec3 8f3e
000002f0: 2b9b 82ba 2947 653e f42e 5ebe ee13 eabd
00000300: d6f9 2f3e 9d76 bcbb 21af 9b3d 4a1b 703e
00000310: 45c9 b8bd 537c 073e 45e1 803e 80da acbd
00000320: fccc 143e df8e 4f3c 8121 98be f40c 803c
00000330: 7fde eabc a18b a3bd 8018 8cbd 0a7d 2fbe
00000340: adfd ae3d 9f70 25be 5546 f23d 4395 0e3d
00000350: caea 2ebe cb36 6d3e 0374 b1bd 46b1 413e
00000360: c103 0bbe 63a1 6cbe 01b4 2f3d 6909 a1bc
00000370: cc66 6a3d 1c43 2bbe ee44 b73d 0e51 9abd
00000380: 9968 023e ca9d a2be 7f02 5abd d0ea 873c
00000390: 9c4a e1bd 77ee 20be 0920 c93c 400f 013e
000003a0: 84d8 dc3c 618c a43d 23d5 433e d862 1ebd
000003b0: dae3 f1bd c9be df3c af9c a93d 27fa c63c
000003c0: 61d9 173e 45cc 30bd 8aac 25be be34 52bc
000003d0: 3c46 3bbe 3031 61bd 7d89 273e a15c f4bd
000003e0: ecae c6be c8f5 f03d 19d3 96be e9e6 18be
000003f0: 75eb 693e c069 f4bd 9132 893d 4a6f 393e
-0.18707286 -0.059990257 -0.2222055 0.060658384 -0.19876358 -0.0433949 0.1777395 -0.013183757
0.09811917 0.020129593 0.19396812 -0.22446114 -0.039809234 0.24402562 -0.013163435 -0.089530125
0.05807941 -0.18566543 -0.17111923 0.16026162 0.11466877 -0.17838176 0.09096108 0.25654885
-0.22409576 -0.04206116 0.037173767 -0.1167651 0.035921894 0.2553582 -0.06175698 0.093609065
0.07088672 -0.062499512 0.060955454 -0.20174636 -0.10741249 0.17835513 -0.021142859 -0.12837733
0.0045159077 -0.094068214 0.03307351 -0.13612773 -0.1350384 0.14643237 -0.15290146 0.098955415
-0.07481072 -0.036139466 0.099993594 -0.07742695 -0.017553946 0.017032454 0.022766959 0.21543284
0.14477843 0.1382152 0.14344278 0.024487287 -0.11444019 0.08603449 -0.20228547 0.08675597
0.048792955 -0.19514544 0.01505025 0.03511195 0.047684595 0.015422916 0.04705364 0.1372484
-0.12860605 0.03774101 -0.091625206 -0.25091743 0.19344316 -0.02969329 0.19457544 0.0052428073
0.117986895 0.058821302 0.13341656 -0.26067665 -0.092020296 -0.08092931 -0.14551865 0.03011155
0.04651562 -0.029821219 0.17838728 0.014240246 0.117201515 -0.010181832 0.040635787 -0.018930005
0.1323021 0.098034725 0.27363938 -0.07463448 0.08152355 0.14095472 -0.07144496 0.06346612
0.10093798 -0.067482434 -0.30163237 0.11147963 -0.10537805 -0.14587638 0.14993727 0.071304135
-0.0574396 0.099624336 0.21188086 -0.0170598 0.17066851 -0.050604198 0.052920893 -0.07798055
0.20314845 0.12893346 -0.02959461 -0.104233004 -0.055118177 -0.16459168 0.07865361 -0.30899572
0.7843958 0.7985253 0.47626308 0.7445914 0.58306587 0.6034835 0.7203628 0.0889454
0.6762339 0.7387398 0.73754865 0.6967936 0.81321925 0.78902656 -0.18000042 -0.12049117
-0.31531402 0.11466276 -0.041941833 -0.16967441 0.26128975 0.061840005 0.13408384 -0.057993494
0.058277853 0.0630619 0.056394387 0.18605751 -0.1757756 0.009512118 0.10658437 -0.07919319
-0.31007978 -0.028946128 0.142491 -0.21799225 0.056836907 0.2998556 -0.20716707 -0.006737559
-0.097241804 -0.17988357 0.0022556519 0.015716188 -0.042886447 0.1308129 0.11152525 0.048069328
-0.0022559378 -0.25422546 -0.0025596665 -0.06616935 -0.049988106 0.12703447 0.004148463 0.015951822
0.13876766 0.029071596 -0.10737519 0.28078502 -0.0009964457 0.22390427 -0.21697599 -0.114295825
0.17185149 -0.0057514445 0.076017626 0.2344791 -0.09022764 0.1323102 0.25171867 -0.08440113
0.1453132 0.0126683405 -0.2971306 0.015631177 -0.028670548 -0.079856165 -0.068406105 -0.17137542
0.085444786 -0.16156243 0.11829821 0.034810316 -0.17081752 0.23165433 -0.086647056 0.1891528
-0.13575651 -0.23108439 0.042896274 -0.019657807 0.05722694 -0.16724819 0.08948694 -0.07534991
0.12735213 -0.31761009 -0.053225037 0.01659146 -0.11000559 -0.15715967 0.024551408 0.12603474
0.026958711 0.08034588 0.19124274 -0.038668483 -0.11811037 0.027312653 0.08281838 0.024289204
0.14829017 -0.043163557 -0.161791 -0.0128299575 -0.18288511 -0.05497855 0.16361041 -0.1193173
-0.3880533 0.11765629 -0.2945793 -0.14931835 0.22843726 -0.11934233 0.06699098 0.1810886

fc1.bias f4 [256]
00000000: 3f94 4d3f 67fb 523f d27b 4c3f bb92 443f
00000010: 2751 553f cb93 373f c840 513f 02be 513f
00000020: 7acc 3c3f ece8 4f3f 317c 423f d45f 443f
00000030: f4c2 453f c2e8 4c3f 241f 383f ce2d 443f
00000040: 145d 3d3f daf6 453f 5173 423f 34dd 3c3f
00000050: 2f76 4c3f fcce 543f 9e08 383f c197 3e3f
00000060: 438a 463f 722c 483f 430d 483f 04bf 483f
00000070: cd72 323f ffd1 493f 7585 463f d146 3b3f
00000080: 8f7e 323f 4454 443f 21d8 493f edd2 503f
00000090: 13d3 363f 9925 443f c3af 393f 886c 343f
000000a0: 9f36 3a3f 10b1 503f c5f5 373f da04 333f
000000b0: 081f 393f 9daa 333f 2618 463f 0637 3b3f
000000c0: ffb8 3a3f 0b1e 403f b39e 543f 2e6d 563f
000000d0: 824f 433f 1efc 3b3f d69b 503f a752 513f
000000e0: 2235 353f 561d 3e3f 3893 473f 04fd 483f
000000f0: 2f6a 423f 4a95 363f 6e89 403f 9888 3d3f
00000100: 0827 343f e528 443f 0272 4a3f 21e6 363f
00000110: b448 3c3f c9f9 373f 23fd 553f cb26 413f
00000120: c25e 3b3f b3a5 443f 9d9d 413f 89d7 2f3f
00000130: 962e 463f b6b6 3f3f 643b 3f3f f94a 4e3f
00000140: edbb 433f 76c2 543f e539 523f 5ccc 353f
00000150: ca1b 3b3f 2dff 2d3f 0660 373f cad7 503f
00000160: 2be1 573f 7d5d 4f3f 91af 3b3f 97f2 453f
00000170: 90f6 513f 2098 403f 1622 323f 77a9 3c3f
00000180: 9e92 4c3f 91e0 433f a04b 4f3f bdbd 563f
00000190: e4a0 563f ca1d 423f 2d14 583f e189 303f
000001a0: 24a8 3b3f d6a5 333f 5765 473f ddbb 4e3f
000001b0: a886 393f a877 493f 8ae7 533f 39c5 583f
000001c0: a9ef 4f3f c358 493f 14d8 473f cd60 463f
000001d0: 5970 373f c1fa 373f 9dba 503f c137 553f
000001e0: e3c3 513f c365 473f af71 3c3f 89c7 453f
000001f0: 4485 493f 4e08 493f 3f4f 3c3f 099c 4c3f
00000200: bd0d 473f bb56 3f3f 7736 593f 9fab 423f
00000210: 8f6c 563f 9031 4f3f 6713 353f 86ff 3b3f
00000220: 42fc 3f3f 750c 453f ff8c 2f3f 1156 483f
00000230: e633 5a3f 085b 343f 70ed 4f3f 1ee8 583f
00000240: 4623 4d3f e2a4 3d3f 1a24 3c3f b59a 3a3f
00000250: 31de 4d3f 83ff 2f3f 234a 533f 344a 3e3f
00000260: e6ce 363f 220c 423f 5f02 413f 5baa 403f
00000270: 8180 463f aa90 2e3f e18c 3b3f dfaa 593f
00000280: 1b36 4c3f 6048 503f 57d3 3d3f e3cf 433f
00000290: b9d8 3a3f 7684 3d3f a956 413f 06d5 363f
000002a0: 678e 3d3f 223c 583f d414 3e3f 8d21 3b3f
000002b0: 3090 4f3f 7721 443f 28d0 513f a9b4 3f3f
000002c0: 597b 323f 6991 2c3f 5945 3c3f fc7f 503f
000002d0: cf34 373f 571f 573f ee33 483f f08e 3d3f
000002e0: a060 373f ed6f 453f 1843 313f ba56 443f
000002f0: 7a36 413f 6b48 523f 1d92 4f3f 1e03 533f
00000300: b7f1 513f 5e40 493f 9203 3c3f 8c31 3c3f
00000310: 33d1 2d3f 371c 403f a52a 443f e580 443f
00000320: 9a32 3e3f 0537 473f ed7f 393f e22d 343f
00000330: d669 4d3f ae71 403f 937c 533f 845f 2e3f
00000340: 6a18 313f af2a 553f dcf3 393f ac23 3b3f
00000350: d047 2e3f 4cfb 493f a37c 373f c7cc 303f
00000360: f2de 443f 26f8 353f 04f7 393f 5e8e 3e3f
00000370: e437 473f 9a48 2f3f 7cf7 343f b6ae 3a3f
00000380: dda3 3d3f 2bce 403f 9859 333f 911f 3c3f
00000390: 85a1 523f a345 3f3f 195e 543f 56e1 313f
000003a0: cedf 493f aff8 3f3f dfc0 533f 7f34 423f
000003b0: cf72 563f c88c 573f f172 443f dae0 553f
000003c0: 29b9 4b3f 53d6 4d3f 333e 583f 81d6 4a3f
000003d0: 75c6 463f b1f5 553f 5688 503f 9d09 413f
000003e0: d389 443f 5e74 3b3f c597 443f 3c5c 3f3f
000003f0: 4a8c 423f 58bb 483f 6b67 373f 5845 323f
0.8030433 0.8241486 0.79876435 0.7678639 0.83326954 0.7170989 0.81739473 0.81930554
0.73749506 0.81214786 0.7597075 0.7670872 0.772506 0.8004266 0.71922517 0.7663239
0.7397015 0.7732979 0.7595721 0.7377503 0.79867834 0.83128333 0.7188815 0.7445031
0.7755472 0.7819282 0.78145236 0.78416467 0.6970642 0.78836054 0.7754739 0.7315493
0.69724363 0.7669108 0.7884541 0.8157185 0.71415824 0.7661987 0.72533816 0.70478106
0.72739595 0.81520176 0.7185939 0.6992928 0.72312975 0.7018221 0.773806 0.73130834
0.7293853 0.7504584 0.83054656 0.83760345 0.76293194 0.73431575 0.81487787 0.8176674
0.707842 0.74263513 0.77959013 0.7851107 0.75943273 0.7132155 0.752097 0.7403655
0.70372057 0.766249 0.7908021 0.714449 0.73548436 0.71865517 0.8358938 0.7544982
0.73191464 0.76815337 0.75631124 0.68688256 0.77414834 0.7488817 0.747 0.8058315
0.76458627 0.83109224 0.8211959 0.7101495 0.7308928 0.6796749 0.71630895 0.8157927
0.84327954 0.81002027 0.7331477 0.7732329 0.8201685 0.75232124 0.6958326 0.7369608
0.7991122 0.76514536 0.8097477 0.8388327 0.8383925 0.75826705 0.84405786 0.68960387
0.7330344 0.7017492 0.7788901 0.80755407 0.72471094 0.78698206 0.82775176 0.8467594
0.8122507 0.78651065 0.78064084 0.77491456 0.71655804 0.71866995 0.8153475 0.832882
0.81939524 0.7788965 0.7361097 0.7725759 0.7871897 0.78528297 0.7355842 0.7992559
0.7775534 0.74741715 0.8484873 0.76043123 0.837594 0.80935 0.7073273 0.7343677
0.7499429 0.7697213 0.6857452 0.78256327 0.8523544 0.704514 0.81221676 0.8472918
0.8013195 0.74079716 0.73492587 0.72892314 0.8041716 0.68749255 0.82535 0.74331975
0.7140945 0.75799763 0.75394243 0.7525994 0.7753983 0.6818949 0.7326184 0.85026354
0.7977006 0.81360435 0.74150604 0.76489085 0.7298694 0.74030244 0.7552286 0.714188
0.74045414 0.84466755 0.7425053 0.7309807 0.8107939 0.76613563 0.81958246 0.7488504
0.69719464 0.6740938 0.73543316 0.8144529 0.71564955 0.84032196 0.7820424 0.7404623
0.71631813 0.7712391 0.69243 0.76694834 0.7547375 0.8214175 0.81082326 0.8242663
0.8200945 0.7861384 0.7344295 0.735131 0.6789734 0.7504305 0.7662757 0.7675918
0.7429596 0.7781833 0.72460824 0.7038251 0.8023962 0.7517346 0.8261196 0.68114495
0.6917788 0.83268255 0.72637725 0.73101306 0.6807833 0.78899074 0.71674556 0.69062465
0.7690269 0.7108177 0.7264254 0.74435985 0.7781966 0.68470156 0.7069013 0.7292284
0.7407816 0.7531459 0.70058584 0.73485667 0.8227771 0.7471563 0.8295608 0.6948446
0.78857124 0.74988836 0.8271617 0.7586135 0.83768934 0.8419919 0.76737887 0.8354622
0.79579407 0.8040516 0.8446991 0.79233557 0.7764657 0.8357802 0.8145803 0.75405294
0.76772803 0.7322444 0.7679408 0.74750113 0.75995314 0.78410864 0.7164218 0.6963706

fc2.weight f4 [256, 256]
00000000: a2df 25bd 87d2 4dbb f65e 5a3d f682 4b3c
00000010: 5ae5 60bc 75e5 aabc c32f 9b3c d13c 8ebc
00000020: 7bca 373d 4cc8 2e3d a75e 73bc 1009 393d
00000030: effa af3c 4112 1abd 1d03 50bd 812d 67bd
00000040: 76e6 2c3b fb84 dabc 98c2 963c 0f5d 5cbc
00000050: eb3c 89bd 3d5c 0fbd 8656 a5bc 3eed 8d3c
00000060: 38ae f2bb ce57 d5bc b93f a5bc 55e7 033d
00000070: bb26 343d 6093 103d 8dbc 053d a8f0 9f39
00000080: 9335 31bd b526 ab3c d7f8 75ba eb98 553c
00000090: 404e 433d 7d1d 1bbb 6444 c13b 069f 73bd
000000a0: e338 0b3c 7426 2c3d 1ebc 83bd c8fd 453d
000000b0: 1c47 f1bc 514f 5ebd c006 fe3b 063f c43c
000000c0: 16de e43c c1ca 87bc a74d b0bc ef5f 153d
000000d0: b1e5 30bd 06b3 f53c 5618 583d 1ffb cebb
000000e0: 5f1a 1dbd c5c0 b3bc 279b b73b e7dd adbc
000000f0: 44a5 0d3c 47bc 063d 2650 b4bc 7900 6cbb
00000100: 79d9 2cbc 8793 67bd 157b 31bc 2ada 6ebc
00000110: 174d 30bd c153 873c 5531 67bd eff8 783b
00000120: a6b5 c93b 7b94 86bd 9039 04bc 1e1b 983b
00000130: 300c 7ebd 6544 be3c a129 8dbd a370 7abd
00000140: 0549 203c a42e d2bb 1125 27bd 1d42 593d
00000150: 899d 5dbd 9306 e4bb 8394 573c 822b 673c
00000160: 6611 c0bb d9c0 7a3b 2cb6 26bd 8ee7 08bd
00000170: 37a1 453d 8802 dcbc 863d d13b a6cb 1bbd
00000180: 2531 3bbd 4829 b93c 3f0c 86bc 3456 86bb
00000190: db50 cf3c 2611 f53c d688 28bc 78aa a0bc
000001a0: 31d3 02bd c5c7 2f3d a8c7 473d 04ca 63bd
000001b0: 3f60 dcbc 7722 54bd ab04 f13c 91f3 36bd
000001c0: 9952 7f3b 7e4e 5f3d 5abe 533d b0a7 46bd
000001d0: 9d47 72bc 9d7b 20bd eebe 49bc 4f01 513d
000001e0: 535f b33c 2531 3c3d a023 81bd bce1 8fba
000001f0: 856a 003c 235b 88bc 0778 64bd 6751 093d
00000200: 1c9d b83c 5247 8ebd 40f4 3fbd a672 2ebd
00000210: 391d 08bc 8aa3 643c d315 6b3c e829 f93b
00000220: 241a fdbc 5be0 08bd f9b9 b3bb 2be9 64bd
00000230: 006d 3ebc 9069 28bd a29a 40ba 8594 d1bc
00000240: 32db ebbc 5429 e93c b45a 253d 2e5d 293d
00000250: 2223 5bbc ec35 3abd c664 f53c 6ee7 7bbc
00000260: 489b c2bc 40aa 8a3c 352c fb3a 47a4 7bbd
00000270: 6441 35bd da0a 383d 836d 543d dce6 b03c
00000280: 22c0 0ebd 182d 53ba 7911 99bc d75f 6bbd
00000290: d6e9 6ebd 6094 e0bc 9358 5abd 6d96 a83b
000002a0: d556 563d 2331 d5bc 7748 2c3d 1bbd 0cbd
000002b0: e8bb 683c a986 d93c 3450 93bc ba9d 9ebc
000002c0: 3c16 a7bc 6969 333d 6c32 48bc af7d 0b3c
000002d0: 120b 61bc 4938 c23c e7e8 3f3d 1141 a8bc
000002e0: e6c7 fbbc 4fb1 1a3d 6e67 143d a24f 93bd
000002f0: c4e1 c83c 3a4c 38bc 7969 033d 586e 263d
00000300: 27d9 cc3b 7cc1 553b f683 6a3c 4ccb 7cbc
00000310: 7a92 213d 35cd 7bbd 1d10 cc3b ecec 92bc
00000320: a459 e53c 38b0 4c3c 2a97 21bc 87f2 14bd
00000330: 5a98 cf3c f7c7 c4bc f4e5 ba3c ec88 febb
00000340: c490 c2bb 25f5 d8ba 3a97 443d 2c0c 9e3a
00000350: 2e6c b03c 9b0c 313d 5825 323b b0a8 9dbd
00000360: f5ab 76bd 3a26 63bc e306 c2b9 33eb 98bc
00000370: b1ac 7f3c b208 71bd 65ff df3b 81f0 063d
00000380: 9eef 3cbc 3baa 313d 5fa2 8ebd 463d 533b
00000390: 7601 573d 996d 2c3a 1635 5cbd 84d6 34bc
000003a0: cc5b 24bd 4922 39bd 1966 2fbb f663 75bd
000003b0: 1046 47bc 0c4f cd3c 3a30 93bd 4de0 21bd
000003c0: 4544 fcbc d298 2bbc df16 23bd 20da 0e3b
000003d0: 6260 04bd 4ad4 373d 1968 ee3c ed42 8a3b
000003e0: ba9c 6e3d 8117 683c 3af8 413d 808b 2cbd
000003f0: 89be 06bd 7997 94bd 5b1c 41bb 3999 e3bc
-0.040496476 -0.0031406002 0.053313218 0.01242136 -0.013726557 -0.020861367 0.018943673 -0.017362984
0.044870835 0.042671487 -0.01485411 0.04517466 0.02148196 -0.037615065 -0.05078422 -0.05643988
0.0026382483 -0.026674738 0.018403336 -0.013449921 -0.06701072 -0.035000075 -0.02018286 0.01732504
-0.0074060224 -0.026042845 -0.020171987 0.032203037 0.04398225 0.035296798 0.03265052 0.00030506146
-0.043263983 0.02089248 -0.00093830883 0.013036947 0.047682047 -0.00236687 0.0058980454 -0.05947783
0.00849745 0.04202886 -0.06432365 0.048337728 -0.029452853 -0.05427486 0.0077522695 0.023955833
0.02793793 -0.016576173 -0.021521403 0.036468443 -0.0431878 0.029992592 0.052757584 -0.006316557
-0.038355228 -0.021942506 0.0056032124 -0.021223975 0.008645359 0.0328944 -0.022010874 -0.0036011024
-0.010549896 -0.056537177 -0.010832568 -0.014578382 -0.04304227 0.01651943 -0.05644353 0.0037990173
0.0061556874 -0.06571289 -0.008070365 0.0046419045 -0.06202334 0.023225972 -0.06892706 -0.061142575
0.009783034 -0.0064142514 -0.040806834 0.053041566 -0.054105315 -0.0069587915 0.013157967 0.014109494
-0.005861449 0.0038261919 -0.040701076 -0.033423953 0.04824945 -0.026856676 0.006385508 -0.03803601
-0.045701165 0.022602692 -0.016363261 -0.0040996317 0.02530711 0.029915404 -0.0102865305 -0.019612536
-0.03193969 0.042915124 0.04877439 -0.05561258 -0.026901362 -0.05179068 0.029421171 -0.044665877
0.0038959144 0.054518215 0.051695205 -0.048499763 -0.014787582 -0.039180387 -0.012313588 0.05102664
0.02189604 0.045945305 -0.06305623 -0.0010977308 0.007837896 -0.01664502 -0.05577853 0.033524897
0.022535853 -0.06947197 -0.046863794 -0.042589806 -0.0083077485 0.013955006 0.014348465 0.0076038726
-0.030896254 -0.033417087 -0.005484816 -0.05588643 -0.011622667 -0.041116297 -0.0007347261 -0.025583515
-0.028791044 0.02846209 0.040369704 0.04134863 -0.0133750755 -0.04546158 0.02995528 -0.015375001
-0.023755684 0.016926885 0.0019162955 -0.061435964 -0.044251814 0.044932224 0.05186225 0.021594457
-0.0348512 -0.0008055731 -0.01868509 -0.057464447 -0.058328472 -0.0274145 -0.053307127 0.0051448853
0.052328903 -0.026024407 0.042061295 -0.034360033 0.014204957 0.026553469 -0.01798258 -0.01936232
-0.020396344 0.0438017 -0.012219053 0.008513852 -0.0137355495 0.02370848 0.046852972 -0.020538839
-0.030734967 0.03776675 0.03623145 -0.07192923 0.024521716 -0.011248643 0.03208301 0.040632576
0.0062514725 0.0032616546 0.0143136885 -0.015429329 0.03944633 -0.061474998 0.006227507 -0.017935239
0.027996846 0.012493186 -0.0098627005 -0.036364105 0.025341202 -0.024021132 0.022814728 -0.007767787
-0.0059376676 -0.0016552551 0.047995783 0.0012058071 0.02153596 0.043224912 0.0027182903 -0.0769819
-0.060222585 -0.013864094 -0.00037007694 -0.01866684 0.015605138 -0.058846183 0.0068358653 0.032944206
-0.011531739 0.043375235 -0.069645636 0.0032232567 0.052491628 0.00065776106 -0.053761564 -0.011037473
-0.040126607 -0.045198712 -0.0026763736 -0.059909783 -0.0121627 0.025062107 -0.07186933 -0.03952055
-0.030794272 -0.010473447 -0.039816733 0.0021797493 -0.03231848 0.04488019 0.029102372 0.004219404
0.058254935 0.01416576 0.047355868 -0.042125225 -0.032896552 -0.072554536 -0.0029466364 -0.027783023

fc2.bias f4 [256]
00000000: c10a 72bd 3d39 163f 5e13 213f 7f81 ed3a
00000010: 9463 2a3f e8cd 2a3f 297b 60bd 28f9 2d3f
00000020: fef9 1c3f 3073 283f 2f0f 313d ebf4 7f3b
00000030: 2296 2d3f 905d 66bd 31f9 db3c f608 1d3f
00000040: 04ab 223f f61d 2a3f d03f 81bd d900 163f
00000050: 8b75 133f 3621 223f 458f 27bd a2ee 093d
00000060: 962a 213f 973e 383f b3e0 143f 7ba3 f7bc
00000070: 8db5 18bd 7c79 283f d590 c1bc f42a 1d3f
00000080: e684 193f 0e95 41bc 4d53 283f 463e 1bbd
00000090: e1df 153f b6ea 1d3f 4a8b 293f 667b 2e3f
000000a0: e033 333f 2fe5 1f3f fa7f 213f fc90 043d
000000b0: ac4f 283f 64aa 213f be14 85bd f31c 163f
000000c0: 3893 14bd 210d 063d 07f0 54bc cdbc 243f
000000d0: 8ded 2a3f d17f 83bd 8a9c 6ebd cdca 273f
000000e0: f5cd 153f 0bce 2e3f 5fb3 1f3b 68ae 043c
000000f0: 95bf 41bd 96bf 283f 98a8 1a3f 12a4 53bc
00000100: a257 f13b 8bed 183f df75 1c3f 8011 1f3f
00000110: 349b b13c 5df1 2e3f c7d9 283f 147b 1e3f
00000120: 062d b7bb c4b3 dabb 8eb1 47bd 3fc9 1a3f
00000130: 320f 173f c8a7 233f 640c 323f 6c58 2d3f
00000140: 5f25 083d ab51 213f 1f08 0d3c 4b0a 183f
00000150: 81d3 ae3c ff08 c5bc bf0a 263f ed9d 323f
00000160: 1242 81bd b49f 413d 75a3 213f a815 683c
00000170: 933a 233f 1bec 773c 1de6 273d 95f4 babc
00000180: bd0b cd3c d71c 8cbc 43d8 8cbd 2c64 8fbc
00000190: 3fcd 283b 195a 6bbd c549 6fbc 02e4 213f
000001a0: 3a51 273f 6a4f 44bb b51b 1f3f b2f1 213f
000001b0: 91ca 193f a43d 353f bfb0 2e3f f1cd 1ebd
000001c0: 7dfd 16bd 5b9b 133f e107 79bd 03a0 1c3f
000001d0: 4cfb 65bd 8948 1b3f 3771 2b3f 701d 153f
000001e0: f808 1a3f 4116 2c3f 1d95 1a3f d23f 183f
000001f0: 2b8a 3bbd 0de5 223f 867a aabc fe04 f43c
00000200: 0d05 2a3f 6204 113f 9f0f 343f 01db 8ebc
00000210: ae73 183f bc97 d5bc 42e5 303f 775c 173f
00000220: 3986 923c e383 8e3c 9aa8 bdbc 9423 6dbd
00000230: baad 223f 821d 1a3f 235d 2a3f 2c23 eabb
00000240: e3fb 293f 86a0 1f3f 6bca 143f ab05 2a3f
00000250: a2b2 1b3f 3b08 1a3f 8698 1b3f 8f19 233f
00000260: 1779 183f 7457 2d3f 2efd 3a3a b6f8 3bbc
00000270: b73d 983c 912c dc3c 3295 9cbc 3147 2e3f
00000280: fc40 113b 4f2b 193f 5a13 83bd 7400 c1bb
00000290: f112 a2bc fd3b 113f 6ec1 283f 3b21 1b3f
000002a0: 4a28 143f 4c85 263f ad98 133f 9a2c 1c3f
000002b0: 1883 1c3f bdb1 53bc a473 143f 18fa 173f
000002c0: 4a77 53bc 4d1a 183f 5860 a03c 5b22 203f
000002d0: 3103 303f 58cd 3f3d bfe6 86bd 4c64 2e3f
000002e0: 8098 163d 609c 44bd babc b239 b116 273f
000002f0: 7893 263f e0bc 2f3d 6d34 263f 3e45 b23c
00000300: 9977 103f 92f2 273f 81da 143f 17e5 213f
00000310: 3ad5 283f 8931 203f aac3 e73c 37bf ecbc
00000320: 526d 1a3f b106 2c3f 2b7d 313f 692c 5abd
00000330: c155 563c 2c78 233f f532 153f 3d7c 213f
00000340: 0905 143f f1d4 133f 8e3f 1f3f 4fb7 143f
00000350: 0720 2b3f 7eb6 163f f0c2 183f b105 173f
00000360: 0fad 1e3f 4fc2 76bd 1baa 223f 595b 383c
00000370: 24a1 87bc d4f3 1c3d e209 1d3f 1231 1e3f
00000380: 1c78 2a3f a891 173f 6b3b 1f3f 7a56 913b
00000390: af99 2abd 6388 333f 4677 8dbd 278c cdbc
000003a0: e0ab 223f 60a6 163d a484 203f e405 103f
000003b0: 639e 263f 4208 2a3f cdab 2c3f 6e70 5cbd
000003c0: ec81 2a3f 76b6 3e3c e23f 1a3f 7b9f 313f
000003d0: c28d 173f 6389 293f 0422 91bd 8051 233f
000003e0: e23f 1a3f cd00 193f 35ac 143f 722f 233f
000003f0: 2f9e 2d3f bea3 123d bc5f ebbc db3b 183f
-0.059092287 0.5868109 0.62920177 0.0018120258 0.66558194 0.6672044 -0.054804955 0.6795831
0.6131896 0.6580076 0.04322737 0.0039055895 0.6780721 -0.056241572 0.026852222 0.613418
0.635422 0.66451967 -0.063109994 0.58595043 0.5760123 0.63331926 -0.040908117 0.033674844
0.62955606 0.71970505 0.58155364 -0.03022932 -0.037282515 0.6581037 -0.023628632 0.61393666
0.5996841 -0.011815323 0.65752107 -0.037901185 0.5854474 0.61686265 0.66228163 0.6815704
0.7000103 0.6245908 0.630859 0.03236483 0.6574657 0.6315062 -0.06498097 0.58637923
-0.03627321 0.032727364 -0.01299668 0.6435059 0.66768724 -0.064208634 -0.058254756 0.65543824
0.5851739 0.68283147 0.0024368388 0.008098222 -0.047301847 0.65917337 0.60413504 -0.012917535
0.007365183 0.5973746 0.61117357 0.6213608 0.021680452 0.6833704 0.659573 0.6190655
-0.005590084 -0.0066742618 -0.048753314 0.6046333 0.5900756 0.6392789 0.69550157 0.67713046
0.033238765 0.6301524 0.008607893 0.59390706 0.021341087 -0.024052141 0.6486015 0.69772226
-0.0631143 0.047271445 0.6314004 0.0141653195 0.6376125 0.0151319755 0.040990938 -0.022821704
0.025030011 -0.017103596 -0.06877186 -0.01750382 0.0025757102 -0.05745897 -0.01460499 0.6323854
0.65358317 -0.002995456 0.6215165 0.6325942 0.60074717 0.7079718 0.68238443 -0.03877062
-0.03686284 0.5765893 -0.06079853 0.6118166 -0.05614786 0.60657555 0.6696963 0.58248043
0.60169935 0.67221457 0.6038378 0.5947238 -0.045786064 0.63630754 -0.020810377 0.029787537
0.66413957 0.5664731 0.70336336 -0.017438414 0.59551513 -0.02607333 0.6909982 0.59125465
0.017886268 0.017396873 -0.023151685 -0.057895258 0.63546336 0.60201275 0.66548365 -0.007145306
0.66399974 0.62354314 0.58121365 0.664149 0.6081945 0.6016881 0.6077961 0.63710874
0.5955977 0.6771157 0.00071330636 -0.0114728715 0.018584115 0.02687672 -0.01911411 0.6807738
0.0022163978 0.5983171 -0.064001754 -0.0058899466 -0.019784423 0.5673216 0.6592015 0.6059758
0.57873976 0.65047145 0.5765484 0.61005557 0.61137533 -0.012920794 0.57988954 0.5936599
-0.012906859 0.5941513 0.01957719 0.6255242 0.6875487 0.04682669 -0.0658698 0.6812179
0.03676653 -0.048000693 0.00034091418 0.65269 0.6506877 0.042904735 0.64923745 0.021761533
0.5643249 0.6560451 0.5814591 0.6324019 0.6595036 0.62575585 0.028291542 -0.028899772
0.6032306 0.6719771 0.69331616 -0.05326501 0.013081969 0.6385524 0.5828088 0.630802
0.57820183 0.577468 0.6220635 0.58092207 0.66845745 0.5887221 0.5967245 0.5899306
0.61982816 -0.0602439 0.6354081 0.011252248 -0.01655633 0.03831847 0.61343205 0.61793625
0.6658952 0.5920663 0.6220004 0.0044353576 -0.04165047 0.70129985 -0.06907515 -0.025091244
0.6354351 0.03677976 0.62702394 0.5625899 0.6508543 0.6641885 0.6744965 -0.05381816
0.66604495 0.011640182 0.6025373 0.6938397 0.5920068 0.6622526 -0.07086566 0.63796234
0.6025373 0.59766847 0.5807527 0.6374427 0.67819494 0.035800688 -0.028732173 0.5946633

logits.weight f4 [10, 256]
00000000: 81c1 fc3c 9791 1cbf 0180 0ebf 5ef2 083d
00000010: 35a7 1cbf c8ba 21bf 1b01 453d 8ce6 1bbf
00000020: 1875 1cbf 978e 07bf 007e b0bc 2bb2 26bd
00000030: 2e38 09bf 76b7 34bd 095a 04bc 3add 03bf
00000040: 123d 10bf 8f40 22bf 5108 203c 4064 14bf
00000050: 9b91 20bf 1598 1abf ad45 aabc 6b20 623c
00000060: 7e1b 0fbf a69b 03bf 962d 23bf dfec 383c
00000070: fe74 a4bc b686 17bf 48fe aabc 8f97 1ebf
00000080: 805f 25bf da7e ab3b c50a 0fbf edc0 693d
00000090: 10a5 07bf 9758 06bf 5cfb 1fbf b297 1abf
000000a0: de4b 1cbf 629c 10bf af8a 1cbf ad37 6a3b
000000b0: ccad 23bf 4f69 1bbf fb25 56bc f165 1fbf
000000c0: 40f9 813d e45e 1dbc 961c 99bc ff05 18bf
000000d0: a432 08bf d8cc d1b9 a3cc 293d 15ed 0cbf
000000e0: c911 16bf f563 18bf 96fc c93b e824 853d
000000f0: c8ab 243c 1ed8 09bf 68c0 22bf cfc8 e03c
00000100: 689a 363b 6105 0dbf 076f 0cbf b264 05bf
00000110: 4631 eebc 4871 07bf 1145 19bf 4ac7 1dbf
00000120: e5d4 613d 6439 5f3b 5896 09bd 7fb3 0bbf
00000130: 19b8 0bbf 929f 03bf b27f 08bf b871 0dbf
00000140: f85d 5f3d 645d 1bbf 5ea7 d0bb 14bc 03bf
00000150: 05c3 bd3b a05c 873c 8295 0cbf 2300 0ebf
00000160: a335 9dbc 8f24 5dbb ed71 05bf ea1c c3bc
00000170: b77f 0ebf 427d 263c 91b4 b5bb 1827 263d
00000180: fbef 0cbd 4d0a 05bd 8cf8 8abc 92ea 30bd
00000190: fb1c 163c f139 fdbc f41b 9e3b 8c50 03bf
000001a0: b9f6 17bf db49 48bb dd68 0ebf 0a41 06bf
000001b0: cf05 20bf dfda 15bf 7cce 17bf 7e8f 00bd
000001c0: a5ce 2ebd ad1c 14bf d30e 3cbd 3449 07bf
000001d0: bc19 59bb a445 06bf 0f6b 09bf 15d7 0cbf
000001e0: 0dbf 0abf 3cfa 14bf a607 24bf b42d 17bf
000001f0: 4f39 f7bc 336d 1abf 3b03 09bd f912 28bc
00000200: a298 13bf 60f0 12bf 9d27 0fbf 8759 0cbd
00000210: db97 15bf c0a6 12bd 65d7 11bf 5201 05bf
00000220: 6886 8dbc 8577 4b3d 95a4 873d 4d7c 8d3d
00000230: 7cc1 1bbf cc4a 09bf 1e61 0fbf 828d 8f3c
00000240: 4815 05bf 2984 11bf c39d 16bf 7238 1abf
00000250: f916 0ebf 8f77 21bf c96c 10bf a335 09bf
00000260: 8398 19bf 4b03 06bf 2c2e b6bc 1c96 2a3d
00000270: 429f 243c d996 033d 27b9 0fbd e9f0 16bf
00000280: db99 503d 04ff 0bbf 6543 1e3c 1d3c b5bc
00000290: 9fbf bdbc c94b 0ebf 277c 26bf 4c52 06bf
000002a0: 198a 1fbf 939c 17bf 34ef 25bf 7e10 0dbf
000002b0: 6bfd 06bf 90ca 06bd 383b 25bf 6c21 1dbf
000002c0: 22a0 4abd 988b 07bf d1d8 a43d a4bb 0abf
000002d0: fb78 16bf 9004 193d dc3e 0cbd c3e9 07bf
000002e0: 0507 25bd c052 5abc 714e 153d b8d9 07bf
000002f0: 1408 11bf ff86 64bc 805d 20bf ffde af3d
00000300: 42d4 05bf 233b 1cbf 9d1a 0cbf 29f7 0ebf
00000310: 5d3b 14bf 36cb 20bf 8337 793d d33a c53c
00000320: a38b 05bf dd6c 09bf cf5b 10bf 16bd 16bc
00000330: 602a 5a3d e097 14bf 0bc3 13bf 7f83 21bf
00000340: 0acc 05bf 3284 21bf abb2 15bf 2065 1cbf
00000350: 4e44 07bf 5891 08bf 2d3c 0ebf 420e 23bf
00000360: 8b87 0dbf bfe3 f9bc a0cf 0dbf 6675 87bc
00000370: 5902 823d 4ab0 dc3b 53b3 18bf 6217 08bf
00000380: d965 07bf 764c 07bf ee32 15bf 4f95 ffbb
00000390: 5455 163d 288c 1abf 8d5d 063d 961e bebc
000003a0: 86b5 1fbf abc1 27bb cd9d 1cbf 490e 0cbf
000003b0: 073c 20bf 0c5d 14bf bf01 16bf 7771 343d
000003c0: 7eca 10bf ae06 3a3d 8ae8 09bf 7897 08bf
000003d0: a376 15bf 68a8 22bf 4bc5 9ebb 13e9 07bf
000003e0: 1dfd 1bbf 1aa6 07bf 58d6 1bbf a3b2 15bf
000003f0: 449c 0fbf 7e53 a63d c1da d4bc 8114 0bbf
0.030853989 -0.6115965 -0.5566407 0.033434264 -0.6119264 -0.6317563 0.048096757 -0.6089866
-0.6111617 -0.5295195 -0.021544456 -0.040697258 -0.5360135 -0.044120274 -0.008078107 -0.5150944
-0.56343186 -0.6337976 0.009767608 -0.5796547 -0.62722176 -0.6038831 -0.020785177 0.013801674
-0.55901325 -0.51409376 -0.63741434 0.011286943 -0.020075317 -0.5918993 -0.020873204 -0.6195001
-0.64598846 0.0052336277 -0.5587581 0.057068754 -0.5298624 -0.5247893 -0.6249292 -0.6038772
-0.61053264 -0.5648862 -0.61149114 0.0035738752 -0.6393707 -0.60707563 -0.013070579 -0.62264925
0.06346369 -0.009605143 -0.018690389 -0.5938415 -0.5320227 -0.00040016207 0.041454922 -0.5504926
-0.5862089 -0.5952752 0.006164144 0.0650118 0.0100507215 -0.53845394 -0.6357484 0.027439503
0.002786303 -0.5508633 -0.54856914 -0.52106774 -0.02907623 -0.5290723 -0.5987101 -0.61632216
0.055134673 0.0034061307 -0.033590645 -0.54570764 -0.54577786 -0.5141536 -0.5331985 -0.55251646
0.054532975 -0.6068938 -0.006367608 -0.5145886 0.0057910704 0.01652366 -0.5491563 -0.5546896
-0.019190615 -0.0033743714 -0.5212696 -0.023817498 -0.5566363 0.0101617 -0.005545207 0.040564626
-0.03440855 -0.032480527 -0.01696422 -0.043192454 0.009162183 -0.030911418 0.0048251096 -0.5129478
-0.59360844 -0.00305616 -0.5562876 -0.5244299 -0.62508863 -0.58537096 -0.59299445 -0.031386845
-0.04267754 -0.57856256 -0.045912575 -0.52846074 -0.003312691 -0.52450013 -0.53678983 -0.5501569
-0.5419777 -0.5819433 -0.6407417 -0.5905411 -0.030178694 -0.60322875 -0.033450346 -0.01025843
-0.57654774 -0.57398033 -0.5591982 -0.034265067 -0.5843484 -0.035803556 -0.5696929 -0.5195514
-0.017276004 0.04967453 0.066231884 0.06908474 -0.6084211 -0.53629756 -0.56007564 0.01752353
-0.519856 -0.56842285 -0.58834475 -0.6024238 -0.55503803 -0.63073057 -0.5641599 -0.5359747
-0.5999834 -0.52348775 -0.022238813 0.04164706 0.010047736 0.03212628 -0.035088684 -0.5896135
0.050927978 -0.54686 0.009659623 -0.02212339 -0.023162661 -0.5558439 -0.6503319 -0.52469325
-0.62320095 -0.5922329 -0.6481812 -0.5510329 -0.52730435 -0.032908022 -0.64543486 -0.6137912
-0.04946912 -0.5294738 0.08049167 -0.54192567 -0.5877835 0.037357867 -0.034239635 -0.5309107
-0.040289897 -0.013325393 0.03645176 -0.5306659 -0.5665295 -0.013948201 -0.6264267 0.08587455
-0.52277005 -0.61027735 -0.5472811 -0.55845886 -0.5790308 -0.62810075 0.060843956 0.024075901
-0.52166194 -0.5368174 -0.5639009 -0.009200355 0.05326307 -0.5804424 -0.57719487 -0.6309127
-0.52264464 -0.6309234 -0.5847575 -0.61091805 -0.528386 -0.53346777 -0.5556057 -0.6369363
-0.5528495 -0.030504106 -0.55394936 -0.016535472 0.06348104 0.0067348825 -0.5964863 -0.5316068
-0.5288978 -0.52851045 -0.5828084 -0.0077997814 0.03670247 -0.6037011 0.03280406 -0.023207944
-0.6238636 -0.0025597613 -0.61178285 -0.547093 -0.62591594 -0.5795448 -0.58596414 0.04405352
-0.5655898 0.045416526 -0.5387045 -0.5335612 -0.5838415 -0.6353822 -0.0048452965 -0.5309002
-0.60933095 -0.52987826 -0.6087394 -0.58475703 -0.5609782 0.081213936 -0.025983216 -0.5432816

logits.bias f4 [10]
00000000: 02cc 68be 17b7 b2be dc1d a4be bec7 80be
00000010: 0e75 96be 5ca2 c0be e7bd d83e c663 bbbe
00000020: 3f89 b7be a290 ccbe
-0.22734073 -0.3490531 -0.3205403 -0.2515239 -0.2938618 -0.3762387 0.42332384 -0.3659956
-0.35846898 -0.39954096
