policy_squad2_multi_adv_v2.pt (torch, 420089 bytes, 6 tensors)

fc1.weight f4 [256, 144]
000000 6e 0d 20 3d 4e ed b3 3e c4 8e c5 bd 7e 68 ed 3d
       0.039075308 0.35141987 -0.09646371 0.11592196
000010 70 1e a0 be 10 e0 4c bd 47 88 e4 bd 87 47 29 bb
       -0.31273222 -0.05001837 -0.11158805 -0.0025829987
000020 ef 72 4e be e0 10 dc 3c 37 57 67 bd 9c d6 4e 3d
       -0.20161031 0.026863515 -0.05647966 0.050497636
000030 18 2a a4 3d d9 d5 31 be 15 39 66 be d5 95 73 be
       0.08015841 -0.17366733 -0.22482713 -0.23787625
000040 19 5a b9 3e e9 f5 3e be bc 36 ef bd cf 9f 93 bd
       0.36201552 -0.18648495 -0.11680362 -0.072082154
000050 52 07 f8 3b 37 7e 9b be 5f 6d 0e bd 5c 88 3a be
       0.007569232 -0.30369732 -0.034772273 -0.1821608
000060 b3 11 36 bd 98 99 b8 bd 49 62 88 bc 35 de 89 3e
       -0.044450473 -0.09013671 -0.016648429 0.26927343
000070 75 9f 00 be fd 93 77 3d c5 4e 3e be 94 d6 a9 3e
       -0.12560828 0.060443867 -0.18584736 0.33171523
000080 74 2b a8 3d 94 91 8e bd 01 55 68 3d a8 14 1e be
       0.08211413 -0.069613606 0.05672169 -0.15437567
000090 94 8a 42 be 11 3b 31 3e ff dd 2b 3d 07 a5 1e 3c
       -0.18998176 0.17307688 0.04195976 0.0096829
0000a0 58 d3 87 3e ee 26 a1 bd 21 8f 09 bd b4 a5 46 be
       0.2652843 -0.078687534 -0.033583764 -0.19399148
0000b0 09 87 94 3e 5c ed 33 be d6 2c 9b 3d af 1b ab 3e
       0.29009274 -0.17571014 0.07576911 0.33419558
0000c0 9b 90 5e 3e cd 51 33 be 71 6b f9 bd ae a9 0f 3c
       0.2173485 -0.17511673 -0.12178696 0.008768482
0000d0 57 44 46 3e 3e 3b 1d bd 23 67 d3 bd a2 c1 54 bd
       0.19362007 -0.038386576 -0.10322406 -0.051942475
0000e0 31 05 0c 3f 15 07 18 bd 46 39 9e bd b5 50 0c 3e
       0.5469542 -0.03711613 -0.07725768 0.13702662
0000f0 34 3d 85 bd 42 9d 2b 3e b7 7d 9f be e3 12 41 3e
       -0.06505814 0.16759208 -0.311506 0.18854861
000100 fb 14 ec bc 26 58 a9 bd 1e 9a cc 3d fb 2a 87 3e
       -0.028818598 -0.08268766 0.09990333 0.2639998
000110 33 11 87 3d f4 c1 27 bc 5e 21 0e 3d ba 22 32 3e
       0.06595077 -0.010239113 0.03469979 0.1739606
000120 0a a4 6b 3e 8c 72 5c bc 73 56 04 bd b3 8d 50 3d
       0.23011795 -0.0134550445 -0.032309007 0.050916385
000130 a1 3c 87 be b8 6d 84 3e 5d 63 f2 3d 99 2e 61 be
       -0.26413444 0.2586496 0.11835358 -0.21990432
000140 ca 52 b7 be c5 de 7a bd aa 04 c8 bd 09 d0 ae 3e
       -0.3580535 -0.061247606 -0.097665146 0.34143093
000150 1a 50 85 bc 14 bd 48 3e e3 fa 10 be f2 9f a3 3d
       -0.016273547 0.19603378 -0.14158206 0.079894915
000160 29 15 e1 bc 54 b5 2c be d6 c1 39 3e 1c 96 17 3e
       -0.02747591 -0.16866046 0.18140349 0.14803356
000170 9a 8a ae bc 23 02 83 3e 37 8b 67 bc 3a d5 17 3c
       -0.021306325 0.25587568 -0.0141323125 0.009267146
000180 9e 27 5a be 37 15 c2 bd 52 a9 8c 3a 1c c6 e9 bd
       -0.21304175 -0.09476703 0.0010731614 -0.114147395
000190 72 a4 83 3c 2e d9 82 3e 3c 77 48 3e 87 7e 9e bc
       0.016069625 0.2555632 0.19576734 -0.019347442
0001a0 7a 7a 3a be 54 75 cd be 74 87 83 bd 5a 29 65 3e
       -0.18210784 -0.40128577 -0.0642232 0.22379056
0001b0 23 67 00 be 0a 40 9d bd 3c e1 32 be 5d f0 1e bd
       -0.12539344 -0.0767823 -0.17468733 -0.038803447
0001c0 3e 01 6b 3d e5 e3 b1 bc 36 df 13 3e e2 66 68 be
       0.05737423 -0.021715114 0.14440617 -0.22695497
0001d0 0b c5 7a bd b2 ef 9d bb 96 65 46 be b3 1d f2 bd
       -0.06122307 -0.0048198337 -0.1937469 -0.11822071
0001e0 31 bf 05 3e 18 8b 06 3e 4c 6f 42 be 2c aa a6 3b
       0.13061215 0.13138998 -0.18987769 0.005086204
0001f0 cb ff a3 be f7 15 9e 3d ed ca b0 3e ef c2 8b 3e
       -0.32031092 0.07719033 0.3452982 0.2729716
000200 f2 80 c2 3f 14 46 b1 3f d4 de ac 3f d9 a3 bf 3f
       1.5195601 1.3849511 1.3505502 1.4971877
000210 dd 33 bf 3f a4 ef c0 3f 29 be 88 3f f1 3e 9b 3f
       1.4937702 1.5073133 1.0683032 1.2128583
000220 28 d5 5a 3f ba c4 05 3f 81 bf 84 3d 27 82 80 3f
       0.854815 0.52253306 0.06481839 1.0039719
000230 8d 81 ab 3f 9a 20 b5 3f 82 d7 af 3f 96 a0 ab 3f
       1.3398911 1.4150574 1.3737643 1.3408382
000240 ac 1c 62 3d 6f be 07 3f 03 ec 8d bd 2a d7 06 3e
       0.055203125 0.53024954 -0.06929781 0.13168016
000250 16 86 4b be 21 23 12 bd 4b 4d 0e be be 88 a9 bd
       -0.19875368 -0.035678033 -0.13896672 -0.082780346
000260 b1 8a d4 bd 32 ed 20 be 6e 51 5e bd 5c 90 eb bb
       -0.10378016 -0.15715483 -0.054276876 -0.00718884
000270 a0 5e 85 3d 6d ef d0 bc f1 47 76 be f4 a7 4c be
       0.06512189 -0.025504792 -0.24050881 -0.19985944
000280 99 3a b7 3e b7 8f 1a be 66 17 87 bc af 75 13 be
       0.35786894 -0.15093885 -0.01649065 -0.14400361
000290 6d 29 d8 3d 8f da 8b be 05 49 17 be 57 b1 05 be
       0.10554776 -0.27315184 -0.14773948 -0.13055931
0002a0 ed 34 d3 bc d0 b8 37 be 7e 00 65 3d 72 87 a1 3e
       -0.025782073 -0.17941594 0.055908673 0.3154865
0002b0 eb b8 fa bc c9 18 40 bd 1d 83 3a be bd 7c 97 3e
       -0.030605754 -0.046898637 -0.18214078 0.29587355
0002c0 36 96 38 bc 04 c0 91 bd d0 01 22 3e 15 8b af bd
       -0.011266282 -0.07116702 0.15821004 -0.0857145
0002d0 8e 42 0c be 17 d6 c3 3e fb 00 0c 3e 4d 7f 8f 3d
       -0.13697264 0.38249275 0.13672249 0.070067026
0002e0 21 33 88 3e 61 c3 3f bd 25 d2 1d 3d f9 48 2c be
       0.26601508 -0.046817187 0.038530488 -0.16824712
0002f0 cd f2 b2 3e 32 38 a5 bd 22 f0 d6 3d 1f d2 67 3e
       0.34950867 -0.08067359 0.104950204 0.22638749
000300 ff 93 b1 3d 16 bf 68 be b9 2e 0f 3b d2 44 09 bd
       0.08670806 -0.22729144 0.0021847917 -0.033512898
000310 6f a6 fd 3d 06 42 47 bc dc 84 df bd b5 dc 48 bc
       0.1238526 -0.012161737 -0.10914013 -0.012259652
000320 c8 0b f5 3e 7e 13 66 bd eb b9 80 bd fb a9 02 3e
       0.4786055 -0.056170933 -0.06285461 0.12760155
000330 97 89 f2 bc 69 2c 46 bc 0c 6d 3a be 14 f1 cb 3d
       -0.029606624 -0.012095549 -0.1820566 0.099580914
000340 25 00 fe bc be 67 e8 bb 4b b8 0b 3e 2f b8 88 3e
       -0.031005928 -0.007092445 0.13644521 0.2670302
000350 b2 cb 51 3d ca f0 14 bd 21 0f 97 3d b7 75 a4 3d
       0.05121965 -0.036362447 0.073759325 0.08030265
000360 05 bd 5c 3e dd a4 49 bd 0d ab 5b 3b 1d 91 bf 3d
       0.2155648 -0.04922949 0.0033518702 0.0935385
000370 66 46 81 be 68 19 34 3e 39 a2 4e 3e db 4a 35 be
       -0.25249022 0.17587817 0.2017907 -0.17704336
000380 9f fc e9 be 4a 7f cd 3d 51 05 de bd ba 61 cb 3e
       -0.45700547 0.10034044 -0.10840858 0.39722997
000390 2e 96 8d 3d 15 b1 4c 3e c9 dc d0 bc 68 bd 9e 3d
       0.0691341 0.19989426 -0.025495904 0.0775097
0003a0 05 ee 52 be 79 e3 a4 be 90 ef 1e 3e c5 52 fe 3d
       -0.2059861 -0.32204798 0.15521073 0.12418131
0003b0 aa ce 9f bd 27 92 48 3e 9e af 85 3d 07 0d fb 3b
       -0.0780309 0.19587003 0.06527637 0.007661465
0003c0 25 8e b6 bd 4e 12 78 bd d6 8e 76 3d 97 2d b5 bd
       -0.08913831 -0.06056433 0.060194813 -0.08846586
0003d0 37 af 3f bd 4d a4 5c 3e 55 b7 1d 3e 17 2d 90 3c
       -0.046797957 0.21547051 0.15401967 0.017599626
0003e0 7a 0e 62 be e5 27 02 bf f0 ac df bd 42 5f 1e 3e
       -0.22075835 -0.50842124 -0.10921657 0.15466025
0003f0 e8 1b 01 be 97 46 5f bd f7 44 ab bd ac 23 87 3d
       -0.12608302 -0.05451068 -0.083627634 0.06598601

fc1.bias f4 [256]
000000 08 62 c3 3f 5f 28 be 3f 32 eb bc 3f a7 8c b3 3f
       1.5264292 1.485607 1.4759276 1.4027299
000010 87 2d bb 3f 05 0b bd 3f 54 d2 b8 3f 37 b2 b7 3f
       1.4623269 1.4768988 1.4439187 1.4351262
000020 22 a2 bf 3f f7 24 af 3f 2e 87 b6 3f e0 6d b0 3f
       1.4971354 1.3683156 1.4260004 1.3783531
000030 51 78 c1 3f 8b da c0 3f 36 83 b2 3f dd 44 b9 3f
       1.5114843 1.5066694 1.3946292 1.447414
000040 c7 fd b7 3f a7 83 ba 3f 63 b9 b5 3f cd de b6 3f
       1.4374322 1.4571427 1.41972 1.4286743
000050 5e de c3 3f 03 28 b8 3f bd b5 bc 3f 1f f5 b8 3f
       1.5302236 1.4387211 1.4742962 1.4449805
000060 8b 82 be 3f a5 32 b7 3f be c8 c3 3f 17 ee b4 3f
       1.4883589 1.431233 1.5295637 1.4135159
000070 b1 91 c3 3f 25 b1 c1 3f b1 49 b2 3f fd 53 b6 3f
       1.5278836 1.5132185 1.3928739 1.4244381
000080 09 ac c5 3f bd 4a b1 3f 5e ac b6 3f 1a 2e b0 3f
       1.5443126 1.3850933 1.4271352 1.3764069
000090 43 0e b2 3f ff 34 b0 3f 7d 20 c3 3f 1d 3a bb 3f
       1.3910602 1.3766173 1.524429 1.462711
0000a0 30 d3 ae 3f 9e 66 bf 3f d7 87 c1 3f 23 18 c0 3f
       1.3658199 1.4953191 1.511958 1.5007366
0000b0 4c b0 bb 3f cb 20 b5 3f 39 d5 c3 3f 72 d0 b0 3f
       1.4663177 1.4150633 1.5299445 1.3813612
0000c0 8b d4 b0 3f 29 4b c3 3f cc b7 b2 3f be f4 b5 3f
       1.3814863 1.5257312 1.396234 1.4215314
0000d0 c5 22 be 3f 89 c4 b1 3f ae af c3 3f db 46 be 3f
       1.4854361 1.3888103 1.5287988 1.4865373
0000e0 c4 b2 c0 3f c1 78 bf 3f c4 93 ba 3f 57 a8 b4 3f
       1.5054555 1.4958726 1.4576344 1.4113873
0000f0 26 a6 c1 3f 37 93 b9 3f 79 51 b7 3f ca 6a be 3f
       1.512883 1.4498051 1.4321738 1.487634
000100 57 a9 b7 3f 13 7a b5 3f 07 b7 ba 3f 24 0b c5 3f
       1.4348553 1.4177879 1.4587106 1.5394025
000110 57 ee bd 3f 85 a8 bc 3f f8 45 c4 3f 45 6f b6 3f
       1.483836 1.4738928 1.5333853 1.4252707
000120 76 ca bb 3f 2b d9 be 3f d1 85 b9 3f d2 e0 bf 3f
       1.4671161 1.4910024 1.4493963 1.4990485
000130 02 8b ba 3f eb 60 c0 3f 08 b9 c2 3f 93 24 bb 3f
       1.4573672 1.5029577 1.5212717 1.4620537
000140 bd 19 ba 3f d5 e8 bc 3f 7f cb bf 3f ec b7 b7 3f
       1.4539105 1.4758555 1.4983977 1.4353004
000150 c4 7a b3 3f 0e d4 c0 3f b8 61 bf 3f 45 b6 ae 3f
       1.402184 1.5064714 1.4951696 1.3649374
000160 d4 23 b4 3f 4b bc b1 3f e6 4f bc 3f 6e b2 bf 3f
       1.4073434 1.3885587 1.4711883 1.4976327
000170 a9 eb c1 3f e4 e6 bb 3f 69 3b b7 3f 8f 03 bf 3f
       1.5150043 1.4679837 1.4315006 1.4922961
000180 ff 35 c5 3f d4 66 b9 3f 4e ca bd 3f 90 ac b0 3f
       1.5407103 1.4484506 1.4827363 1.3802662
000190 e2 3f bb 3f e0 9a b9 3f f9 5f c4 3f 58 58 bb 3f
       1.462887 1.4500389 1.5341789 1.4636335
0001a0 83 90 b5 3f 0c ff af 3f 07 68 b5 3f 1a f9 be 3f
       1.4184726 1.3749709 1.4172372 1.491977
0001b0 b3 f9 ab 3f ec 92 bc 3f 1b fe b4 3f 1a df b7 3f
       1.3435577 1.4732337 1.4140047 1.436496
0001c0 bf c6 c0 3f 63 cf c3 3f 6f 20 b7 3f 4a 18 b7 3f
       1.5060652 1.5297664 1.4306773 1.4304287
0001d0 c5 4e bd 3f 2c 37 b2 3f 9d 39 b4 3f 0d 36 b2 3f
       1.4789664 1.3923087 1.4080082 1.3922745
0001e0 3d e8 c5 3f de c7 b6 3f e3 9b b2 3f 0a 20 ba 3f
       1.5461498 1.4279745 1.3953823 1.4541028
0001f0 82 8d af 3f b8 dd b0 3f 9a f5 b6 3f 2c c6 b0 3f
       1.371506 1.3817663 1.4293702 1.3810477
000200 c6 59 bb 3f f9 42 b7 3f d5 dc ba 3f 22 a7 b6 3f
       1.4636772 1.4317313 1.4598643 1.4269755
000210 02 0e c1 3f 64 f4 b9 3f ae 49 bc 3f 69 59 bf 3f
       1.50824 1.4527707 1.4709985 1.4949161
000220 c4 77 bb 3f 42 6d c2 3f e9 fd c1 3f 5b 4d b9 3f
       1.4645925 1.5189593 1.5155612 1.4476732
000230 51 b3 b0 3f f3 8d b5 3f 82 83 b1 3f 2f a7 b8 3f
       1.3804723 1.4183944 1.3868258 1.442602
000240 ba 68 ba 3f 05 19 b3 3f 6f f9 ba 3f a6 2d b1 3f
       1.456321 1.399201 1.4607371 1.3842056
000250 a3 04 b7 3f 98 d2 c5 3f 33 60 c1 3f 9c 93 b4 3f
       1.429829 1.5454893 1.5107483 1.4107547
000260 f1 a1 c5 3f ef 54 bf 3f b1 55 b2 3f ed 28 bf 3f
       1.5440046 1.4947795 1.3932401 1.4934365
000270 99 bb b9 3f a9 33 bb 3f 1d ca bd 3f 23 10 c5 3f
       1.4510375 1.462514 1.4827305 1.539555
000280 a5 85 ba 3f 49 06 bc 3f 08 ae b1 3f b4 60 b6 3f
       1.4572035 1.4689418 1.3881235 1.4248261
000290 ae d0 bb 3f a9 e6 c1 3f a1 3c b9 3f 7f f2 bb 3f
       1.4673059 1.5148517 1.4471627 1.4683379
0002a0 7b 59 b2 3f e0 cc c2 3f e9 d0 b5 3f 1e 36 b8 3f
       1.3933557 1.5218773 1.4204379 1.4391515
0002b0 f1 89 b4 3f a3 b8 c1 3f e2 e5 c3 3f f6 37 c4 3f
       1.4104596 1.5134472 1.530453 1.5329578
0002c0 58 db c0 3f 0b 55 b9 3f e0 dc c4 3f fc 84 bc 3f
       1.5066938 1.4479078 1.5379906 1.4728084
0002d0 a4 e1 b7 3f b7 8d c2 3f 5f f6 b4 3f df f9 b6 3f
       1.4365735 1.5199498 1.4137686 1.4295005
0002e0 5e d4 bb 3f 93 9b bf 3f c2 17 b8 3f 46 ca b8 3f
       1.4674184 1.4969352 1.438225 1.4436729
0002f0 8e 53 bc 3f 84 dd b9 3f bf 29 bb 3f 08 c3 bd 3f
       1.4712999 1.4520726 1.4622115 1.4825144
000300 eb db bb 3f 56 ce c0 3f 35 a9 bb 3f d2 bd b1 3f
       1.4676489 1.5062969 1.4661013 1.3886054
000310 c8 97 b7 3f 7a 4b c0 3f 15 06 b4 3f c5 12 bd 3f
       1.4343195 1.5023034 1.4064356 1.4771353
000320 70 0d b5 3f 87 9d b9 3f 77 5f c2 3f 68 1f be 3f
       1.4144726 1.4501199 1.5185384 1.4853334
000330 7e 26 c4 3f 66 87 bb 3f 0f 25 bc 3f 68 24 b8 3f
       1.5324247 1.4650695 1.4698809 1.438611
000340 25 15 bc 3f e8 03 be 3f 3a a1 c1 3f c8 52 b7 3f
       1.4693953 1.4844942 1.5127327 1.4322138
000350 80 51 bf 3f 87 96 bb 3f 28 1c c0 3f 08 04 b4 3f
       1.4946747 1.4655312 1.5008593 1.406373
000360 53 ef b9 3f 35 67 c1 3f c9 c6 bf 3f fd 19 b5 3f
       1.4526161 1.5109621 1.498254 1.4148556
000370 7b f9 c0 3f 9b 6c ae 3f 44 f8 be 3f d9 66 b4 3f
       1.5076135 1.3626894 1.4919515 1.4093887
000380 92 ee b4 3f ee 94 b6 3f 71 4f c1 3f 3c 98 b6 3f
       1.4135306 1.42642 1.5102369 1.4265208
000390 e3 ac b4 3f 20 05 b4 3f e8 62 b9 3f cc 7e bb 3f
       1.4115261 1.4064064 1.4483309 1.464807
0003a0 bd d2 b2 3f b6 44 b0 3f 40 bf b4 3f eb 4a c3 3f
       1.3970562 1.3770969 1.4120865 1.5257238
0003b0 d4 37 bf 3f b5 6f b8 3f 37 d4 b9 3f b4 81 bc 3f
       1.4938912 1.440909 1.4517888 1.4727082
0003c0 86 e3 c2 3f 6a d4 b9 3f 59 05 bb 3f 36 b7 b4 3f
       1.5225685 1.4517949 1.4611007 1.4118412
0003d0 2e fe bb 3f c6 70 be 3f 73 88 b6 3f 9f f3 c0 3f
       1.4686944 1.4878166 1.4260391 1.5074347
0003e0 2e 8f af 3f 8e ec bc 3f 7b c5 b6 3f 24 9d b5 3f
       1.371557 1.4759691 1.4279016 1.418858
0003f0 6c fb b1 3f cd 38 b2 3f b2 e4 bb 3f 1c 6f b7 3f
       1.3904853 1.3923584 1.4679167 1.4330783

fc2.weight f4 [256, 256]
000000 fa 70 31 bc 11 ff 9a bc 32 7c 1d bc 24 db 7e bd
       -0.010830158 -0.018920453 -0.00961213 -0.062220708
000010 84 71 61 bc 08 fa ed bb 7b e5 01 bd d7 9c af 3b
       -0.013759974 -0.007262472 -0.03171299 0.005359273
000020 56 32 ce bc ad 21 00 bd 19 cb 32 3d 1e 4d 48 bd
       -0.025170486 -0.031282116 0.04365072 -0.04890167
000030 ef af 1d 3d 6c 9c 55 bd ee ce 16 bd a9 bf 16 3d
       0.03849786 -0.05215113 -0.036818437 0.036803875
000040 9e b4 70 bd 6a e1 8f bd 5d f5 e8 bc e6 5a 35 bd
       -0.058766 -0.07025416 -0.02843731 -0.04427614
000050 56 b6 64 3c a9 e0 2b bd 31 ab 1b 3d 22 d4 67 bd
       0.013959488 -0.0419623 0.038005058 -0.05659879
000060 9c a5 f3 3c 8c 10 71 bd c2 81 93 37 51 a2 ac bc
       0.029742055 -0.05885367 1.7584189e-05 -0.021073492
000070 72 fb 79 bd 27 fd 12 3d 18 2a d4 bc 15 92 5d bd
       -0.061030813 0.035885956 -0.025898978 -0.054094393
000080 5e 04 e4 3c 41 71 c3 bc b6 6f 60 3c 8d e0 dd 3c
       0.027834114 -0.023857715 0.013698509 0.027084613
000090 5a 82 97 ba b0 5e 4e 3d df bd 5b bc a7 dc 78 3d
       -0.0011559234 0.05038327 -0.013411968 0.060757305
0000a0 6e 65 b7 3c 0c af 93 bb 1c 7a cc bc 52 dc 61 bd
       0.022387233 -0.004506951 -0.02496057 -0.055141754
0000b0 56 3f 54 3d b6 f3 1c bd 92 77 89 bd 3e 7f b2 3c
       0.051818214 -0.03831836 -0.06712259 0.02178919
0000c0 cf 18 38 3d 68 00 c6 bb d5 85 b9 3c 9f 99 2e 3d
       0.044945534 -0.006042529 0.022646824 0.042626973
0000d0 5d 25 18 3d f6 86 d4 3c 89 52 00 bd 69 41 9a 3c
       0.037145007 0.02594326 -0.03132871 0.018830018
0000e0 58 26 86 bd d5 25 19 bd 41 ab 04 3d e7 15 5a 3c
       -0.06550282 -0.037389595 0.032389883 0.013310886
0000f0 8a bb 39 3d 73 70 a8 3b 17 cf a9 3c 3f ae 82 bc
       0.045344867 0.005140358 0.020728631 -0.015952228
000100 6c ec 72 bc a1 1e 66 bd dc 15 7c bd e9 06 66 bd
       -0.014826875 -0.056181554 -0.061544284 -0.056158934
000110 17 ac 30 3d ab 7c 08 bd 85 c4 7a 3c cc 95 80 bd
       0.043132868 -0.033322018 0.015305643 -0.062785715
000120 3c 49 cb bc 68 23 8f bc ef c1 1e 3a 46 3b 26 bd
       -0.024815194 -0.017472938 0.000605612 -0.04058387
000130 e9 e1 04 bd 19 ca 50 3d 2c df 71 bc b2 fd 01 3b
       -0.032442007 0.050973985 -0.014762681 0.0019835052
000140 68 ac 4c 3d a9 b6 60 bd 5a 00 76 bc 3e 39 6d bd
       0.049969107 -0.0548617 -0.015014732 -0.05791592
000150 f0 e8 1d bc ce 66 e1 3c 22 f6 28 bc 65 73 b8 3c
       -0.009638056 0.027514841 -0.010312589 0.022515962
000160 06 47 15 3d f2 2a b4 3c 4c 36 1f bd 87 30 37 bd
       0.036444686 0.021993134 -0.03887014 -0.044724014
000170 22 fc d3 bb 0f 2c e9 3c 03 3e fb 3c 84 45 2c 3d
       -0.0064692656 0.028463392 0.030669218 0.042058483
000180 5f fb 14 bc 77 ca 03 3b 34 9d 7e 3c 24 c3 af bc
       -0.009093135 0.0020109692 0.01554041 -0.021455355
000190 d3 72 50 bd ea 1c af bc 45 bf 2c bd 8b 7d 28 3d
       -0.050890755 -0.021376092 -0.042174596 0.041135352
0001a0 01 5e 70 3d 10 11 fb 3c a6 34 b7 3b f4 8a 1e bd
       0.0586834 0.030647784 0.005590993 -0.038706735
0001b0 80 84 db bc d6 21 2b 3d d7 36 f5 3c 7a 91 6f bd
       -0.02679658 0.041780315 0.029933376 -0.058488347
0001c0 29 b2 1e 3c ad b2 b4 3c cd 24 75 3c 36 fc 1c 3c
       0.009686031 0.022057856 0.014962387 0.009581616
0001d0 58 fd 37 3d 63 3a 48 bd a5 fd 0c bd 68 1d b1 3c
       0.04491934 -0.048883807 -0.03442158 0.021620467
0001e0 ce 00 86 bd d3 04 29 3d a6 1e 69 3d 3a 76 42 bd
       -0.06543122 0.041264366 0.056913994 -0.04747603
0001f0 30 66 40 bd cd 22 7e bd 1c 21 e0 3c bd a1 44 3d
       -0.046972454 -0.062044907 0.027359538 0.04800581
000200 02 10 8d bd fa c0 28 3d 08 1b 01 3d 39 78 36 bd
       -0.06887819 0.04119966 0.03151992 -0.044548247
000210 29 00 2c 3d 82 84 3f bd 20 f2 13 bd 99 22 7b bd
       0.04199234 -0.04675723 -0.03611958 -0.06131229
000220 fa 10 5e 3a 75 9b 60 bd c0 c0 7f bd 13 6b 5e bd
       0.00084711576 -0.054835755 -0.06243968 -0.054301333
000230 65 2b 71 3d 2d b0 48 bd 47 ce 07 bd 74 26 36 bd
       0.058879275 -0.04899614 -0.033155706 -0.044470266
000240 a5 72 14 bd 91 85 1f 3d 02 c3 08 bd 93 af 86 bd
       -0.036242146 0.03894574 -0.0333891 -0.06576457
000250 6c 26 4a 3d 57 f9 96 b8 93 d6 55 bd d8 b7 aa bc
       0.04935305 -7.1990005e-05 -0.052206587 -0.020839617
000260 7f b7 49 3d ed ac a1 3c 7a 55 4b 3d 17 a5 3b bd
       0.04924726 0.019735778 0.049642064 -0.04581174
000270 dc 82 3b 3b d8 83 64 bd 33 07 56 3d 6b 92 9c bc
       0.0028611934 -0.0557898 0.05225296 -0.019112786
000280 bb 2d 68 bc 36 2d e5 bc 10 f6 21 bb 47 5b 27 bc
       -0.014171059 -0.02797566 -0.0024713315 -0.010214633
000290 be 74 12 3d bd 5c 05 3d fd 40 bb 3b c2 54 6b 3d
       0.035755865 0.032559145 0.0057145343 0.05745388
0002a0 8d e6 07 bd c1 8f 95 bb 4f 04 77 bd 83 e6 f9 3a
       -0.033178855 -0.004564256 -0.060306843 0.001906589
0002b0 0e df 9f 3b 84 18 84 3c ce e5 ce 3c a8 d0 90 3c
       0.004878885 0.016124971 0.025256064 0.01767762
0002c0 d4 dd ba 3c f7 a4 30 bd de de 40 bd 9d 45 14 3d
       0.022810854 -0.043126073 -0.047087543 0.0361992
0002d0 7e b4 79 bd e3 4b 3e 3d 55 1a 66 3c 1e a9 81 bd
       -0.060963146 0.04645909 0.014044364 -0.06331085
0002e0 20 45 3a 3d 16 f6 eb 3b 2c 55 c6 bc 8a 55 78 bd
       0.04547608 0.0072009666 -0.024210535 -0.06062845
0002f0 2f 8b 0b 3d 93 e6 bf 3b e9 d9 31 3a 86 2c 51 bd
       0.034068283 0.005856344 0.00067844853 -0.05106785
000300 bb fb ac bc c7 14 3b 3b e2 5a 1a 3d cd 3a 50 3d
       -0.021116128 0.002854632 0.03768433 0.050837327
000310 7a e6 90 bb 19 54 3e 3d 21 9d cd bc e9 dc a1 bc
       -0.004422006 0.04646692 -0.025099339 -0.019758658
000320 06 ee e5 bc 25 77 0e 3d 28 27 31 3d 14 e0 5f bd
       -0.0280676 0.034781594 0.043250233 -0.054657057
000330 5d ee ba 3c a8 13 c3 bc bb 15 4e bc 36 26 e3 bc
       0.022818739 -0.023813084 -0.012578423 -0.027728181
000340 ea a5 0f bd 8c 00 96 bc 46 19 51 3d 0f 1a 8d 3c
       -0.035070337 -0.018310808 0.051049493 0.01722434
000350 ed bf d2 bc 43 40 c3 3c 32 59 0f bc 1f 9c 87 bd
       -0.025726283 0.023834353 -0.008749293 -0.066215746
000360 ce 1d f8 bc cf 06 f0 bb 65 65 1c 3d 7c 2a 0e 3d
       -0.03028765 -0.0073250304 0.038182635 0.034708485
000370 df 4c d0 ba 97 60 89 3c 10 c5 8d bd b0 fe 08 3c
       -0.001589205 0.01676969 -0.06922352 0.0083615035
000380 6f e8 34 3d 60 cf 2e bd a9 43 10 3b a3 c9 71 3d
       0.04416698 -0.042678237 0.0022012985 0.059030186
000390 24 eb 0c 3d 80 33 cd ba b1 c0 1f bd c0 02 5a 3b
       0.034403935 -0.0015655607 -0.039002124 0.00332658
0003a0 79 0a 18 3c aa 4a 74 bd 41 df 85 3c 2b f3 7b bd
       0.009279841 -0.059641518 0.016341807 -0.0615112
0003b0 98 b6 f2 3c 10 32 1c bc 5f 91 5d bc 61 f1 c6 bb
       0.029628083 -0.00953342 -0.013523429 -0.006071255
0003c0 a9 87 cb bb 3c 05 66 bd 57 1a 46 bb b2 1b ab bc
       -0.0062112403 -0.056157336 -0.0030228102 -0.02088723
0003d0 a3 56 96 3c 63 ce d7 bc d8 b5 89 3c 3e 50 58 3d
       0.018351858 -0.02634353 0.016810343 0.0528109
0003e0 06 52 51 bd df 7e 3b bd 55 08 5e bd 77 7e df ba
       -0.051103614 -0.04577529 -0.054207165 -0.0017051239
0003f0 62 d9 19 3d d8 ef b7 bc 6a 4e 1a bd 06 b0 24 3d
       0.037560828 -0.022453234 -0.037672438 0.04020693

fc2.bias f4 [256]
000000 12 ec 56 3c 2c 3f 6c bd 9e d5 99 3f d9 cf 0a 3d
       0.013117807 -0.057677433 1.2018316 0.033889625
000010 3a 8d 91 3f ce 85 bd 3c 90 42 9a 3f c7 8c 9d 3f
       1.1371224 0.023135092 1.2051563 1.2308587
000020 8e d7 04 3d af c6 83 bd da b8 9f 3f 10 81 5a 3c
       0.03243213 -0.0643438 1.2478287 0.013336435
000030 4e 37 2d bd 66 04 98 3f a5 4a 72 bd 84 1f 91 3f
       -0.04228907 1.1876342 -0.059153218 1.1337743
000040 cb f3 90 3f 19 71 62 bd e5 7a 9a 3f 44 60 36 bd
       1.13244 -0.05528364 1.2068754 -0.0445254
000050 89 4f 9b 3f bf 5a 9c 3f e4 c8 9b 3f 2f e7 91 3f
       1.2133647 1.2215194 1.2170682 1.1398677
000060 46 f8 8d bc d5 ad 9c 3f d0 91 ba bc 56 d6 94 3f
       -0.0173303 1.2240549 -0.022774607 1.162791
000070 ac 9b 45 3d e4 d1 6c bc 19 d6 6c bd 20 ef 9a 3f
       0.048244163 -0.014454339 -0.057821367 1.2104225
000080 cc 91 9c 3f 67 d3 95 3f 37 e1 98 3f 9a 37 92 3f
       1.2231994 1.170514 1.194373 1.1423218
000090 80 f2 87 bd f5 a5 e8 3c 42 92 86 bb 12 79 99 3f
       -0.0663805 0.028399447 -0.0041067908 1.1990073
0000a0 51 06 9a 3f 81 41 99 3f d6 22 99 3f c0 28 1c 3d
       1.2033178 1.1973115 1.1963756 0.0381248
0000b0 72 b0 99 3f 9b 84 94 3f df e9 71 bd ac e0 94 3f
       1.2006972 1.1602968 -0.059060927 1.1631064
0000c0 3f 2b 96 3f 28 92 90 3f 08 77 a1 bb 30 6b cb bc
       1.1731948 1.1294603 -0.0049275197 -0.024831384
0000d0 1f 4f 99 3f 78 ea 95 3f 38 a9 9a 3f cc 10 9c 3f
       1.1977271 1.1712179 1.2082891 1.2192626
0000e0 d1 a5 8f bd b7 be 96 3f 21 9e 9e 3f c2 af 40 3d
       -0.07014049 1.1776952 1.2392007 0.047042616
0000f0 c7 50 9d 3f 0e 65 92 3f 9e 08 94 3f 16 12 a0 3f
       1.2290276 1.143709 1.156513 1.2505519
000100 19 30 87 bc fc c1 a0 3f a8 0d 99 3f 77 60 84 3c
       -0.016502427 1.2559199 1.1957293 0.01615928
000110 8b 59 97 3f a1 04 5b 3d 7a bd 9d 3f bd d8 67 bd
       1.1824201 0.05347121 1.2323449 -0.056603182
000120 20 10 99 3f 04 29 7c bd a2 d1 89 3c e4 4c 9e 3f
       1.1958046 -0.061562553 0.016823594 1.2367215
000130 81 43 9c 3f 1d 2c 9b 3f 31 14 98 3f c3 6e 3e 3d
       1.22081 1.2122837 1.1881162 0.04649235
000140 87 e2 97 3f 72 58 9d 3f a6 c6 93 3f 67 fb d3 bb
       1.1866006 1.2292616 1.1544998 -0.0064691785
000150 b2 90 97 3f b5 ff 95 3f 08 d0 a0 3f dd 6c 93 3f
       1.1841033 1.171866 1.2563486 1.1517597
000160 7c 5f 92 3f 29 31 b2 3b d7 12 91 3f 62 db 28 bd
       1.143539 0.0054379893 1.1333874 -0.041224845
000170 fa 4f 4e 3c 52 5e 94 3f 40 07 12 bd 11 1b 93 3f
       0.01259231 1.1591284 -0.035651445 1.1492635
000180 b2 78 97 3f 2d ff 94 3f ce 56 8b bb d7 fb 96 3f
       1.1833708 1.1640373 -0.0042522913 1.1795605
000190 3c 09 9c 3f 78 b8 9b 3f 65 b5 34 3d 5b fb 53 bd
       1.2190318 1.216567 0.044118304 -0.051753383
0001a0 ea a8 7c bd a6 23 3b 3d f3 0f 8d 3f ea 4b 91 3f
       -0.061684527 0.045688294 1.1020492 1.1351292
0001b0 6f 57 93 3f 4a 62 90 3f 70 62 90 3f be 58 4e bd
       1.1511058 1.1279995 1.1280041 -0.0503776
0001c0 d3 b6 58 3c 73 b3 75 bc 31 cb 51 3d 95 5d 8f 3f
       0.013227182 -0.014996397 0.05121917 1.1200434
0001d0 9b a6 d9 bb d0 fe bc bc f1 11 98 3f fd 74 9b 3f
       -0.0066421754 -0.023070723 1.1880475 1.2145077
0001e0 5a cf 94 3f de 46 91 3f 9c d0 13 bc 6b 5a 13 3d
       1.1625779 1.1349752 -0.009021904 0.0359749
0001f0 48 f3 cf 3a 39 35 9d 3f d7 32 95 3f a2 3f 9e 3f
       0.001586535 1.2281867 1.165614 1.2363169
000200 3b 22 09 bd 93 0b 2f 3c 12 21 a0 3f 90 b5 9c 3f
       -0.03347991 0.010683912 1.2510092 1.2242908
000210 fb 06 00 bc 30 31 95 3f 49 0d 9a 3f 86 fd a0 3f
       -0.007814164 1.1655636 1.2035304 1.2577369
000220 61 af 47 bc c4 b2 c1 3c 1a a3 94 3f 1d 99 95 3f
       -0.01218781 0.023644812 1.1612275 1.1687351
000230 04 06 99 3f 9e a2 95 bc 19 a6 91 3f 59 a3 9a 3f
       1.1954961 -0.018266018 1.1378814 1.20811
000240 35 77 7c bd 06 49 9b 3f f3 0f 92 3f 62 f6 a5 3c
       -0.061637122 1.213166 1.1411117 0.020259086
000250 da 3b 95 3f fa c6 6a 3a 9c 5a 9a 3f bb 1a 92 3f
       1.165889 0.00089560414 1.2058902 1.1414407
000260 33 29 9e 3f 83 c5 b1 3c 0c 88 99 3f e0 02 ab 3a
       1.2356323 0.021700626 1.1994643 0.0013047121
000270 de f2 81 bc 6b 23 99 3f a5 e4 93 3f 9f 70 a0 3f
       -0.015862878 1.1963934 1.1554152 1.2534369
000280 57 1c 9f 3f 6e 68 c9 bc 25 aa 91 3f 46 ce 97 3f
       1.2430524 -0.024585929 1.1380049 1.1859825
000290 66 ff e2 bb 36 81 8d bd 9d ac 80 bc 06 94 93 3f
       -0.0069274185 -0.06909411 -0.015707308 1.1529548
0002a0 77 bc fe bc 29 f0 96 3f 86 25 89 3b 87 21 93 3f
       -0.031095726 1.1792041 0.0041853813 1.1494607
0002b0 55 cd 9a 3f 34 1e b4 bc ae 83 9e 3f f9 f0 96 3f
       1.2093912 -0.021987058 1.2383935 1.1792289
0002c0 59 21 8e 3f 97 13 9b 3f d1 64 9d 3f 76 7b 96 3f
       1.1103927 1.2115353 1.2296392 1.1756427
0002d0 cf 6b c1 bc 81 81 97 3f 0a 9b 92 3f 56 89 9b 3f
       -0.023610977 1.1836396 1.1453564 1.2151287
0002e0 5b 6e a0 3f c3 74 9b 3f 80 44 30 bd 36 f2 5c bd
       1.2533678 1.2145008 -0.043034077 -0.053941928
0002f0 8c a4 95 3f 9e c2 9a 3f 48 fe 18 3d 4f 91 91 3f
       1.1690841 1.2090642 0.037351876 1.137247
000300 4c ab 07 bd 88 4d 2c 3d 76 c8 80 bd 61 7c 61 bd
       -0.033122346 0.042066127 -0.06288235 -0.055050258
000310 bd 36 9e 3f 29 66 98 3f fc 05 98 3f f4 b5 97 3f
       1.2360455 1.1906177 1.1876826 1.1852403
000320 94 3e 9b 3f 88 62 d9 3c 54 af 93 3f 55 eb 38 bd
       1.2128472 0.026536241 1.1537881 -0.045146305
000330 d1 d9 94 3f f4 38 98 3f 0d 35 89 bd d4 a2 93 3f
       1.1628972 1.1892381 -0.06699572 1.1534066
000340 53 66 24 3b 6f 60 9b 3f 8f f3 d1 bb cf 99 92 3f
       0.0025085404 1.2138804 -0.0064072083 1.1453189
000350 bc 76 8f b9 0b 9b 81 bc 63 65 93 3f 19 2d 14 bc
       -0.0002736355 -0.015821 1.1515316 -0.009043955
000360 d8 36 0e 3c bc f4 9c 3f 6c b1 f7 bc 08 9d 9b 3f
       0.008680068 1.2262187 -0.030235969 1.2157297
000370 72 b4 97 3c 3e ac 89 3c 39 47 9d 3f d5 11 9f 3f
       0.01851866 0.016805764 1.228736 1.2427317
000380 35 2a 48 3d b8 1f 99 3f de d4 96 3f 92 56 9f 3f
       0.048868377 1.1962805 1.1783712 1.2448294
000390 0e 5f 9d 3f 2b f8 99 3f d0 81 9c 3f 23 2e 99 3f
       1.2294633 1.202886 1.2227116 1.1967205
0003a0 7e 2e 80 bd 09 fc 98 3f 83 3c 57 bd 91 a3 9f 3f
       -0.06258868 1.1951915 -0.052547943 1.2471792
0003b0 88 19 9b 3f 04 3f 99 3f 43 01 93 3f 20 35 96 3f
       1.2117167 1.1972356 1.148476 1.1734962
0003c0 70 18 97 3b ac 16 9f 3f 22 ab 96 3f e9 7f 90 3f
       0.0046110675 1.2428794 1.1770976 1.1289035
0003d0 60 fe 94 3f 78 7e 07 bd 3c 37 29 3d 0a fd 18 3d
       1.1640129 -0.033079594 0.04131244 0.03735069
0003e0 91 32 9a 3f 44 5e 99 3f 51 21 9c 3f 1f 55 9d bc
       1.2046682 1.1981893 1.2197667 -0.019205628
0003f0 11 64 93 3f fc 75 98 3f 75 ca a9 3c 28 53 90 3f
       1.1514913 1.1911006 0.020726422 1.1275377

logits.weight f4 [5, 256]
000000 e9 3d 9a bb 4f c7 57 3c 6a 19 a3 3f 28 31 ed bc
       -0.0047070873 0.013170077 1.2742131 -0.028954104
000010 57 99 9f 3f cd 54 51 3d dc 0c 9f 3f 8f d3 aa 3f
       1.2468671 0.051106263 1.2425799 1.3345813
000020 c0 0b 10 3a 43 01 46 3b 79 16 9d 3f 7d 9d ec bc
       0.0005494915 0.0030213154 1.2272483 -0.02888369
000030 c3 e3 24 bc 93 d1 9b 3f 29 0a 35 bd 6f 44 a6 3f
       -0.010064068 1.2173332 -0.044199143 1.2989634
000040 bf 23 a3 3f 4b 87 d2 3c 1b aa a1 3f 40 d5 ee bc
       1.2745284 0.025699278 1.2630037 -0.02915442
000050 be c3 a8 3f 69 db 9c 3f bf b5 a6 3f b2 e9 a1 3f
       1.3184736 1.2254459 1.3024215 1.2649443
000060 ac 59 2f 3b e0 f6 ab 3f c5 29 12 bd af bd aa 3f
       0.002675633 1.3434715 -0.035684366 1.3339137
000070 bb da 82 bc aa 1a 49 bd 00 92 2a 3d 4f 31 a7 3f
       -0.01597344 -0.049097694 0.041643143 1.3061923
000080 ef fc a2 3f 2e 42 a0 3f 59 d5 a9 3f 1a d7 a1 3f
       1.2733439 1.2520196 1.3268234 1.2643769
000090 c4 74 20 bc b1 79 b2 bc 84 e8 81 3c 43 e7 9e 3f
       -0.009793464 -0.021786543 0.015857942 1.2414325
0000a0 16 03 9d 3f d0 70 ac 3f 23 f3 a5 3f 2c 7c 95 3c
       1.2266567 1.3471928 1.2964824 0.018247686
0000b0 09 cb a7 3f 87 ae ab 3f 5c 00 29 bd 62 55 a8 3f
       1.3108836 1.3412637 -0.04126011 1.3151057
0000c0 f3 68 a7 3f 57 9b ab 3f c3 cf 5c bc 26 7e 17 bd
       1.3078903 1.3406781 -0.013477269 -0.03698554
0000d0 d6 de a6 3f 8c 75 ab 3f f8 12 a6 3f b4 d4 a0 3f
       1.3036754 1.3395247 1.2974539 1.2564912
0000e0 24 12 be bc 98 ab aa 3f 41 64 a0 3f 75 c8 28 bd
       -0.02320201 1.3333616 1.2530595 -0.041206796
0000f0 89 e2 a0 3f 71 31 ac 3f 90 c7 ab 3f 8b 12 aa 3f
       1.2569133 1.3452588 1.3420277 1.3286909
000100 e4 16 a4 3c 38 f6 9d 3f c9 1b 9f 3f af 3a 2f 3d
       0.020030446 1.2340765 1.2430354 0.042780574
000110 67 63 a2 3f a4 91 04 bb 71 0b aa 3f 42 d0 41 bd
       1.2686585 -0.002022841 1.3284742 -0.04731775
000120 72 48 a0 3f ec fc 10 bd 2b 04 0b bc 91 ef aa 3f
       1.2522109 -0.035397455 -0.00848488 1.335436
000130 dd 06 ab 3f 5b 74 a7 3f 2a cc 9e 3f f8 14 26 bd
       1.336147 1.3082384 1.2406056 -0.04054734
000140 ec 07 a3 3f df c2 a9 3f 34 b8 a8 3f a6 8d 32 bd
       1.2736793 1.3262595 1.3181214 -0.043592118
000150 dd c1 ab 3f ca 1f a2 3f 43 7f 9e 3f 63 e7 a6 3f
       1.3418537 1.2665951 1.2382587 1.3039364
000160 d3 ec a7 3f eb 56 cc 3c cb e7 ab 3f 26 50 1d 3d
       1.3119148 0.02494379 1.3430113 0.038406514
000170 4b 43 50 3c 6a 61 a3 3f 0e a5 4f 3d 6d a3 a1 3f
       0.012711356 1.2764103 0.050694518 1.2627999
000180 27 29 a7 3f b3 16 ac 3f aa a2 36 3d e1 1a a5 3f
       1.3059434 1.3444427 0.044588722 1.2898828
000190 14 34 a3 3f df b4 a7 3f 13 7b fe bc 53 c2 42 3d
       1.2750268 1.3102072 -0.031064546 0.047548603
0001a0 0a f5 a9 3c e6 4e 05 3d f0 14 aa 3f 5d 57 a0 3f
       0.020746727 0.032545947 1.328764 1.2526661
0001b0 79 71 a0 3f b8 5f a5 3f e1 84 a7 3f b0 a2 12 bc
       1.2534629 1.2919836 1.3087426 -0.008949921
0001c0 76 f7 63 3d 44 9f ab bc 52 35 5a bd 94 fc a6 3f
       0.05565592 -0.020949967 -0.053273506 1.3045831
0001d0 91 83 08 bd 31 f5 21 bc 7c 00 ab 3f 83 b1 ab 3f
       -0.033328597 -0.009885118 1.3359523 1.3413547
0001e0 98 38 ac 3f 9a 8d a5 3f 20 5c 01 bd be a4 3f 3d
       1.3454771 1.2933838 -0.031581998 0.04678797
0001f0 e5 2f 74 3d 1e 90 99 3f a8 02 a8 3f 8c 16 9f 3f
       0.05961599 1.1997106 1.3125811 1.2428756
000200 a3 d7 15 bd e3 eb 07 bd 04 a2 9d 3f e1 f3 9e 3f
       -0.0365826 -0.033183943 1.2315068 1.2418176
000210 db a8 eb bb a2 1e aa 3f b0 6a ab 3f 37 76 a1 3f
       -0.00719176 1.3290598 1.3391933 1.2614201
000220 17 4e 28 3d 79 9b f4 bc 0f 28 ab 3f 91 e5 a9 3f
       0.041090097 -0.029859291 1.33716 1.3273183
000230 05 2b a3 3f 19 ca 9f bc f4 b1 a5 3f 44 03 ac 3f
       1.2747504 -0.019505547 1.2944932 1.3438497
000240 20 f6 84 3c 8f fe aa 3f 5b 2b 9f 3f 14 99 d3 ba
       0.016230643 1.3358935 1.2435106 -0.0016143643
000250 84 45 9e 3f 16 55 f3 3c d9 38 a9 3f bc 21 aa 3f
       1.2364964 0.029703658 1.3220474 1.3291545
000260 70 34 ac 3f 6b 97 01 bd 5e 6d a9 3f d7 11 89 3b
       1.3453503 -0.031638544 1.3236501 0.004183035
000270 b6 30 3d bc 3e a2 a2 3f 32 ec a0 3f 9d f3 a4 3f
       -0.011547258 1.2705762 1.2572081 1.2886845
000280 e9 c3 a4 3f d7 5d 25 bd e7 4b a8 3f 1f 8d a1 3f
       1.2872287 -0.040372696 1.3148164 1.2621192
000290 77 93 5c 3b 91 6b 69 ba 86 06 24 bc 09 ee ab 3f
       0.0033657232 -0.0008904273 -0.010011321 1.3432018
0002a0 06 ae f3 bc 4f 21 a2 3f 1b 50 2a bd e7 30 a5 3f
       -0.029746067 1.2666415 -0.0415803 1.2905549
0002b0 cf ca aa 3f 0d 35 3a bd 66 49 a7 3f 1d 5d ac 3f
       1.3343142 -0.04546075 1.3069274 1.3465916
0002c0 2e 29 a9 3f e6 5f 9d 3f 7f 7c a8 3f 9e 50 ab 3f
       1.3215692 1.2294891 1.3162993 1.3383977
0002d0 f8 58 b6 bc 53 51 a9 3f f1 47 a4 3f fd 34 a0 3f
       -0.02225922 1.3227943 1.2834455 1.2516171
0002e0 bc ec a7 3f 9e 8e a2 3f bd dd 63 bd 4e a2 55 bd
       1.3119121 1.2699773 -0.055631388 -0.05215674
0002f0 00 5b 9c 3f fd 99 aa 3f 57 19 2b bd 78 6e ac 3f
       1.2215271 1.3328243 -0.041772213 1.3471212
000300 b5 41 9d bc 49 19 0b bd b8 c9 62 3d 88 e9 2d 3d
       -0.01919637 -0.03395966 0.055368155 0.04245904
000310 f7 9c 9e 3f 41 62 a5 3f 88 e4 a8 3f 27 16 a6 3f
       1.2391652 1.292061 1.3194742 1.297551
000320 28 37 aa 3f c9 f7 1e 3d d5 92 aa 3f 72 bc 00 3d
       1.3298082 0.038810525 1.332606 0.031429715
000330 93 1f a3 3f 38 b2 a1 3f 87 fc e9 3c 38 25 a9 3f
       1.2744011 1.2632513 0.028562797 1.3214483
000340 46 84 27 bd 7f 26 a8 3f a0 3c a0 3b 61 34 a8 3f
       -0.04089763 1.3136748 0.0048900396 1.3140985
000350 92 6c 66 3c 67 48 58 bd 86 61 a9 3f be 7f 3d 3d
       0.014063971 -0.052803423 1.3232887 0.046264403
000360 2b c0 1f bd 28 ed 9e 3f 46 4e ff 3c 1b 14 a1 3f
       -0.039001625 1.2416124 0.031165253 1.2584261
000370 6c 45 35 bd b2 80 ed bc 5d 80 a1 3f a2 ba a5 3f
       -0.04425566 -0.02899203 1.2617298 1.2947581
000380 2d e3 6b 3c ec 68 a9 3f 85 b7 9d 3f 7f a8 a4 3f
       0.014397425 1.3235145 1.2321631 1.2863921
000390 f8 af a5 3f b1 34 a6 3f 5d 01 a7 3f 0a ab a7 3f
       1.2944326 1.298483 1.3047291 1.3099072
0003a0 f4 f0 29 3d e4 aa 9c 3f 10 2f 83 bb 19 81 a6 3f
       0.041489556 1.2239652 -0.004003413 1.3008147
0003b0 10 bb a7 3f 52 b7 a7 3f d6 27 aa 3f 82 4f a5 3f
       1.3103962 1.310282 1.3293407 1.2914889
0003c0 b8 34 14 bd ef 4b a9 3f f8 e7 9d 3f a7 be a8 3f
       -0.03618309 1.3226298 1.2336416 1.3183182
0003d0 0c eb ab 3f d0 2e 1c bc 9b ff aa bc 06 b0 7c 3d
       1.3431106 -0.009532645 -0.020873835 0.061691307
0003e0 a3 29 9f 3f 3d 22 9f 3f 45 fe a4 3f e8 2b a3 bc
       1.2434582 1.2432324 1.2890097 -0.019918397
0003f0 68 ca ab 3f 6c a9 a4 3f 50 c3 41 bd ee fd 9e 3f
       1.3421144 1.2864203 -0.047305405 1.2421243

logits.bias f4 [5]
000000 fc f2 28 3f 1f 3b 30 3f 1b c8 1b bf 41 19 31 3f
       0.65995765 0.6884021 -0.6085221 0.6917916
000010 38 9d 35 bf
       -0.7094302
