policy_squad2_quality_first.pt (torch, 423173 bytes, 6 tensors)

fc1.weight f4 [256, 142]
0.122191094 0.054732453 -0.2564368 0.08400965 -0.062781654 -0.08237327 0.28269196 -0.04832293
-0.12314335 -0.012994669 0.029557578 -0.2858027 0.039959196 -0.05739656 -0.13577606 -0.11274158
0.10247408 -0.1293208 -0.12696302 0.054260697 -0.0598789 0.06613011 -0.12266526 0.1006718
-0.025178932 0.036767006 -0.033596814 -0.22436339 0.11826882 0.14674933 -0.1832856 0.06387458
-0.093271986 -0.19640557 0.2165026 -0.16556224 -0.13974676 0.20096378 0.04032174 0.04229124
-0.22979155 -0.0045307046 0.30737153 -0.08923054 -0.015075393 0.17093754 -0.117042474 -0.00042405585
-0.13638423 -0.13147658 -0.057878174 0.19453333 0.02797079 0.181119 -0.041553155 0.053656824
-0.010728044 0.2050363 0.08550947 0.19415371 -0.04988474 0.15087944 -0.117629446 0.2363595
-0.17712261 -0.1333139 -0.03801569 -0.12058411 -0.10263226 0.021391243 -0.114583105 0.24214707
-0.078917526 -0.07600025 0.1946418 -0.04568481 -0.11116603 0.06855805 0.07394572 -0.25062338
0.14302202 0.18122138 -0.13562354 -0.008736439 -0.18293466 -0.0063744774 -0.018916065 0.24168423
-0.04391795 -0.05253264 0.28227997 0.07641096 0.026989039 0.20307602 -0.19090886 -0.23027755
0.18043569 0.14624359 -0.21757232 -0.06844555 0.10780776 0.17858985 0.056169625 0.17414746
0.0735273 0.11535247 0.084268525 0.0032918947 0.01049801 -0.1056322 -0.049309976 0.047722634
-0.01621483 0.19972886 0.030033685 0.15994497 -0.006878866 0.06514436 0.20668815 -0.2698446
-0.116718546 -0.14617935 -0.027586518 -0.08437207 0.14775223 -0.047523875 -0.1003615 -0.07021706
0.6399904 0.6570172 -0.06179318 0.497748 0.32940197 0.38224724 0.4651869 -0.09303109
0.6069385 0.69233084 0.73664004 0.74099267 0.6222599 0.6865555 0.12298076 0.072664134
-0.31585166 0.0043895715 0.048062995 0.07185571 0.25424492 -0.10004523 -0.005110773 -0.013226964
-0.074045755 -0.15962438 0.24013743 0.024174988 -0.11507348 -0.055899825 0.17250533 -0.0931549
-0.16522881 0.055715296 -0.04916045 -0.048934963 -0.12349574 0.13047472 -0.057315122 0.021227077
0.07775554 -0.30632076 0.12454375 0.20042251 -0.11435619 0.15909716 -0.009404947 -0.26998886
0.13093498 -0.1522937 -0.13200358 0.27906668 0.012489859 0.14586309 -0.23334703 0.044760574
0.17052417 -0.18031824 0.05781687 0.014628162 -0.08037766 0.072487816 -0.015093053 -0.16443239
-0.07138198 0.09910626 0.090603784 0.13182308 0.0042463383 -0.058230646 0.036155693 0.061766334
0.14393811 -0.01830844 0.06219661 0.066538274 -0.113343626 0.17106704 -0.21460123 -0.07346558
0.07379522 -0.072757505 0.032326173 0.04284536 -0.26036328 0.32899442 -0.23578864 0.089294784
0.17493248 -0.07767899 -0.07803761 0.11600048 0.02315536 -0.15332387 -0.011698552 0.07670082
-0.16546547 0.10086121 -0.13091075 0.04639869 0.002904384 0.22149988 0.1356276 0.026039425
0.16787098 0.20788416 0.0016069628 0.019177042 -0.16748634 -0.16094646 0.023229908 0.04820932
-0.1829577 0.06891296 0.13651711 0.20387691 0.037956692 0.043873314 -0.06673171 -0.07086035
0.018131247 -0.05836181 0.10813699 0.036695626 -0.06541677 0.15745938 0.084967144 0.08023689
00000000: 533f fa3d 232f 603d af4b 83be 400d ac3d
00000010: ab93 80bd 51b3 a8bd 00bd 903e 44ee 45bd
00000020: 9532 fcbd 98e7 54bc bc22 f23c bb54 92be
00000030: 41ac 233d a818 6bbd e108 0bbe 0fe5 e6bd
00000040: eedd d13d ac6c 04be 9802 02be 7740 5e3d
00000050: 9443 75bd 396f 873d ed37 fbbd 042d ce3d
00000060: 0c44 cebc 0099 163d d09c 09bd 84bf 65be
00000070: ec36 f23d 7545 163e 38af 3bbe add0 823d
00000080: 6205 bfbd 8b1e 49be dcb2 5d3e 2689 29be
00000090: c619 0fbe 73c9 4d3e 6928 253d 9439 2d3d
000000a0: 7a4e 6bbe 4e76 94bb cd5f 9d3e 80be b6bd
000000b0: c8fe 76bc 400a 2f3e f7b3 efbd d053 deb9
000000c0: 4fa8 0bbe cca1 06be aa11 6dbd bf33 473e
000000d0: 0023 e53c 4277 393e a433 2abd 42c7 5b3d
000000e0: aec4 2fbc 09f5 513e 971f af3d 3bd0 463e
000000f0: f153 4cbd 2480 1a3e b5e7 f0bd 3a08 723e
00000100: a15f 35be 7083 08be 57b6 1bbd cdf4 f6bd
00000110: dd30 d2bd b03c af3c 8caa eabd 67f5 773e
00000120: 839f a1bd 05a6 9bbd 2e50 473e ff1f 3bbd
00000130: 04ab e3bd 2a68 8c3d db70 973d b551 80be
00000140: 5d74 123e 1992 393e e6e0 0abe 4823 0fbc
00000150: 3953 3bbe fee0 d0bb ddf5 9abc 127c 773e
00000160: 4fe3 33bd 772c 57bd 0087 903e 597d 9c3d
00000170: 1e18 dd3c 29f3 4f3e 9d7d 43be e1cd 6bbe
00000180: 22c4 383e e1c0 153e 47cb 5ebe 2e2d 8cbd
00000190: 51ca dc3d 42e0 363e 1f12 663d b653 323e
000001a0: 7b95 963d ea3d ec3d fa94 ac3d d4bc 573b
000001b0: d8ff 2b3c b255 d8bd 42f9 49bd cf78 433d
000001c0: f7d4 84bc b985 4c3e 3409 f63c 9dc8 233e
000001d0: 1c68 e1bb 686a 853d 0fa6 533e 1229 8abe
000001e0: 220a efbd 0ab0 15be 1ffd e1bc 44cb acbd
000001f0: 5c4c 173e 65a8 42bd 558a cdbd f6cd 8fbd
00000200: 69d6 233f 4732 283f d81a 7dbd d3d8 fe3e
00000210: 60a7 a83e e9b5 c33e fa2c ee3e 1687 bebd
00000220: 5260 1b3f 983c 313f 7194 3c3f b2b1 3d3f
00000230: 6d4c 1f3f 1ac2 2f3f 56dd fb3d efd0 943d
00000240: 4fb7 a1be 65d6 8f3b b4dd 443d 1629 933d
00000250: 642c 823e 83e4 ccbd 4578 a7bb e8b5 58bc
00000260: 4da5 97bd 9374 23be 96e6 753e a00a c63c
00000270: a5ab ebbd 37f7 64bd 3da5 303e ffc7 bebd
00000280: be31 29be b935 643d 785c 49bd 0770 48bd
00000290: 56eb fcbd 2a9b 053e 43c3 6abd 68e4 ad3c
000002a0: 4c3e 9f3d 13d6 9cbe cb10 ff3d 8f3b 4d3e
000002b0: 9433 eabd 5eea 223e 3517 1abc fb3b 8abe
000002c0: d213 063e e1f2 1bbe f22b 07be d4e1 8e3e
000002d0: 44a2 4c3c 225d 153e 86f2 6ebe dd56 373d
000002e0: e39d 2e3e 58a5 38be 62d1 6c3d f5aa 6f3c
000002f0: 0b9d a4bd 7e74 943d da48 77bc f760 28be
00000300: b730 92bd 39f8 ca3d 7a8e b93d a1fc 063e
00000310: de24 8b3b 4283 6ebd fe17 143d b2fe 7c3d
00000320: 8364 133e 95fb 95bc dfc1 7e3d 3845 883d
00000330: b420 e8bd 332c 2f3e 6dc0 5bbe 1f75 96bd
00000340: f321 973d e301 95bd 7368 043d 9e7e 2f3d
00000350: 564e 85be f571 a83e 9472 71be 2fe0 b63d
00000360: 8021 333e 2a16 9fbd 2fd2 9fbd a991 ed3d
00000370: 4fb0 bd3c ef00 1dbe 49ab 3fbc 5215 9d3d
00000380: c86f 29be 5290 ce3d 780d 06be 8e0c 3e3d
00000390: 7a57 3e3b ddd0 623e f6e1 0a3e a250 d53c
000003a0: 5fe6 2b3e 96df 543e b9a0 d23a 2c19 9d3c
000003b0: 8a81 2bbe 26cf 24be a64c be3c 2377 453d
000003c0: 4359 3bbe 3d22 8d3d 24cb 0b3e 1cc5 503e
000003d0: 7a78 1b3d 81b4 333d a3aa 88bd 3b1f 91bd
000003e0: fb87 943c cb0c 6fbd ed76 dd3d 274e 163d
000003f0: 3af9 85bd 083d 213e 4103 ae3d 3d53 a43d

fc1.bias f4 [256]
0.7384571 0.6929269 0.78950685 0.6883057 0.70159364 0.7529725 0.6784073 0.69176733
0.68053854 0.7661674 0.69648886 0.72720784 0.7992459 0.7247112 0.67817664 0.626581
0.7662812 0.755722 0.73544574 0.6398826 0.6786764 0.7255357 0.64792883 0.8037882
0.74084085 0.76901007 0.71318144 0.71795493 0.79224217 0.7138859 0.67188567 0.6952482
0.68746763 0.727993 0.66719425 0.70020145 0.7288369 0.6576646 0.7733272 0.7810835
0.65735084 0.6594783 0.70241636 0.7526777 0.7236904 0.6901249 0.7218423 0.6812622
0.71585715 0.7811423 0.6330572 0.71905667 0.7335566 0.70881945 0.69039357 0.7942792
0.73794484 0.7614554 0.70766914 0.7349937 0.69899136 0.6550883 0.69087094 0.70162874
0.7287268 0.76766586 0.72045213 0.69503474 0.7512774 0.6554979 0.78460014 0.74473476
0.7575719 0.72952265 0.8053772 0.7814878 0.791505 0.7247516 0.8023375 0.7319074
0.717837 0.7412698 0.8022807 0.66906685 0.7776391 0.6426559 0.7184448 0.7026182
0.6621444 0.73972684 0.7702685 0.6420972 0.7036286 0.7719378 0.6591992 0.7627444
0.7415227 0.7598669 0.6834518 0.64600146 0.68368864 0.7660652 0.6672779 0.661724
0.7371674 0.76375806 0.67920053 0.710907 0.69999975 0.7410367 0.6608248 0.77222747
0.67340916 0.66773236 0.7806851 0.64496475 0.768326 0.8092495 0.67400855 0.7908483
0.77974516 0.7601775 0.691428 0.7536483 0.6914235 0.7124389 0.65462613 0.7793102
0.7586662 0.6598409 0.734578 0.68528986 0.67046463 0.6948802 0.6962796 0.68287826
0.6536327 0.63063514 0.75546265 0.6399096 0.6473212 0.6430269 0.77296126 0.78109187
0.79490745 0.7692101 0.698961 0.7231988 0.6401814 0.65648973 0.7436303 0.74463993
0.68880737 0.78360695 0.6819109 0.7583049 0.7578418 0.7758691 0.6885997 0.6711256
0.7033464 0.6814199 0.61985093 0.71994925 0.75960606 0.72244143 0.7336555 0.661916
0.77597314 0.7702909 0.674345 0.68409866 0.77987325 0.67141104 0.75968105 0.7647338
0.708206 0.6816563 0.7699543 0.72138757 0.7128281 0.6544266 0.7654115 0.68241626
0.769783 0.7227396 0.73562753 0.6365309 0.71819484 0.79257756 0.73784107 0.7451944
0.7186993 0.6575532 0.7885953 0.74180484 0.73231256 0.78983563 0.7539465 0.6901783
0.6928847 0.7114786 0.75449336 0.6565794 0.7978545 0.7909737 0.6650269 0.69223803
0.7994983 0.6177373 0.75515795 0.73749226 0.7602576 0.74075794 0.6597778 0.65700924
0.67514634 0.64170796 0.76981896 0.67545545 0.65706813 0.6896823 0.67188734 0.6634685
0.7468542 0.67633903 0.77933186 0.765991 0.7326216 0.66993356 0.63798213 0.76812154
0.76579106 0.76152897 0.709368 0.72583926 0.67611325 0.72175103 0.7861461 0.77480817
0.7728199 0.7485004 0.75293463 0.66423815 0.69935656 0.6620768 0.79729605 0.6424696
0.66923594 0.71340317 0.7062973 0.6137521 0.804444 0.72217375 0.6739051 0.6510304
00000000: 860b 3d3f a863 313f 1f1d 4a3f cd34 303f
00000010: a49b 333f cec2 403f 1aac 2d3f aa17 313f
00000020: c637 2e3f 8c23 443f 184d 323f 4b2a 3a3f
00000030: 619b 4c3f ac86 393f fc9c 2d3f 9d67 203f
00000040: 012b 443f ff76 413f 2c46 3c3f 59cf 233f
00000050: bdbd 2d3f b5bc 393f aade 253f 10c5 4d3f
00000060: bfa7 3d3f d8dd 443f 0f93 363f e5cb 373f
00000070: 62d0 4a3f 3ac1 363f b300 2c3f c9fb 313f
00000080: e1fd 2f3f c05d 3a3f 3ecd 2a3f 6740 333f
00000090: 0e95 3a3f b55c 283f c5f8 453f 17f5 473f
000000a0: 2548 283f 92d3 283f 8fd1 333f 7caf 403f
000000b0: c643 393f 07ac 303f a8ca 383f 3367 2e3f
000000c0: 6a42 373f f1f8 473f 0910 223f 1914 383f
000000d0: 5eca 3b3f 3175 353f a2bd 303f e255 4b3f
000000e0: f4e9 3c3f beee 423f ce29 353f 8c28 3c3f
000000f0: 19f1 323f deb3 273f ebdc 303f f19d 333f
00000100: d78d 3a3f c085 443f 8d6f 383f cced 313f
00000110: b753 403f b6ce 273f 8edb 483f f0a6 3e3f
00000120: 3bf0 413f ffc1 3a3f 332d 4e3f 960f 483f
00000130: 12a0 4a3f 5289 393f fe65 4d3f 495e 3b3f
00000140: 2ac4 373f dcc3 3d3f 4562 4d3f f747 2b3f
00000150: 5b13 473f 1985 243f 00ec 373f c9de 333f
00000160: 4c82 293f bd5e 3d3f 5130 453f 7b60 243f
00000170: 0121 343f b79d 453f 47c1 283f 3843 433f
00000180: 6fd4 3d3f a386 423f b2f6 2e3f 5a60 253f
00000190: 3806 2f3f d91c 443f b9d2 2a3f be66 293f
000001a0: 01b7 3c3f a685 433f 16e0 2d3f 00fe 353f
000001b0: 2f33 333f 95b4 3d3f d02b 293f b3b0 453f
000001c0: 8b64 2c3f 82f0 2a3f fbda 473f 691c 253f
000001d0: 03b1 443f fa2a 4f3f d38b 2c3f 0975 4a3f
000001e0: 619d 473f fe9a 423f 6d01 313f 18ef 403f
000001f0: 2101 313f 6562 363f 9495 273f e080 473f
00000200: f337 423f 55eb 283f 4e0d 3c3f 286f 2f3f
00000210: 92a3 2b3f abe3 313f 613f 323f 1cd1 2e3f
00000220: 7954 273f 4e71 213f 0066 413f 1ed1 233f
00000230: d8b6 253f 699d 243f cae0 453f a3f5 473f
00000240: 0e7f 4b3f f4ea 443f 1cef 323f 8e23 393f
00000250: eee2 233f b60f 283f 8e5e 3e3f b9a0 3e3f
00000260: ae55 303f 779a 483f b691 2e3f 4520 423f
00000270: ec01 423f 5b9f 463f 1248 303f e3ce 2b3f
00000280: 820e 343f 8971 2e3f 8dae 1e3f 984e 383f
00000290: 8b75 423f ecf1 383f d9d0 3b3f 5473 293f
000002a0: 2da6 463f c931 453f e0a1 2c3f 1721 2f3f
000002b0: c6a5 473f 98e1 2b3f 757a 423f 98c5 433f
000002c0: fd4c 353f 0781 2e3f ba1b 453f dbac 383f
000002d0: e77b 363f 8088 273f 02f2 433f d5b2 2e3f
000002e0: 8010 453f 7605 393f 1652 3c3f b0f3 223f
000002f0: 9edb 373f 5de6 4a3f 27e3 3c3f 0fc5 3e3f
00000300: adfc 373f 6855 283f 62e1 493f ece6 3d3f
00000310: d678 3b3f ab32 4a3f a302 413f 86af 303f
00000320: e460 313f 7623 363f 7a26 413f 9615 283f
00000330: 3140 4c3f 417d 4a3f 343f 2a3f 8336 313f
00000340: ecab 4c3f 0824 1e3f 0852 413f 4bcc 3c3f
00000350: 3ea0 423f 50a2 3d3f 33e7 283f c231 283f
00000360: 64d6 2c3f f946 243f db12 453f a6ea 2c3f
00000370: 9e35 283f 058f 303f cf00 2c3f 12d9 293f
00000380: d631 3f3f 8e24 2d3f 4b82 473f fc17 443f
00000390: 178d 3b3f c480 2b3f cc52 233f 9da3 443f
000003a0: e20a 443f 90f3 423f 2499 353f 9ad0 393f
000003b0: c215 2d3f adc4 383f df40 493f d459 463f
000003c0: 86d7 453f b99d 3f3f 53c0 403f 830b 2a3f
000003d0: 0809 333f dd7d 293f 981b 4c3f e378 243f
000003e0: 0c53 2b3f 97a1 363f e6cf 343f dc1e 1d3f
000003f0: 0bf0 4d3f 61e0 383f 0b85 2c3f eea9 263f

fc2.weight f4 [256, 256]
-0.0639301 -0.028805556 0.006984502 -0.017957235 0.033613533 0.0124020325 -0.064644605 0.014021455
-0.047802445 0.011257333 0.021374028 0.036548913 0.045153413 -0.022876522 0.031928025 -0.005342958
0.031292677 0.013562388 0.016814014 -0.05582223 -0.038954116 -0.068237185 -0.03298888 0.0231121
0.043086637 0.01609626 0.041887157 0.04449219 0.029538013 0.01576344 -0.026086967 -0.03375131
-0.06876043 -0.01994355 -0.008649902 0.039053034 0.043195926 -0.03173226 0.027235698 0.03834135
0.04674171 -0.045498915 -0.04487281 -0.005745098 -0.014823662 0.035547517 -0.062726006 -0.039266422
-0.0040750653 -0.00737152 0.006502517 0.025113812 -0.05059709 -0.019233137 0.0061451863 0.032485496
-0.017781833 -0.015259246 -0.004241267 -0.035957936 0.037002034 0.0014048372 0.035017874 0.013928787
-0.0517175 -0.05441893 0.0056555057 -0.030279078 -0.052253496 -0.02071405 -0.006843822 -0.044081055
-0.057023015 0.025132243 -0.065752916 0.0058577904 0.0032247808 0.04311685 -0.0058743395 0.030737825
0.03760597 -0.03159911 -0.0025580563 0.008975079 0.04964574 0.05117892 0.024914762 0.03262123
0.029974284 0.052141074 -0.012616471 0.04696471 -0.01104502 -0.03621676 0.038160834 -0.014865606
0.03096397 0.017370261 -0.007971282 0.03014986 -0.011030475 -0.056364626 0.028766474 0.037826404
0.04078455 0.025491688 -0.024071466 -0.0012218709 -0.0043166797 -0.014724539 -0.027161364 -0.06273389
0.016632216 -0.008984397 0.042528402 -0.03893489 0.046827137 -0.042398855 0.040019765 -0.018566763
0.019099146 -0.027350672 -0.0072468477 0.02236347 0.01455682 -0.046365492 0.029256623 -0.00047551596
-0.044652183 0.024155067 -0.016402043 -0.017510027 -0.018015409 -0.0031786873 -0.019613372 0.041570127
0.06056034 0.00757519 -0.05874741 0.036187828 0.02986142 -0.004978183 -0.005674571 -0.044033796
0.02231596 -0.016187124 -0.051788762 -0.02199687 0.027336234 -0.024110835 -0.036438175 -0.04237052
0.011785695 -0.06257192 -0.036727827 -0.05795181 -0.032247163 0.01569526 0.009391578 -0.05951634
-0.026727151 -0.0121265035 0.052323855 -0.017066443 0.014920683 0.03920127 0.018541533 0.038227484
-0.050766762 -0.044119705 0.04859707 0.049387686 -0.055237703 -0.033491958 -0.031938896 -0.071526535
0.014345859 -0.029007422 -0.02064107 0.0052409642 -0.05089742 -0.010961295 0.007895717 0.025965527
-0.05063313 -0.042861626 0.01255485 -0.01323874 -0.042235427 -0.0048240717 -0.004669488 -0.016054733
0.045051917 -0.039823785 0.042123597 0.026792344 -0.036467526 -0.058031067 0.04853344 -0.06808805
-0.024307806 -0.039868984 -0.0132501805 0.047712635 -0.06848336 -0.0075586974 -0.0074497503 -0.03984269
0.0115675945 0.04909545 -0.05852022 -0.006864642 0.037169065 0.008003197 -0.023992375 0.023553103
0.02749556 -0.07532904 0.0077816807 -0.01852694 0.01567785 -0.00028692273 -0.045624312 0.007913426
0.023401644 -0.008541565 -0.0071806493 0.003611953 0.041161142 -0.020227794 -0.05286585 -0.04904641
0.015945897 -0.028854273 -0.049778465 0.012591159 0.0039119157 -0.023969138 -0.06554132 -0.054732297
-0.050682813 -0.05121363 0.0035647869 -0.023444798 -0.040200535 0.025902338 -0.043229155 -0.0065890015
0.02312321 -0.008687462 -0.042805705 -0.0062185097 -0.015942711 -0.014152649 -0.04068884 -0.040508192
00000000: c9ed 82bd a1f9 ebbc 40de e43b 0d1b 93bc
00000010: 58ae 093d e531 4b3c 6464 84bd 3fba 653c
00000020: 7fcc 43bd ad70 383c 9618 af3c 50b4 153d
00000030: c9f2 383d 8b67 bbbc f6c6 023d fb13 afbb
00000040: c02c 003d c734 5e3c 8bbd 893c daa5 64bd
00000050: 5a8e 1fbd f0bf 8bbd 591f 07bd 9655 bd3c
00000060: 9d7b 303d 4edc 833c de91 2b3d 713d 363d
00000070: b4f9 f13c 5422 813c 56b4 d5bc d03e 0abd
00000080: 45d2 8cbd a860 a3bc 52b8 0dbc 13f6 1f3d
00000090: 36ee 303d b0f9 01bd 661d df3c d20b 1d3d
000000a0: 3c74 3f3d 125d 3abd 8dcc 37bd 6041 bcbb
000000b0: f2de 72bc 469a 113d 7e76 80bd d4d5 20bd
000000c0: 2088 85bb cb8c f1bb 1113 d53b 7bbb cd3c
000000d0: e53e 4fbd d08e 9dbc 8f5d c93b 830f 053d
000000e0: 35ab 91bc eb01 7abc 54fa 8abb a148 13bd
000000f0: 728f 173d 8422 b83a e76e 0f3d 9135 643c
00000100: bbd5 53bd 62e6 5ebd d251 b93b d40b f8bc
00000110: c307 56bd 83b0 a9bc 2442 e0bb 568e 34bd
00000120: f790 69bd 22e2 cd3c 77a9 86bd b5f2 bf3b
00000130: d856 533b 4b9b 303d 887d c0bb e4cd fb3c
00000140: b808 1a3d 126e 01bd 10a5 27bb 360c 133c
00000150: 5559 4b3d fda0 513d 0b1a cc3c d79d 053d
00000160: a18c f53c e191 553d 51b5 4ebc 115e 403d
00000170: 2cf6 34bc 0658 14bd 894e 1c3d df8e 73bc
00000180: 27a8 fd3c 144c 8e3c fb99 02bc d7fc f63c
00000190: 2ab9 34bc 98de 66bd aba7 eb3c dcef 1a3d
000001a0: b30d 273d f2d3 d03c 8631 c5bc 2f27 a0ba
000001b0: ef72 8dbb 313f 71bc 8281 debc a07a 80bd
000001c0: 4940 883c 4b33 13bc 4332 2e3d 317a 1fbd
000001d0: d0cd 3f3d 6caa 2dbd c4eb 233d 5319 98bc
000001e0: d075 9c3c 840e e0bc f776 edbb 9933 b73c
000001f0: ba7f 6e3c bee9 3dbd 96ab ef3c ac4e f9b9
00000200: 35e5 36bd d9e0 c53c 945d 86bc 3071 8fbc
00000210: 0d95 93bc 8651 50bb 39ac a0bc 7045 2a3d
00000220: 1e0e 783d 4d39 f83b 20a1 70bd b039 143d
00000230: f09f f43c 0720 a3bb c0f1 b9bb c85c 34bd
00000240: f6cf b63c dc9a 84bc 7420 54bd c832 b4bc
00000250: 3df0 df3c 1684 c5bc 3240 15bd b68c 2dbd
00000260: ca18 413c b525 80bd eb6f 16bd e15e 6dbd
00000270: 9a15 04bd 5993 803c 22df 193c 68c7 73bd
00000280: e6f2 dabc 3eae 46bc 8a51 563d edce 8bbc
00000290: e175 743c 8391 203d 6ae4 973c 6c94 1c3d
000002a0: cff0 4fbd ddb6 34bd b90d 473d be4a 4a3d
000002b0: ee40 62bd dd2e 09bd 5cd2 02bd 817c 92bd
000002c0: e50a 6b3c f9a0 edbc 7617 a9bc 65bc ab3b
000002d0: d079 50bd 0197 33bc 0a5d 013c a8b5 d43c
000002e0: af64 4fbd ac8f 2fbd dcb2 4d3c 4de7 58bc
000002f0: 0eff 2cbd 3f13 9ebb 8102 99bb 3785 83bc
00000300: 5c88 383d 441e 23bd cb89 2c3d 9e7b db3c
00000310: f95e 15bd fcb1 6dbd 00cb 463d bf71 8bbd
00000320: 2a21 c7bc a94d 23bd 4917 59bc 536e 433d
00000330: 0141 8cbd f3ae f7bb 091d f4bb 1732 23bd
00000340: 0286 3d3c 5018 493d e6b2 6fbd caf0 e0bb
00000350: 973e 183d d71f 033c a88b c4bc 70f2 c03c
00000360: 5e3e e13c 1d46 9abd 78fd fe3b cfc5 97bc
00000370: d66e 803c 1e6e 96b9 8fe0 3abd 50a7 013c
00000380: ceb4 bf3c ecf1 0bbc a74b ebbb 84b6 6c3b
00000390: 9698 283d c2b4 a5bc dd89 58bd e3e4 48bd
000003a0: f8a0 823c cc5f ecbc 81e4 4bbd 264b 4e3c
000003b0: 872f 803b ed5a c4bc 873a 86bd f92e 60bd
000003c0: c898 4fbd 62c5 51bd 339f 693b 4e0f c0bc
000003d0: 51a9 24bd 2431 d43c 0e11 31bd 8de8 d7bb
000003e0: e36c bd3c db55 0ebc 0955 2fbd a4c4 cbbb
000003f0: 4a9a 82bc 83e0 67bc 57a9 26bd ebeb 25bd

fc2.bias f4 [256]
-0.07423281 0.05501608 0.40281925 0.0028781982 0.39195317 0.37524578 0.4507586 0.3716067
0.5206389 -0.02179167 0.43070564 0.41896975 0.37449795 0.3697164 0.3357009 0.34100795
0.36435512 0.04854136 -0.013860285 -0.028896585 0.3633433 -0.07008657 0.33020324 -0.060371324
0.033281498 -0.015264934 0.2925942 0.47816586 -0.024122557 0.47766834 0.36803097 0.43427187
0.42812586 0.39303458 -0.06889658 0.46269956 0.44100922 -0.04181919 -0.007171965 0.42035273
0.04465329 -0.041695796 0.3533601 0.39295805 0.03930495 0.40185666 0.030667735 -0.028747506
-0.050673023 0.28725052 0.40650725 -0.017015275 0.5380354 0.33981106 0.5762084 0.3210698
0.44684324 0.49585783 0.29006213 0.49339008 0.3980216 0.44153938 0.45397353 0.3108353
0.4684998 -0.04510935 -0.04069652 0.4518226 0.0019817203 0.4307225 0.35889465 0.4443495
-0.07355033 0.3452707 0.3625481 0.406941 0.42946914 -0.026328996 -0.021397792 0.4405143
0.34459415 -0.061139572 0.0032342477 0.2747534 -0.020176664 0.016654342 -0.0010473042 0.30655146
0.40504178 0.34557202 0.47158962 -0.0073719746 0.38380173 0.3649112 0.46812505 -0.07422094
0.061182786 0.5679932 0.0007504507 -0.06338806 -0.0136536155 -0.03856782 -0.0154925035 -0.010036836
-0.03609419 0.54334384 0.42708087 0.010288541 0.013310464 0.28483567 -0.031371564 0.18408997
-0.005651531 0.4376452 0.011190841 -0.013726097 0.36091802 -0.009221511 0.4035837 0.007752884
0.41977805 0.46697837 0.38668007 0.007635401 0.0072241053 0.39847553 0.43277815 0.028616782
-0.018070886 0.44544595 0.31966555 0.020078816 0.38281932 0.014563261 -0.013748107 0.27170694
0.021646902 0.35730365 0.049820676 -0.047531076 0.3820964 0.2568455 -0.017095398 0.3363546
0.012390035 0.40755123 0.39825326 0.39588496 0.38593557 0.42084488 0.40060917 0.38432667
0.45003164 0.39583275 -0.0344972 -0.04350869 0.44002798 0.45874637 0.34564528 0.40745947
0.40000793 -0.038690694 -0.0644321 -0.05225837 -0.05148303 0.322302 0.41667497 -0.06384033
0.4155957 0.38618416 0.50830084 0.016238246 0.045383148 -0.00094384514 -0.044148777 -0.0065173777
0.46918118 0.39056715 0.43422312 0.54707247 -0.0057759583 -0.061559904 0.56653166 0.021033993
0.33114514 0.46291962 0.50290155 0.048515476 0.4986707 0.4563246 0.007176417 -0.056679316
0.3779903 0.03448712 -0.00052733236 0.41773537 0.38879895 -0.06504884 0.40243438 0.03603714
0.4668455 0.44345424 0.39447054 0.46688157 0.3367111 -0.04884165 0.39899817 0.37335843
0.37705186 0.43853912 -0.039470114 0.34965017 0.41927713 0.39370304 0.02306495 0.3780675
-0.018733455 0.46753663 0.04833394 0.2779569 -0.051283494 0.37637508 0.36298373 -0.044407047
0.3990784 0.028914053 0.4799573 0.013760404 0.44090933 -0.01292369 -0.0037861604 0.017740926
-0.010275139 0.47456154 0.2986855 -0.009737811 -0.054461993 0.42554784 0.28651392 -0.008279357
0.2723125 -0.038926147 -0.03465604 0.47533613 0.40624258 0.437613 0.5025829 0.028435366
-0.0136485165 0.41127223 0.31858268 0.38870513 0.22178675 0.3420868 0.033763435 0.025178732
00000000: 5f07 98bd 8b58 613d 533e ce3e 27a0 3c3b
00000010: 16ae c83e 3720 c03e d5c9 e63e 3c43 be3e
00000020: 9748 053f 7284 b2bc 7385 dc3e 3483 d63e
00000030: 32be bf3e 784b bd3e fde0 ab3e 9898 ae3e
00000040: c18c ba3e 4ed3 463d 4016 63bc 88b8 ecbc
00000050: 2208 ba3e 8c89 8fbd 6610 a93e ec47 77bd
00000060: 2e52 083d c619 7abc e8ce 953e 28d2 f43e
00000070: ab9c c5bc f290 f43e 8e6e bc3e e258 de3e
00000080: 5033 db3e d43b c93e a619 8dbd f5e6 ec3e
00000090: f6cb e13e 994a 2bbd ce02 ebbb 7938 d73e
000000a0: 5ee6 363d 36c9 2abd 9deb b43e cc31 c93e
000000b0: 3afe 203d 28c0 cd3e e73a fb3c e47f ebbc
000000c0: 848e 4fbd 8012 933e b821 d03e 9e63 8bbc
000000d0: b0bc 093f b7fb ad3e 6582 133f 4363 a43e
000000e0: a3c8 e43e 14e1 fd3e 0683 943e a09d fc3e
000000f0: 7dc9 cb3e 7311 e23e 386f e83e ce25 9f3e
00000100: 35df ef3e 95c4 38bd 65b1 26bd 4b55 e73e
00000110: c0df 013b a987 dc3e 0ac1 b73e c781 e33e
00000120: 8ea1 96bd 52c7 b03e e89f b93e 925a d03e
00000130: 61e3 db3e e8af d7bc 6c4a afbc 178b e13e
00000140: a56e b03e 7d6d 7abd acf5 533b 7aac 8c3e
00000150: 8849 a5bc b06e 883c b345 89ba 50f4 9c3e
00000160: a361 cf3e d1ee b03e 3274 f13e 9b90 f1bb
00000170: a981 c43e a4d5 ba3e 16ae ef3e 2601 98bd
00000180: cd9a 7a3d 0168 113f e5b9 443a 99d1 81bd
00000190: 6ab3 5fbc 4af9 1dbd 45d4 7dbc 8b71 24bc
000001a0: 80d7 13bd 9518 0b3f 58aa da3e 4591 283c
000001b0: 2214 5a3c fbd5 913e 787f 00bd 1582 3c3e
000001c0: 7a30 b9bb 0813 e03e ca59 373c 6ce3 60bc
000001d0: 3fca b83e d215 17bc 86a2 ce3e e80b fe3b
000001e0: 26ed d63e ca17 ef3e eefa c53e 6332 fa3b
000001f0: 30b8 ec3b fc04 cc3e 1995 dd3e be6d ea3c
00000200: 6509 94bc 7e11 e43e 34ab a33e 547c a43c
00000210: e500 c43e be9a 6e3c bd3f 61bc 2c1d 8b3e
00000220: d854 b13c 81f0 b63e c410 4c3d f2af 42bd
00000230: 24a2 c33e 4181 833e a60b 8cbc ac36 ac3e
00000240: 93ff 4a3c 8eaa d03e dae7 cb3e 6fb1 ca3e
00000250: 5999 c53e fb78 d73e a51c cd3e 77c6 c43e
00000260: 8c6a e63e 97aa ca3e f04c 0dbd 2b36 32bd
00000270: 594b e13e cee0 ea3e 6bf8 b03e 879e d03e
00000280: d7cd cc3e 227a 1ebd faf4 83bd df0c 56bd
00000290: dfdf 52bd c504 a53e 6c56 d53e b8be 82bd
000002a0: f6c8 d43e eeb9 c53e 0120 023f 1206 853c
000002b0: aee3 393d 606c 77ba 59d5 34bd ba8f d5bb
000002c0: 8438 f03e 6bf8 c73e 7e52 de3e f10c 0c3f
000002d0: 4044 bdbb 3d26 7cbd 3808 113f 7b4f ac3c
000002e0: db8b a93e cd03 ed3e 28be 003f 2ab8 463d
000002f0: c451 ff3e 61a3 e93e 2628 eb3b 9228 68bd
00000300: f287 c13e 5e42 0d3d ad3c 0aba 69e1 d53e
00000310: a810 c73e 5438 85bd e10b ce3e ae9b 133d
00000320: 6006 ef3e 6f0c e33e 0bf8 c93e 1a0b ef3e
00000330: 6665 ac3e 2f0e 48bd 7d49 cc3e d628 bf3e
00000340: f10c c13e 3388 e03e 6aab 21bd 5905 b33e
00000350: 7eab d63e 7293 c93e b5f2 bc3c 1092 c13e
00000360: e776 99bc f660 ef3e cff9 453d 5e50 8e3e
00000370: a40e 52bd 3cb4 c03e 01d9 b93e 2ae4 35bd
00000380: 0154 cc3e 2add ec3c f7bc f53e 5173 613c
00000390: debe e13e e2bd 53bc 3b21 78bb 6b55 913c
000003a0: 0e59 28bc bbf9 f23e 4eed 983e 578b 1fbc
000003b0: 8a13 5fbd 68e1 d93e f4b1 923e 24a6 07bc
000003c0: 8b6c 8b3e 0671 1fbd 7ef3 0dbd 425f f33e
000003d0: 07ff cf3e d00e e03e 46a9 003f 49f1 e83c
000003e0: 079e 5fbc 4692 d23e 451d a33e 5c04 c73e
000003f0: 111c 633e 0026 af3e 874b 0a3d a143 ce3c

logits.weight f4 [10, 256]
-0.013683192 0.018446868 0.03180957 -0.010871434 0.06936433 0.051090755 0.10265474 0.024400681
0.095318586 0.020335047 0.06705181 -0.012487794 -0.017230228 0.07570375 0.04355551 -0.0061171795
0.07933415 0.014851717 0.009092359 -0.03973574 -0.00974834 -0.008340361 0.028796 -0.014602067
0.023164192 0.0035119192 -0.0052474313 0.058551915 -0.049882855 0.06636584 0.005753127 0.08625275
0.045187563 0.00928832 0.034275502 -0.012085029 0.02425883 0.025466163 0.01076098 0.08772652
0.041115485 0.05410971 0.0128721865 -0.0053693326 -0.008845078 1.6962003e-05 -0.052682444 0.011675209
-0.048235804 0.038690597 0.097542465 -0.046296936 0.09651014 -0.0018892095 0.04990394 0.0678747
0.040848877 0.04110021 0.04570216 0.07267945 0.10310483 0.032849308 0.047867358 0.085262656
0.1006413 -0.027086293 0.026412237 0.00078200904 -0.046453044 -0.010877568 -0.01054581 0.08035501
-0.00212795 0.028569208 0.04660541 0.07358352 0.08416351 -0.049700137 -0.015394462 -0.010828155
0.009089945 0.008071751 -0.056074165 0.07710265 0.0033915697 -0.0533325 0.056692127 0.0043603326
0.01506558 0.049215868 0.090651385 -0.03740316 0.040265467 0.039512098 0.07622073 0.026004655
0.05981704 0.03145854 -0.002963737 -0.017727189 0.039718475 -0.05950471 0.0023817576 0.03329014
0.043187264 0.06915793 0.018344233 0.0035558688 -0.011600103 0.09892092 0.037184905 0.021145683
0.03190718 0.03915635 -0.069897465 0.0060587507 0.023949442 0.0031912164 0.096593626 -0.008831697
-0.010415467 0.054672442 0.024654327 -0.016590029 0.031591877 0.10150167 0.10241628 0.015966576
-0.011836949 0.059322715 -0.011036122 -0.0074099954 0.054470837 0.04547115 0.027380364 0.033435382
-0.0180178 0.07704488 0.05207091 -0.031070234 -0.014553953 0.068367444 -0.05446702 0.038588982
0.037906267 0.039874986 0.044819392 0.0995689 0.029129371 0.029006744 0.11037266 0.028695542
0.034347862 0.10040654 -0.0158673 0.018438231 0.014708181 0.011071104 0.10237449 0.043724954
0.09883478 0.019875115 -0.045893006 -0.0350844 0.0058406414 -0.006892139 0.06376576 0.007971633
0.055815272 0.054588493 0.080532245 0.04246786 -0.03847938 -0.047668435 -0.020198172 -0.021531435
0.054930855 0.0029358126 0.0056020063 -0.011745817 0.0080840485 -0.014052228 0.07095552 0.018589731
0.093612105 -0.0013060172 0.067518964 -0.049706027 0.021044476 0.10715566 0.05284406 0.043533877
0.10169427 0.00738229 0.027214747 0.08402108 0.06432593 -0.049913242 0.06976635 0.005969175
0.02947191 0.059483893 0.07380012 0.07113514 0.046646737 0.039550874 0.08371051 0.040135834
0.053017743 0.09662784 0.04198395 0.022017766 0.08476577 0.0021185798 0.057443883 0.039601635
-0.023436645 0.01694534 0.02097132 0.024736544 0.05720015 0.064468615 0.018354129 -0.019114146
0.10459342 -0.027719826 0.10876248 -0.02743943 0.023708189 0.040316902 0.008684448 -0.011299874
-0.056798656 0.0977255 0.07631879 -0.042201076 0.009861597 0.0003045164 0.025508884 -0.002894888
0.10664636 -0.016414898 0.02106171 0.06575585 0.020447018 0.022943363 0.06297676 0.0069052917
0.007510788 0.052685298 -0.0024750326 0.030366419 -0.009102425 0.009694091 0.038684312 0.00047820105
00000000: 782f 60bc e31d 973c c04a 023d 191e 32bc
00000010: e30e 8e3d 8a44 513d a63c d23d f0e3 c73c
00000020: 6436 c33d af95 a63c 7652 893d 9b99 4cbc
00000030: 6826 8dbc 910a 9b3d 4367 323d 9f72 c8bb
00000040: f179 a23d 9e54 733c 1ef8 143c f1c1 22bd
00000050: 80b7 1fbc 02a6 08bc 97e5 eb3c 823d 6fbc
00000060: d5c2 bd3c 3a28 663b a5f2 abbb 22d4 6f3d
00000070: f751 4cbd d0ea 873d ba84 bc3b 48a5 b03d
00000080: 9816 393d 0a2e 183c 7864 0c3d 4900 46bc
00000090: 74ba c63c 6a9e d03c d24e 303c f6a9 b33d
000000a0: b668 283d 25a2 5d3d dde5 523c 3af1 afbb
000000b0: f2ea 10bc a049 8e37 8cc9 57bd 6049 3f3c
000000c0: e892 45bd 087a 1e3d 58c4 c73d dba1 3dbd
000000d0: 1ca7 c53d 5a9f f7ba 1368 4c3d e401 8b3d
000000e0: 2751 273d b258 283d 3032 3b3d f7d8 943d
000000f0: a028 d33d ff8c 063d 9010 443d 309e ae3d
00000100: 071d ce3d 13e4 ddbc 7a5e d83c bdff 4c3a
00000110: 8c45 3ebd d437 32bc 55c8 2cbc 2b91 a43d
00000120: 1475 0bbb f909 ea3c 50e5 3e3d f5b2 963d
00000130: eb5d ac3d 5f92 4bbd 0e39 7cbc 9368 31bc
00000140: feed 143c 613f 043c 06ae 65bd ffe7 9d3d
00000150: 1945 5e3b 2e73 5abd 0136 683d 1fe1 8e3b
00000160: 9fd5 763c 9496 493d 6fa7 b93d 0e34 19bd
00000170: 67ed 243d 70d7 213d 9d19 9c3d b707 d53c
00000180: b602 753d acda 003d 413b 42bb 9c38 91bc
00000190: d7af 223d 36bb 73bd 4317 1c3b 3e5b 083d
000001a0: 21e5 303d aca2 8d3d a546 963c 9409 693b
000001b0: 5c0e 3ebc 0d97 ca3d 334f 183d b639 ad3c
000001c0: 1ab1 023d 6962 203d 6726 8fbd 7c88 c63b
000001d0: 9f31 c43c ba23 513b e1d2 c53d d2b2 10bc
000001e0: a3a5 2abc 36f0 5f3d dff7 c93c d0e7 87bc
000001f0: 7c66 013d 1ce0 cf3d a0bf d13d 56cc 823c
00000200: c3ef 41bc 60fc 723d dad0 34bc 8ccf f2bb
00000210: d01c 5f3d f53f 3a3d c94c e03c 8af3 083d
00000220: 119a 93bc b5c9 9d3d 4e48 553d 0187 febc
00000230: b473 6ebc 3b04 8c3d cf18 5fbd 7b0f 1e3d
00000240: 9a43 1b3d f453 233d 8a94 373d c8ea cb3d
00000250: b8a0 ee3c 8d9f ed3c 100b e23d ea12 eb3c
00000260: 58b0 0c3d f2a1 cd3d 24fc 81bc c60b 973c
00000270: 95fa 703c 9363 353c b7a9 d13d f018 333d
00000280: e469 ca3d 23d1 a23c 4efa 3bbd a9b4 0fbd
00000290: da62 bf3b 74d7 e1bb 9f97 823d 749b 023c
000002a0: 8e9e 643d 2f98 5f3d 17ee a43d c7f2 2d3d
000002b0: 8e9c 1dbd fa3f 43bd a376 a5bc b162 b0bc
000002c0: 2dff 603d c366 403b 0991 b73b 8771 40bc
000002d0: f572 043c 513b 66bc 2151 913d 7e49 983c
000002e0: b4b7 bf3d aa2e abba 6247 8a3d 8c98 4bbd
000002f0: 7765 ac3c 6d74 db3d 0373 583d 9450 323d
00000300: 1645 d03d 23e7 f13b 76f1 de3c 3e13 ac3d
00000310: 50bd 833d d471 4cbd a9e1 8e3d 1299 c33b
00000320: 136f f13c 62a5 733d 8424 973d 4daf 913d
00000330: a610 3f3d 1900 223d 6a70 ab3d 7965 243d
00000340: 2229 593d d1e4 c53d 5df7 2b3d 9a5e b43c
00000350: ad99 ad3d dfd7 0a3b 474a 6b3d 5335 223d
00000360: 35fe bfbc f4d0 8a3c 0ccc ab3c 4ba4 ca3c
00000370: b44a 6a3d 1f08 843d 665b 963c 4595 9cbc
00000380: 1335 d63d b014 e3bc ddbe de3d a8c8 e0bc
00000390: ad37 c23c 5623 253d 3749 0e3c 1b23 39bc
000003a0: b5a5 68bd 4f24 c83d 074d 9c3d 09db 2cbd
000003b0: 8992 213c 80a7 9f39 02f8 d03c 29b8 3dbb
000003c0: 6869 da3d 8978 86bc 9b89 ac3c 01ab 863d
000003d0: 8180 a73c b8f3 bb3c f6f9 803d c945 e23b
000003e0: 0e1d f63b 8acc 573d 2834 22bb ffc2 f83c
000003f0: 5622 15bc f7d3 1e3c 7173 1e3d 0fb7 fa39

logits.bias f4 [10]
0.06297652 0.022603644 0.046701547 0.074400306 0.024993097 -0.03247234 0.050430935 0.08232746
0.040121097 -0.3298307
00000000: d5f9 803d 472b b93c 1f4a 3f3d 305f 983d
00000010: 53be cc3c b701 05bd ab90 4e3d 4d9b a83d
00000020: 0556 243d 92df a8be
