policy_squad2_qf_v2.pt (torch, 417893 bytes, 6 tensors)

fc1.weight f4 [256, 142]
0	0xbc867cb3	-0.016416883
1	0x3e1b345b	0.15156691
2	0xbe7615ce	-0.24031755
3	0x3c88d708	0.016704097
4	0xbe0233a4	-0.12715012
5	0xbc0e5db3	-0.008689332
6	0xbdb570d6	-0.08859412
7	0x3d7c7807	0.061637904
8	0xbdceca61	-0.100971945
9	0xbdaf2c7c	-0.085534066
10	0x3df2cf74	0.11855975
11	0xbdc10096	-0.0942394
12	0x3de05940	0.10954523
13	0x3d44ff2b	0.04809491
14	0xbd3f4780	-0.046699047
15	0xbda60a5a	-0.08107443
16	0x3dd82f1b	0.1055586
17	0xbe446512	-0.1917918
18	0xbe5829a5	-0.21109636
19	0x3dc72574	0.097239405
20	0x3d8a24ac	0.06745276
21	0xbd2ed795	-0.042686064
22	0xbd617ed7	-0.055052605
23	0x3b915cf1	0.0044361283
24	0xbe832c8b	-0.2561992
25	0xbda711df	-0.081577055
26	0xbd09c4c5	-0.03363492
27	0x3e027991	0.12741686
28	0xbc6ba2f7	-0.014382116
29	0x3e473cec	0.19456834
30	0xbda2bf28	-0.079466164
31	0x3d9ddbf8	0.07707971
32	0x3d97c32f	0.07410275
33	0xb9904f4f	-0.0002752491
34	0x3d39edac	0.045392677
35	0xbc197cce	-0.009368135
36	0xbe17a39f	-0.1480851
37	0x3e77e156	0.24207053
38	0x3d3ef648	0.04662159
39	0x3cb8fe12	0.022582088
40	0x3e85093f	0.25983617
41	0xbb9e3d74	-0.004829103
42	0xbab6a562	-0.0013934786
43	0xbc039f83	-0.008033636
44	0x3dc5a954	0.096514374
45	0xbc71ddb3	-0.01476233
46	0xbc28c14c	-0.010299992
47	0x3de06a93	0.109578274
48	0x3c9ca271	0.019120427
49	0xbe0ed617	-0.13948856
50	0x3df308c0	0.11866903
51	0xbe033625	-0.12813623
52	0xbc0b826f	-0.0085149845
53	0x3e09f50a	0.13472381
54	0xbe0dfc8f	-0.13865875
55	0x3c1753bb	0.0092362715
56	0x3da0bbae	0.07848297
57	0x3d077fc9	0.03308085
58	0x3c82bf64	0.015960403
59	0x3caaeddd	0.020865375
60	0xbdb3b82f	-0.087753646
61	0xbdf54bbd	-0.119773366
62	0xbe645695	-0.22298653
63	0xbdb3b439	-0.08774609
64	0xbde959b4	-0.11394063
65	0xbe55dbe4	-0.20884663
66	0x3e3b7697	0.18306957
67	0x3da46857	0.08027714
68	0x3d373b2b	0.04473416
69	0xbd57f414	-0.052723005
70	0xbdb06379	-0.08612723
71	0x3d6adf08	0.057341605
72	0x3de4834f	0.111578576
73	0xbd2aa2d9	-0.04165921
74	0xbd723575	-0.05913301
75	0x3bf69afd	0.0075258003
76	0xbd84d799	-0.064864345
77	0x3dbebfd4	0.09313932
78	0xbdd300c1	-0.10302878
79	0xbdf0eee8	-0.11764318
80	0xbe48e873	-0.19619922
81	0xbcd75773	-0.026286816
82	0x3bbf43fb	0.0058369613
83	0x3e193b62	0.14964059
84	0x3dbc51fb	0.09195324
85	0x3e4639f7	0.1935805
86	0xbe43f316	-0.19135699
87	0xbd87469b	-0.06605264
88	0xbd6035bf	-0.054738756
89	0xbe1ccd25	-0.15312631
90	0x3e175a3b	0.14780514
91	0xbc5101c3	-0.012756768
92	0xbdd0a229	-0.101871796
93	0xbda4b214	-0.08041778
94	0xbd62eef2	-0.055403657
95	0x3d32394c	0.043511674
96	0xbda7d650	-0.08195174
97	0xbd2f0a01	-0.04273415
98	0xbc28a42a	-0.010293046
99	0x3ca1e83f	0.019764064
100	0xbd5f7ca2	-0.05456222
101	0x3dc81755	0.09770075
102	0x3de72cb0	0.1128782
103	0x3d86a16a	0.06573756
104	0x3d64727d	0.055773247
105	0xbe4a0b9e	-0.19730994
106	0xbe23e2d7	-0.16004501
107	0x3daef79d	0.08543322
108	0xbe688f5d	-0.22710939
109	0xbe165671	-0.14681412
110	0xbdd8afcc	-0.105804056
111	0x3d999e5f	0.0750091
112	0x3cf610ca	0.030037303
113	0xbe3b625f	-0.18299244
114	0xbd9ceebf	-0.07662725
115	0xbe61c04b	-0.2204601
116	0xbdd1428d	-0.10217772
117	0xbdc8a8ff	-0.097978584
118	0xbe1327d0	-0.14370656
119	0xbe1e70c7	-0.15472709
120	0xbcd8411a	-0.02639823
121	0x3d2e7ec2	0.042601354
122	0x3d7b2a66	0.06131973
123	0xbc3770e9	-0.0111963535
124	0xbd430f8c	-0.04762225
125	0x3cc64826	0.024204325
126	0x3e0ffedc	0.14062065
127	0x3e0fd1cd	0.14044876
128	0x3f48d041	0.7844277
129	0x3f3e0f6c	0.7424228
130	0x3e2b91d6	0.16754851
131	0x3f16235b	0.586477
132	0x3f23e4fa	0.64021266
133	0x3ec8e5b1	0.3923774
134	0x3f106fbb	0.5642049
135	0x3d73ed64	0.059552565
136	0x3f47568c	0.77866435
137	0x3f3a3e49	0.7275129
138	0x3f442fad	0.7663525
139	0x3f4a91e4	0.7912886
140	0x3f278deb	0.65450925
141	0x3f3968e5	0.7242568
142	0x3c829d83	0.015944248
143	0x3e7ca33a	0.24671641
144	0xbdce6fd3	-0.100799225
145	0x3c2da498	0.010598324
146	0xbe1d06bc	-0.153346
147	0xbde445f3	-0.11146154
148	0xbdb79e9b	-0.089657985
149	0xbd80b4e2	-0.06284501
150	0xbdb7c3a4	-0.08972862
151	0xbc258f69	-0.010104992
152	0xbd0dd7d1	-0.034629647
153	0xbe54aa50	-0.20768094
154	0x3da061c4	0.07831147
155	0x3d5df607	0.054189708
156	0xbcfa6fa7	-0.030570818
157	0xbe03271e	-0.12807891
158	0x3e2caa1a	0.16861764
159	0xbe1407f8	-0.14456165
160	0xbe6ef0e3	-0.23334078
161	0x3dda6deb	0.106654964
162	0xbce05573	-0.027384495
163	0xbce8fbc2	-0.02844036
164	0xbde84f0a	-0.113432005
165	0xbd076e76	-0.033064328
166	0xbe7da2a0	-0.24769068
167	0xbd90bfbc	-0.070678204
168	0xbd96411e	-0.07336639
169	0x3e61c853	0.22049074
170	0x3cf904dd	0.030397827
171	0x3e026a8e	0.1273596
172	0xbd2df7e2	-0.042472728
173	0x3cad63a8	0.021165684
174	0x3d1f43f5	0.03888317
175	0xbc7dd289	-0.01549209
176	0x3cbbe02b	0.02293404
177	0xbd25960d	-0.040426303
178	0xbdc831a4	-0.09775093
179	0x3da6afc5	0.08138994
180	0x3be8903c	0.007097272
181	0xbcef8952	-0.029240284
182	0x3e1e7da3	0.15477614
183	0xbdad1bc2	-0.0845256
184	0x3d24ef8c	0.040267512
185	0x3d6e5038	0.05818197
186	0x3e205020	0.15655565
187	0x3d49bc7a	0.04925201
188	0xbd8aba9a	-0.06773873
189	0x3e262d71	0.16228272
190	0x3d8aa549	0.06769807
191	0xbdf38a1c	-0.11891577
192	0x3dcf8190	0.10132134
193	0x3b90b686	0.0044162897
194	0xbd36f69c	-0.04466878
195	0x3cb297ad	0.02180084
196	0xbcf1d9eb	-0.029522857
197	0x3d863f20	0.06555009
198	0x3dbb22cf	0.091374986
199	0x3de214ba	0.110391095
200	0xbc60c139	-0.013717943
201	0xbd77e6f6	-0.060522996
202	0xbdd2c70b	-0.10291871
203	0xbdc378f7	-0.095445566
204	0xbe1a1740	-0.15047932
205	0xbac8dad2	-0.0015324003
206	0xbd4c3665	-0.049856562
207	0xbe1454a3	-0.14485411
208	0x3e09f406	0.13471994
209	0x3e2d21b8	0.16907394
210	0x3dd9fe94	0.1064426
211	0xbcf8eb1b	-0.030385545
212	0xbdc109eb	-0.0942572
213	0xbb5f6dce	-0.0034092548
214	0x3ddeee4d	0.10885296
215	0x3c5c204e	0.013435436
216	0xbd60c5bc	-0.054876074
217	0x3dc1779c	0.09446642
218	0xbd7aeb8f	-0.061259802
219	0x3dd23ab3	0.10265102
220	0xbd60bfb8	-0.054870337
221	0xbb2bf82d	-0.0026240454
222	0xbe3f56d6	-0.18685469
223	0xbd0cb4d2	-0.03435213
224	0x3d7f0ff6	0.06227108
225	0x3dca1ad8	0.09868401
226	0x3d8884fe	0.06665991
227	0x3dfddff3	0.123962305
228	0xbcc40efc	-0.023932926
229	0xbd08d394	-0.0334049
230	0x3dbe3e60	0.09289241
231	0xbdf54c59	-0.11977453
232	0x3def2cf8	0.11678499
233	0x3da132e6	0.07871036
234	0x3d06b73a	0.032889582
235	0xbd9bfc19	-0.07616443
236	0xbcbbe055	-0.022934118
237	0x3da715eb	0.081584774
238	0xbdd8bebb	-0.10583254
239	0xbd2da9f3	-0.042398404
240	0x3da46a17	0.080280475
241	0xbd971d9a	-0.07378693
242	0xbbbf1ffd	-0.0058326707
243	0x3d78c33c	0.060733065
244	0x3e10d8fc	0.14145273
245	0x3d285944	0.041100755
246	0xbd66b786	-0.056327365
247	0xbe6b41e8	-0.2297436
248	0xbe5c290e	-0.21500036
249	0x3c95a114	0.018265285
250	0xbe61a2a3	-0.22034697
251	0xbd1b9b9d	-0.0379902
252	0x3c829395	0.015939513
253	0x3ca728f0	0.020405263
254	0x3dfce0de	0.123475775
255	0xbda66a47	-0.081257395

fc1.bias f4 [256]
0	0x3f481510	0.7815714
1	0x3f3c3467	0.7351746
2	0x3f43df75	0.76512843
3	0x3f4cbbe5	0.79974204
4	0x3f358767	0.7090973
5	0x3f29adf4	0.66281056
6	0x3f3ce2a7	0.73783344
7	0x3f2e92c7	0.68192714
8	0x3f51994d	0.81874543
9	0x3f31e548	0.6949048
10	0x3f414eab	0.7551066
11	0x3f31ecd4	0.69501996
12	0x3f432ee3	0.7624342
13	0x3f53c04a	0.82715285
14	0x3f43a62d	0.7642544
15	0x3f49a115	0.78761417
16	0x3f4d1b76	0.8012003
17	0x3f4dc8ee	0.8038472
18	0x3f3e78a9	0.7440286
19	0x3f44913f	0.7678413
20	0x3f289ad2	0.6586124
21	0x3f31b9b1	0.6942397
22	0x3f34da6e	0.706458
23	0x3f33325a	0.69998705
24	0x3f42a52d	0.7603329
25	0x3f2a4a7b	0.665199
26	0x3f369680	0.71323395
27	0x3f4cbb34	0.7997315
28	0x3f26a2f8	0.6509242
29	0x3f43fc2a	0.76556647
30	0x3f2b4f86	0.6691822
31	0x3f4e9fb5	0.80712444
32	0x3f389e91	0.72116953
33	0x3f437e5a	0.7636467
34	0x3f3365b3	0.70077056
35	0x3f397bd2	0.7245456
36	0x3f3d5c60	0.7396908
37	0x3f2fb598	0.68636465
38	0x3f2dab30	0.67839336
39	0x3f29201e	0.6606463
40	0x3f414b3e	0.75505435
41	0x3f2a408a	0.6650473
42	0x3f48bceb	0.78413266
43	0x3f41a0b6	0.7563585
44	0x3f3c4aab	0.73551434
45	0x3f27b5a9	0.65511566
46	0x3f365b5c	0.71233153
47	0x3f321ec8	0.6957822
48	0x3f514415	0.8174451
49	0x3f32fce1	0.6991711
50	0x3f33da60	0.7025509
51	0x3f4f9445	0.81085616
52	0x3f2e0322	0.6797353
53	0x3f31649b	0.69294137
54	0x3f372bf9	0.7155147
55	0x3f2b7e16	0.66989267
56	0x3f3140d3	0.6923954
57	0x3f32cb12	0.6984111
58	0x3f4600cc	0.77344966
59	0x3f5257ac	0.82165027
60	0x3f48e2bd	0.78470975
61	0x3f3e1b46	0.74260366
62	0x3f41ee74	0.75754476
63	0x3f4d6db8	0.8024554
64	0x3f29f1ef	0.66384786
65	0x3f38f386	0.7224659
66	0x3f4bcb51	0.7960711
67	0x3f3aa8d8	0.72913885
68	0x3f453502	0.7703401
69	0x3f4e0669	0.8047853
70	0x3f38d2f3	0.7219688
71	0x3f2aca2c	0.6671474
72	0x3f36ee22	0.7145711
73	0x3f2cba8e	0.6747216
74	0x3f319b3b	0.6937749
75	0x3f50b956	0.815328
76	0x3f30b2c8	0.690228
77	0x3f42b696	0.76059854
78	0x3f385fec	0.72021365
79	0x3f301754	0.68785596
80	0x3f3d2cc7	0.7389645
81	0x3f306f33	0.68919677
82	0x3f2d287c	0.676399
83	0x3f3fcdbd	0.74923307
84	0x3f48d095	0.7844327
85	0x3f28bca4	0.6591284
86	0x3f38f512	0.7224895
87	0x3f2c49dd	0.67300206
88	0x3f4fa4da	0.8111092
89	0x3f2c6b9a	0.67351687
90	0x3f417530	0.7556944
91	0x3f381721	0.7191029
92	0x3f4eadda	0.80734026
93	0x3f3bc3d3	0.7334568
94	0x3f3f3950	0.74696827
95	0x3f4a028f	0.78910154
96	0x3f3a90da	0.72877276
97	0x3f3fb862	0.7489072
98	0x3f413c5b	0.7548272
99	0x3f2c589f	0.67322725
100	0x3f36a866	0.71350706
101	0x3f2e870f	0.68174833
102	0x3f47ab2e	0.77995574
103	0x3f38e5de	0.7222575
104	0x3f3fb5c8	0.7488675
105	0x3f3c31af	0.7351331
106	0x3f480d50	0.78145313
107	0x3f460747	0.77354854
108	0x3f34c8cb	0.70618886
109	0x3f4754fe	0.7786406
110	0x3f4eb1d1	0.80740076
111	0x3f4f9806	0.81091344
112	0x3f3f1266	0.7463745
113	0x3f4fe7bb	0.8121297
114	0x3f3779c3	0.7167017
115	0x3f3e0051	0.7421923
116	0x3f4381d0	0.76369953
117	0x3f547bad	0.83001214
118	0x3f30b4e1	0.69026
119	0x3f3555d6	0.708341
120	0x3f333a12	0.70010483
121	0x3f2a0f85	0.6642993
122	0x3f31c328	0.6943841
123	0x3f3c9d39	0.736774
124	0x3f3c17aa	0.7347361
125	0x3f37d58f	0.7181024
126	0x3f5441a0	0.82912636
127	0x3f4ff39b	0.8123109
128	0x3f439afe	0.76408374
129	0x3f4669fe	0.7750548
130	0x3f432bd9	0.7623878
131	0x3f4dc9b0	0.80385876
132	0x3f4d5587	0.8020863
133	0x3f3b0301	0.7305146
134	0x3f376816	0.716432
135	0x3f37cbbf	0.71795267
136	0x3f45e205	0.77298003
137	0x3f4e7ebf	0.8066215
138	0x3f45e19e	0.7729739
139	0x3f38ee6b	0.72238797
140	0x3f3c69f4	0.7359917
141	0x3f2253a1	0.6340886
142	0x3f3b78ca	0.73231184
143	0x3f4408b7	0.765758
144	0x3f497ee5	0.7870925
145	0x3f49b0bc	0.787853
146	0x3f435520	0.76301765
147	0x3f4b4998	0.7940917
148	0x3f3bdaec	0.73380923
149	0x3f532870	0.8248358
150	0x3f53f211	0.8279124
151	0x3f44d355	0.7688497
152	0x3f349952	0.7054645
153	0x3f2d4f82	0.67699444
154	0x3f321e21	0.69577223
155	0x3f3b903a	0.7326695
156	0x3f2e6254	0.68118787
157	0x3f461f43	0.7739145
158	0x3f38973a	0.72105753
159	0x3f3c17f0	0.73474026
160	0x3f45cdd0	0.7726717
161	0x3f2cf575	0.6756204
162	0x3f3429ba	0.7037617
163	0x3f46a6f5	0.77598506
164	0x3f54ac86	0.8307575
165	0x3f3d7daf	0.740199
166	0x3f2deb1b	0.6793687
167	0x3f33b27e	0.7019423
168	0x3f2adbd8	0.66741705
169	0x3f500d4c	0.8127029
170	0x3f373d99	0.71578366
171	0x3f46ab31	0.7760497
172	0x3f4cfccb	0.8007323
173	0x3f35e71d	0.71055776
174	0x3f44abd3	0.7682468
175	0x3f4bfce2	0.79682744
176	0x3f3bddc2	0.7338525
177	0x3f392a1c	0.7232988
178	0x3f4a6abc	0.79069114
179	0x3f331911	0.69960123
180	0x3f41915f	0.75612444
181	0x3f492647	0.7857403
182	0x3f437f10	0.76365757
183	0x3f32af5f	0.69798845
184	0x3f365d87	0.7123646
185	0x3f3160da	0.6928841
186	0x3f3f6976	0.74770296
187	0x3f4946da	0.78623736
188	0x3f4f7b1b	0.8104722
189	0x3f3a64a8	0.7280984
190	0x3f371d8b	0.71529454
191	0x3f32c256	0.69827783
192	0x3f4d2b17	0.80143875
193	0x3f38033f	0.71879953
194	0x3f50fcef	0.81635946
195	0x3f2d5486	0.677071
196	0x3f3b1c11	0.730897
197	0x3f364ea8	0.7121377
198	0x3f2b0b7d	0.66814405
199	0x3f43895c	0.7638147
200	0x3f46b689	0.77622277
201	0x3f373aeb	0.71574277
202	0x3f41f63c	0.7576635
203	0x3f2bf673	0.67172927
204	0x3f4137c0	0.7547569
205	0x3f393a17	0.72354263
206	0x3f3d8986	0.7403797
207	0x3f3c1c0e	0.7348031
208	0x3f4238a4	0.75867677
209	0x3f3f52e8	0.7473588
210	0x3f5010e0	0.8127575
211	0x3f3cda51	0.73770624
212	0x3f2963c1	0.6616784
213	0x3f371dcd	0.7152985
214	0x3f2d2e34	0.67648625
215	0x3f3d9149	0.7404981
216	0x3f31f0a2	0.695078
217	0x3f322457	0.695867
218	0x3f457834	0.7713654
219	0x3f3dae4f	0.740941
220	0x3f2e6950	0.68129444
221	0x3f408ba2	0.7521306
222	0x3f2907b8	0.660274
223	0x3f4d9da6	0.8031868
224	0x3f1e4621	0.6182576
225	0x3f3fe9a4	0.7496588
226	0x3f4f32dd	0.80936986
227	0x3f3df520	0.74202156
228	0x3f2972a8	0.66190577
229	0x3f42dd09	0.7611852
230	0x3f48619d	0.78273946
231	0x3f3bf0a6	0.73414075
232	0x3f499e29	0.7875696
233	0x3f2f0b27	0.6837639
234	0x3f3930fd	0.72340375
235	0x3f4cd896	0.80017984
236	0x3f3feadb	0.74967736
237	0x3f4a452a	0.79011786
238	0x3f2f9fb3	0.68603057
239	0x3f3ac5ba	0.72957957
240	0x3f4b39d1	0.79385096
241	0x3f305866	0.68884885
242	0x3f3d27f4	0.7388909
243	0x3f3dae5e	0.7409419
244	0x3f39aa8c	0.7252586
245	0x3f3ee856	0.74573267
246	0x3f508f04	0.81468225
247	0x3f447048	0.7673383
248	0x3f301e24	0.6879599
249	0x3f2e02c8	0.67972994
250	0x3f47045c	0.77741027
251	0x3f29b7bb	0.66295975
252	0x3f35d68f	0.71030515
253	0x3f50146d	0.8128117
254	0x3f4e5620	0.80600166
255	0x3f307b43	0.6893808

fc2.weight f4 [256, 256]
0	0x3f16e9e0	0.58950615
1	0x3f0b5696	0.54428995
2	0x3f2356b0	0.6380415
3	0x3f21cad5	0.6320012
4	0x3f091660	0.53549767
5	0x3f0e26c0	0.5552788
6	0x3f1d444b	0.6143233
7	0x3f0df11a	0.55446017
8	0x3f093fe2	0.536131
9	0x3f1e19e8	0.6175828
10	0x3f141778	0.5784831
11	0x3f1f2492	0.62165177
12	0x3f066102	0.5249177
13	0x3f227039	0.6345249
14	0x3efffa7b	0.4999579
15	0x3f01c7d1	0.5069552
16	0x3f1e3722	0.61802876
17	0x3f172fae	0.5905713
18	0x3f11b590	0.5691767
19	0x3f138744	0.57628274
20	0x3f080d7c	0.53145576
21	0x3f0b7a27	0.54483265
22	0x3f1a28c9	0.60218483
23	0x3f1818ad	0.5941265
24	0x3f1149b4	0.5675309
25	0x3f11f8c4	0.5702021
26	0x3f157ca1	0.58393294
27	0x3f13afb2	0.57689965
28	0x3f0a8458	0.5410819
29	0x3f145f6d	0.5795811
30	0x3f0f6775	0.5601724
31	0x3f07ca0b	0.5304267
32	0x3f02b6c2	0.51060116
33	0x3f0bbce5	0.54585105
34	0x3f12af70	0.57298946
35	0x3f0ff5ad	0.56234246
36	0x3f09f6ec	0.538924
37	0x3f0a926b	0.54129666
38	0x3f11a9bc	0.5689962
39	0x3f0790fd	0.5295561
40	0x3f219210	0.631135
41	0x3f16b64c	0.5887191
42	0x3f05e897	0.5230803
43	0x3f1a440d	0.6026009
44	0x3f05ba73	0.52237624
45	0x3f0eed88	0.55831194
46	0x3f1321d6	0.57473505
47	0x3f1511dd	0.5823038
48	0x3f1b2159	0.6059776
49	0x3f1913f3	0.59796065
50	0x3f136b16	0.57585275
51	0x3f09badb	0.53800744
52	0x3f0d8ffd	0.55297834
53	0x3f1b210e	0.6059731
54	0x3f04e4bf	0.5191154
55	0x3f1a8d59	0.6037193
56	0x3f1b1250	0.6057482
57	0x3f19057e	0.59774005
58	0x3f0a3475	0.53986293
59	0x3f146a97	0.57975143
60	0x3f1fc7f8	0.62414503
61	0x3f12b3c6	0.5730556
62	0x3f1c2c70	0.61005306
63	0x3f20f622	0.6287557
64	0x3f198d5a	0.5998131
65	0x3f0c1ea5	0.5473426
66	0x3f20fd75	0.62886745
67	0x3f207045	0.6267131
68	0x3f173212	0.59060776
69	0x3f0b469f	0.54404634
70	0x3f1f818e	0.6230706
71	0x3f22d425	0.63604957
72	0x3f1ff0d0	0.62476826
73	0x3f0cfa83	0.5506975
74	0x3f03d4d1	0.5149661
75	0x3f0c8cae	0.5490216
76	0x3f1d35f7	0.6141047
77	0x3f1f01f8	0.6211238
78	0x3f17f702	0.5936128
79	0x3f20963b	0.62729234
80	0x3f08e50a	0.53474486
81	0x3f20e6c8	0.62852144
82	0x3f084561	0.53230864
83	0x3f157a84	0.5839007
84	0x3f075027	0.5285668
85	0x3f16710e	0.5876626
86	0x3f20c36c	0.6279819
87	0x3f164039	0.58691746
88	0x3f116fb1	0.5681105
89	0x3f0ff3e7	0.5623154
90	0x3f06cd88	0.52657366
91	0x3f172f29	0.59056336
92	0x3f0fd0e0	0.5617809
93	0x3f043b33	0.5165283
94	0x3f221ff7	0.63330024
95	0x3f0d389e	0.55164516
96	0x3f17d08c	0.5930259
97	0x3f022b02	0.50846875
98	0x3f1db9ba	0.6161152
99	0x3f17d9d7	0.5931677
100	0x3f0d7d78	0.55269575
101	0x3f10c071	0.5654364
102	0x3f13b0c4	0.576916
103	0x3f1daae5	0.6158889
104	0x3f153db0	0.5829725
105	0x3f189dd9	0.59615856
106	0x3f1cf66a	0.613135
107	0x3f226bc0	0.63445663
108	0x3f1dfa69	0.6171022
109	0x3f0aa928	0.5416436
110	0x3f078560	0.5293789
111	0x3f1bcf7f	0.6086349
112	0x3f1b61d6	0.6069616
113	0x3f16a7e1	0.5884991
114	0x3f0aaa96	0.54166543
115	0x3f1a4e45	0.6027568
116	0x3f0b30a8	0.5437112
117	0x3f040b56	0.515798
118	0x3f1d120f	0.6135568
119	0x3f10954e	0.5647782
120	0x3f01bd5d	0.5067957
121	0x3f1e070e	0.61729515
122	0x3f1a7bc4	0.603451
123	0x3f11a754	0.5689595
124	0x3f146213	0.5796215
125	0x3f194a78	0.59879255
126	0x3f082695	0.5318387
127	0x3f01819a	0.5058838
128	0x3f13a13e	0.5766791
129	0x3f0627b5	0.5240434
130	0x3f1cd561	0.6126309
131	0x3f0df523	0.55452174
132	0x3f130d8f	0.57442564
133	0x3f21364f	0.62973493
134	0x3f065a80	0.5248184
135	0x3f115430	0.56769085
136	0x3f1e0ed5	0.6174138
137	0x3f09b2ea	0.53788626
138	0x3f07ef30	0.53099346
139	0x3f1f52cc	0.62235713
140	0x3f16897d	0.5880354
141	0x3f0d8d97	0.55294174
142	0x3f1a4cf2	0.6027366
143	0x3f0c9349	0.5491224
144	0x3f135291	0.5754786
145	0x3f066b53	0.52507514
146	0x3f0f1485	0.55890685
147	0x3f13014c	0.57423854
148	0x3f14e8dd	0.5816782
149	0x3f096d3f	0.5368232
150	0x3f0daf54	0.55345654
151	0x3f08f4c2	0.5349847
152	0x3f071a0f	0.5277414
153	0x3f142194	0.57863736
154	0x3f0109d9	0.5040565
155	0x3f02d35c	0.5110376
156	0x3f1fcdc7	0.62423366
157	0x3f0a923d	0.5412939
158	0x3f0a77ad	0.5408886
159	0x3f194777	0.5987467
160	0x3f1c5789	0.6107107
161	0x3f0e6c45	0.55633956
162	0x3f175cda	0.59126055
163	0x3f212d05	0.6295932
164	0x3f0e1f4e	0.5551652
165	0x3f11429d	0.5674227
166	0x3f1a7307	0.6033177
167	0x3f08e44d	0.5347336
168	0x3f0c3116	0.547624
169	0x3f204be4	0.626158
170	0x3f1e424b	0.61819905
171	0x3f09455c	0.5362146
172	0x3f16f0e2	0.5896131
173	0x3f0f6cc8	0.5602536
174	0x3f14a86c	0.5806949
175	0x3f15e622	0.5855428
176	0x3f0f747e	0.5603713
177	0x3f197208	0.5993962
178	0x3f1b5fad	0.60692865
179	0x3f0bf09b	0.5466401
180	0x3f15b91c	0.5848558
181	0x3f0a0e67	0.53928226
182	0x3f06d466	0.52667844
183	0x3f0c6b15	0.54850894
184	0x3f104da7	0.5636849
185	0x3f101572	0.5628272
186	0x3f21019f	0.628931
187	0x3f11a367	0.5688996
188	0x3f2006ea	0.6251055
189	0x3f117779	0.56822926
190	0x3f1fc144	0.62404275
191	0x3f0d336b	0.5515658
192	0x3f14566d	0.57944375
193	0x3f18cb92	0.59685624
194	0x3f10f9d5	0.56631213
195	0x3f07e0cf	0.53077406
196	0x3f07a08b	0.52979344
197	0x3f0a703a	0.54077494
198	0x3f1d231a	0.61381686
199	0x3f023d4d	0.5087479
200	0x3f151d68	0.58247995
201	0x3f10a824	0.5650656
202	0x3f0b5f8a	0.54442656
203	0x3f0ecb03	0.5577852
204	0x3f0a65ae	0.540614
205	0x3f1262b4	0.5718186
206	0x3f1e02eb	0.617232
207	0x3f03e8c1	0.5152703
208	0x3f1c0712	0.6094829
209	0x3f156674	0.58359456
210	0x3f0c9348	0.54912233
211	0x3f222a62	0.6334592
212	0x3f0f1345	0.5588878
213	0x3f09d672	0.5384284
214	0x3f0f16d7	0.55894226
215	0x3f0c9ae9	0.54923874
216	0x3f1d3478	0.61408186
217	0x3f075c28	0.52874994
218	0x3f0de0a6	0.5542091
219	0x3f15f14f	0.5857133
220	0x3f221290	0.63309574
221	0x3f1fa1ab	0.6235606
222	0x3f1015e2	0.5628339
223	0x3f15e0d1	0.5854617
224	0x3f15a520	0.58455086
225	0x3f021af4	0.5082238
226	0x3f21aacf	0.6315126
227	0x3f118efa	0.5685879
228	0x3f214139	0.62990147
229	0x3f01bc93	0.50678366
230	0x3f1bf213	0.6091625
231	0x3f0f60c2	0.56007016
232	0x3f108593	0.5645382
233	0x3f1566be	0.583599
234	0x3f0d55af	0.5520887
235	0x3f08d007	0.53442425
236	0x3f1aab4d	0.60417634
237	0x3f0e8adf	0.5568065
238	0x3f061098	0.5236907
239	0x3f1f5519	0.62239224
240	0x3f0d8181	0.5527573
241	0x3f1e5ccd	0.6186035
242	0x3f0fdb21	0.5619374
243	0x3f11367b	0.56723756
244	0x3f05f9d2	0.5233432
245	0x3f09d931	0.5384703
246	0x3f04736a	0.5173861
247	0x3f17af0d	0.5925148
248	0x3f148914	0.58021665
249	0x3f17e1d5	0.5932897
250	0x3f04fcca	0.51948225
251	0x3f09a26c	0.5376346
252	0x3f0bfe59	0.5468498
253	0x3f044250	0.51663685
254	0x3f09818b	0.5371329
255	0x3f07a212	0.52981675

fc2.bias f4 [256]
0	0x3edca55d	0.43094912
1	0x3f00ac33	0.50262755
2	0x3ed38d07	0.41318533
3	0xbcc71ae3	-0.024304813
4	0xbceed8f1	-0.02915618
5	0xbca9fc6b	-0.020750245
6	0x3d3b54c9	0.045735154
7	0x3c92d47b	0.017923584
8	0x3bbf9105	0.005846145
9	0x3d21b676	0.03948065
10	0xbd52e5ba	-0.051488616
11	0xba828c0b	-0.0009959949
12	0xbd5cafa9	-0.05387846
13	0xbd3d07d3	-0.04615004
14	0x3ef5c23d	0.47999755
15	0x3b90cba6	0.004418808
16	0x3ee5f041	0.44909862
17	0xbd4c009a	-0.04980526
18	0x3eb3ec51	0.35141233
19	0xbcf9ca16	-0.03049187
20	0x3d16f30b	0.036852878
21	0xbd878408	-0.0661698
22	0x3efc4672	0.49272496
23	0x3f029ac3	0.510174
24	0x3beddb24	0.0072587896
25	0x3eb85b43	0.36007127
26	0x3efd9243	0.4952565
27	0xbd0e8e85	-0.034803886
28	0x3efd4a0a	0.4947055
29	0x3f04b536	0.51839006
30	0x3d3af112	0.04564006
31	0x3d12f90f	0.035882052
32	0x3ead71e3	0.3387595
33	0x3f09a188	0.537621
34	0xbcad21fd	-0.021134371
35	0x3f03f05f	0.5153865
36	0x3eeb05e8	0.45902944
37	0x3ebba5ba	0.36649877
38	0x3d31d9bd	0.043420542
39	0x3f01c1a5	0.50686103
40	0x3efd3126	0.4945156
41	0x3f058c2c	0.5216701
42	0xbd08758d	-0.03331523
43	0x3f08a1ed	0.5337208
44	0x3eda2390	0.42605257
45	0xbcd28cff	-0.025701998
46	0x3b53eb5f	0.0032336337
47	0x3ef2dbcc	0.47433317
48	0xbbb3d3be	-0.005487888
49	0x3ea21daf	0.31663272
50	0x3ea6a145	0.32544914
51	0xbd5faeef	-0.05461019
52	0x3d0665b8	0.03281185
53	0xbd2e0794	-0.042487696
54	0x3b8cfa79	0.0043023196
55	0x3ee742f7	0.45168278
56	0x3ec239f4	0.3793484
57	0x3eeccd22	0.46250254
58	0x3eace730	0.33770132
59	0xbd94a939	-0.07258839
60	0x3f0d3d35	0.5517152
61	0x3ed5bde9	0.41746452
62	0x3cd4799d	0.025936896
63	0x3ede6062	0.4343291
64	0x3d259a1c	0.040430173
65	0xbd6db471	-0.05803341
66	0xb8980e7d	-7.2506235e-05
67	0x3bd73f73	0.006568843
68	0xbc35de2d	-0.011100334
69	0x3d0a0ebf	0.03370547
70	0xbbd47a06	-0.006484273
71	0xbbfbe180	-0.007686794
72	0xbd7f3bd0	-0.0623129
73	0x3d3def3f	0.04637074
74	0xbd9601dc	-0.073245734
75	0x3c11e64f	0.0089050075
76	0x3d0f242a	0.034946598
77	0x3ecbc027	0.39795038
78	0xbd2b73bc	-0.04185842
79	0xba736d48	-0.00092859985
80	0x3d1ea62d	0.038732696
81	0x3c94a577	0.018145306
82	0x3bf0f0e7	0.0073529365
83	0x3d43783c	0.047722086
84	0x3eb82598	0.35966182
85	0xbbaa4a77	-0.005196865
86	0xbd364015	-0.044494707
87	0x3ef09c74	0.46994364
88	0x3ebb34b9	0.36563662
89	0xbd29e1e0	-0.041475177
90	0x3d51f50d	0.05125909
91	0x3edb36a3	0.42815122
92	0xbd74bd36	-0.059750758
93	0x3ee3d55b	0.44498715
94	0x3ee3edea	0.44517452
95	0xbd7158d2	-0.058922596
96	0x3f0f3e6d	0.5595463
97	0x3ee1efd0	0.44128275
98	0x3ba94f15	0.005166898
99	0x3cbdf479	0.023187863
100	0xbce9b724	-0.028529711
101	0x3be4203c	0.0069618504
102	0xbd6a5592	-0.057210512
103	0x3f0f8aae	0.56070983
104	0xbc38c055	-0.011276324
105	0x3d5947da	0.05304704
106	0x3ef224dd	0.4729375
107	0x3c744479	0.014908903
108	0x3c9364f0	0.017992467
109	0x3d5f9281	0.054583076
110	0x3ccf7c4d	0.025327826
111	0x3edca55d	0.43094912
112	0x3ec86899	0.39142302
113	0x3c83ee55	0.016104857
114	0x3eea0af2	0.45711476
115	0x3aea6e77	0.0017885704
116	0x3eb8af90	0.36071444
117	0xbd015062	-0.0315708
118	0xbd3d4518	-0.04620847
119	0x3ed38abc	0.41316783
120	0x3ef29b25	0.4738399
121	0xbcd70bd2	-0.026250754
122	0xbd24c6fe	-0.040228836
123	0x3efa2978	0.48859763
124	0x3d023b65	0.031794924
125	0x3f1d8fdc	0.61547637
126	0xbd326007	-0.04354861
127	0xbcdf9085	-0.027290592
128	0x3ef2d2a9	0.47426346
129	0x3c0933c6	0.00837416
130	0xbc2f8624	-0.010713134
131	0x3ec7a94d	0.38996354
132	0x3ef54e66	0.47911376
133	0xbd6ecb3a	-0.05829928
134	0x3ef1bdef	0.4721522
135	0x3ec787dc	0.3897084
136	0xbd047897	-0.032341566
137	0x3eef7f58	0.46776843
138	0xbc2e6d75	-0.010646214
139	0x3f1bdb11	0.60881144
140	0x3d3782b1	0.04480237
141	0x3ee4dd72	0.447002
142	0x3f0d1704	0.55113244
143	0x3eb34d00	0.35019684
144	0x3ec80a33	0.3907028
145	0xbca7a2af	-0.020463316
146	0x3f08cbfd	0.5343626
147	0x3ee248a0	0.44196033
148	0x3d035a61	0.032068614
149	0xbd46ea00	-0.048563004
150	0xbb94aefd	-0.004537462
151	0x3ed615fb	0.41813645
152	0xbd460095	-0.0483404
153	0x3f12a66a	0.5728518
154	0xbd6b822a	-0.05749718
155	0x3f161597	0.58626693
156	0x3ca932b6	0.020654064
157	0x3d2bf246	0.041979097
158	0x3d3b8297	0.045778837
159	0x3f1641b8	0.5869403
160	0xbd5486e5	-0.051886458
161	0x3f0bc895	0.5460294
162	0x3b958ce8	0.0045639165
163	0x3f082670	0.5318365
164	0xbd4e5c8e	-0.050381236
165	0xbd595b7f	-0.053065773
166	0xbd877750	-0.06614554
167	0x3ec5eb50	0.38656092
168	0x3e9a6198	0.30152583
169	0xbd649e05	-0.05581476
170	0xbd44ee9f	-0.04807913
171	0x3ef363ce	0.47537082
172	0x3efffb7f	0.49996564
173	0xbc199120	-0.009372979
174	0x3efd88c0	0.49518394
175	0xbd806a29	-0.062702484
176	0x3f01f4af	0.5076398
177	0x3efc40e7	0.49268267
178	0x3ef6e495	0.4822127
179	0x3ef30438	0.47464156
180	0x3d338278	0.043825597
181	0xbd04dc0f	-0.032436427
182	0x3ea814b5	0.32828298
183	0x3c81499b	0.015782168
184	0x3c616f5c	0.01375946
185	0x3eefd836	0.46844643
186	0x3ef06a2a	0.46955997
187	0xbc736087	-0.014854557
188	0x3c8cf26f	0.017205445
189	0x3efb40ff	0.49073026
190	0xbd84b09e	-0.064789996
191	0xbd4d66cd	-0.050146867
192	0x3f14a6d0	0.58067036
193	0x3ec035c0	0.37541008
194	0x3ee7203e	0.45141786
195	0x3ea83d0a	0.3285907
196	0x3ca2ddcd	0.019881153
197	0x3ee727f0	0.45147657
198	0x3f0d9660	0.5530758
199	0x3f185f06	0.59519994
200	0x3ec6f8d8	0.38861728
201	0xbd27a693	-0.040930342
202	0x3f0f8eb4	0.5607712
203	0xbbaa71c4	-0.00520155
204	0x3ebecb34	0.37264407
205	0x3eb298bf	0.3488216
206	0x3eed17a3	0.46307096
207	0x3f0b4eb5	0.5441697
208	0x3d15d2b2	0.036577888
209	0x3ef41621	0.47673133
210	0x3f0140e6	0.5048965
211	0x3d3b79ea	0.045770563
212	0x3eee8b26	0.46590537
213	0x3ef24179	0.47315577
214	0xbc61d38b	-0.013783346
215	0x3eecb4a8	0.4623158
216	0xbd5ad479	-0.053425286
217	0xbc6990c3	-0.014255705
218	0x3f03dc0c	0.5150764
219	0xbd8d4b26	-0.06899099
220	0x3d1d0410	0.038333952
221	0xbd260d1e	-0.040539853
222	0x3ee52a93	0.44759044
223	0xbd19a176	-0.037507497
224	0x3ee84132	0.4536224
225	0x3ca37ced	0.01995703
226	0x3ec578a6	0.3856861
227	0x3ecdb78b	0.40179095
228	0x3d36a10a	0.044587173
229	0x3f11cde4	0.5695479
230	0x3f0ed583	0.55794543
231	0x3cf4c221	0.029877724
232	0x3f08c18b	0.53420323
233	0xbd8a17f8	-0.06742853
234	0xbd480996	-0.048837267
235	0x3efef0bc	0.4979304
236	0xbc8e63b5	-0.017381528
237	0x3f12592e	0.5716733
238	0x3eb5e21b	0.35524067
239	0x3f09b913	0.53798026
240	0x3eeaf159	0.4588726
241	0x3eed8d6b	0.46396956
242	0x3f0935a0	0.5359745
243	0x3b944d9f	0.0045258547
244	0x3f0f69b0	0.5602064
245	0x3ee67930	0.45014334
246	0xbd529f77	-0.05142161
247	0x3efb8b2c	0.49129617
248	0x3cbe1895	0.023205081
249	0x3cf883cf	0.030336289
250	0xbd4f0183	-0.05053855
251	0x3ef9de4a	0.48802406
252	0xbceb0e5f	-0.028693376
253	0x3b9e60d7	0.0048333216
254	0x3f02fc4b	0.5116622
255	0xbacc07a5	-0.0015566243

logits.weight f4 [5, 256]
0	0x3d77a569	0.06046048
1	0x3dec1e28	0.11529189
2	0x3cb5a02d	0.022171104
3	0x3bb8f484	0.005644383
4	0xbd20fb52	-0.039302178
5	0xbd278903	-0.04090215
6	0xbd4ce45e	-0.050022475
7	0x3c202cae	0.0097762775
8	0x3b99c0af	0.004692159
9	0x3d4d6487	0.0501447
10	0xbd195553	-0.037434887
11	0xbd4494f7	-0.047993626
12	0x3c3db5f5	0.0115790265
13	0x3d69bde9	0.057065878
14	0x3d5a9274	0.053362325
15	0xbb9cf396	-0.00478978
16	0x3d2cc866	0.042183302
17	0x3ca0a8df	0.019611774
18	0x3da7e4da	0.08197947
19	0xbd2080d1	-0.03918535
20	0x3ce2b9b4	0.02767644
21	0xbcf279fe	-0.029599186
22	0x3d88280d	0.06648264
23	0x3dec41f0	0.11536014
24	0xbcf4c5dc	-0.029879503
25	0x3ddb2dd1	0.10702098
26	0x3db54cda	0.08852549
27	0x3ccad74f	0.02476087
28	0x3d9aba34	0.07555047
29	0x3db001d7	0.08594101
30	0x3d7ce4f4	0.061741784
31	0xbd5829dd	-0.0527743
32	0x3cf498a5	0.029857943
33	0x3d60e5c7	0.054906633
34	0x3a971e96	0.0011529501
35	0x3d6c43e5	0.057681937
36	0x3ddfe31a	0.10931988
37	0x3c0622e4	0.0081870295
38	0x3d7934ab	0.060841244
39	0x3d453a6e	0.048151426
40	0x3d60cf5f	0.054885264
41	0x3dcb98b6	0.09941237
42	0xbc8e9740	-0.017406106
43	0x3dd2e7f6	0.10298149
44	0x3d9920a4	0.07476929
45	0x3cd3d727	0.025859429
46	0xba5a6dec	-0.00083324197
47	0x3d4592c9	0.04823569
48	0x3b16f93c	0.002303674
49	0x3d1e295f	0.038613673
50	0x3c5d7bbc	0.01351827
51	0xbd1cd711	-0.03829104
52	0x3d4e4e87	0.05036786
53	0xbc918b53	-0.01776663
54	0xbd213356	-0.0393556
55	0x3de4e436	0.1117634
56	0x3d5d00d4	0.053955868
57	0x3ddf9c23	0.109184526
58	0x3d38c4b7	0.045109477
59	0x3d018969	0.031625185
60	0x3d868216	0.06567781
61	0x3db20b3a	0.086935475
62	0x3d453b87	0.048152473
63	0x3da0dfb8	0.07855171
64	0x3d7a065a	0.061041214
65	0x3d238b3f	0.039927717
66	0x3d38a2dd	0.045077194
67	0x3d61d7e5	0.055137534
68	0x3d3a984b	0.045555394
69	0x3d7006bc	0.058600172
70	0x3bf8281c	0.007573141
71	0xbca83ef4	-0.02053783
72	0x3d1ea60c	0.038732573
73	0xbc9a9ad7	-0.018872662
74	0xbd569304	-0.0523863
75	0xbcf0726e	-0.02935144
76	0x3d2f6621	0.042822007
77	0x3dbbaf5c	0.091643065
78	0x3d0f4e5c	0.03498684
79	0x3ce4d4fe	0.027933594
80	0x3d846e13	0.064663075
81	0x3d2fcc32	0.042919345
82	0x3c051f93	0.008125204
83	0xbd4339c6	-0.04766252
84	0x3debbf91	0.11511148
85	0x3bbd76c0	0.0057819784
86	0xbcd80b87	-0.026372684
87	0x3dc81833	0.09770241
88	0x3ddffef4	0.109373
89	0xbca7eeb2	-0.020499561
90	0x3d32e117	0.043671694
91	0x3d84c858	0.06483525
92	0x3d25ab3c	0.040446505
93	0x3c12beec	0.008956652
94	0x3cdb6789	0.026782768
95	0xbd2bf848	-0.041984826
96	0x3de4349b	0.11142846
97	0x3d310991	0.043222014
98	0xbd0e8bd6	-0.034801327
99	0x3c878c8c	0.01654651
100	0x3d93267c	0.07185075
101	0xbd14066f	-0.036138948
102	0x3d4897e8	0.048972994
103	0x3d4963ad	0.049167324
104	0x3d522462	0.05130423
105	0x3b7fd761	0.0039038288
106	0x3dcbb2d6	0.099462196
107	0xbd3dae86	-0.046309017
108	0xbcd20193	-0.025635516
109	0xbb45e73f	-0.0030197648
110	0xbb8d1d1b	-0.004306448
111	0x3dabcb1a	0.08388348
112	0x3df56389	0.119818754
113	0x3c103f04	0.008804087
114	0x3cf0f553	0.029413855
115	0xbd4ddc61	-0.050258998
116	0x3d496ea5	0.049177784
117	0x3d0b6c29	0.034038696
118	0xbd433ce8	-0.047665507
119	0x3d48d7f3	0.04903407
120	0x3d6b41c1	0.057435755
121	0xbb93034e	-0.004486478
122	0xbd66f87c	-0.056389317
123	0x3de405a6	0.1113389
124	0x3ccc3966	0.024929713
125	0x3ddc67b7	0.107619695
126	0xbc22c194	-0.009933848
127	0x3d46901f	0.04847729
128	0x3cb323f7	0.021867735
129	0x3d463078	0.048386067
130	0xbd49a381	-0.049228195
131	0x3bc2caf8	0.005944606
132	0x3dbea09b	0.09307977
133	0x3cdd73f9	0.02703284
134	0x3d9f274e	0.07771169
135	0x3dc2fd6b	0.09520992
136	0xbd354a99	-0.044260595
137	0x3da50589	0.08057696
138	0xbcb48e22	-0.02204043
139	0x3de6d801	0.11271668
140	0x3c847f34	0.016173936
141	0x3cba9af5	0.022778967
142	0x3daf9557	0.08573406
143	0x3deaea82	0.1147051
144	0x3d113d2f	0.03545874
145	0x3d565f8c	0.052337214
146	0x3dca9fe2	0.098937765
147	0x3d563e5f	0.052305575
148	0xbcec178f	-0.028819827
149	0x3c26dac0	0.01018399
150	0x3c1f4db5	0.009723117
151	0x3dcef4de	0.101052985
152	0xbd155308	-0.036456138
153	0x3dac33bd	0.08408306
154	0xbc96c6bf	-0.018405316
155	0x3d87d801	0.06632996
156	0xbd12194a	-0.03566865
157	0xbce71ab2	-0.028210972
158	0x3d2309c3	0.03980423
159	0x3d3b2798	0.045692056
160	0x3c1008b8	0.008791141
161	0x3d9eb5bc	0.07749507
162	0x3d1d3fa3	0.038390767
163	0x3de7d8be	0.11320637
164	0x3d0d6b46	0.034526132
165	0xbcdeba66	-0.027188491
166	0xbcf5c439	-0.030000793
167	0x3d151aaf	0.0364024
168	0x3de75470	0.11295402
169	0xbc0e8054	-0.008697588
170	0xbc86b171	-0.016442033
171	0x3db9991e	0.09062408
172	0x3c6a8196	0.014313122
173	0x3b82158b	0.0039698533
174	0x3d8260b2	0.063660994
175	0x3ce51201	0.027962686
176	0x3dbf684f	0.09346067
177	0x3dbe819d	0.093020655
178	0x3d7c31be	0.061570875
179	0x3d53f80b	0.051750224
180	0x3d348fd0	0.044082463
181	0xbcb285f5	-0.021792391
182	0x3bbc2a57	0.005742352
183	0x3d4a1017	0.04933175
184	0xbc1182fa	-0.008881325
185	0x3dda2a98	0.10652655
186	0x3d7e123a	0.0620291
187	0x3d0d393f	0.034478422
188	0xbd062848	-0.03275326
189	0x3da64e27	0.08120375
190	0x3b66c1e6	0.0035210787
191	0xbcb75e68	-0.022383884
192	0x3db104ab	0.086434685
193	0x3dc4ba78	0.096058786
194	0x3d309a38	0.043115824
195	0x3ded8fe8	0.115997136
196	0xbcd3bd3d	-0.025847072
197	0x3ddcc5fb	0.10779949
198	0x3de9d41f	0.11417412
199	0x3d93cf53	0.07217278
200	0x3d98c446	0.07459311
201	0xbcf3101b	-0.029670766
202	0x3dc9496e	0.09828459
203	0xbc6fa5ba	-0.014626915
204	0x3dd85878	0.10563749
205	0x3d22921d	0.039690126
206	0x3d03eaed	0.032206465
207	0x3d5f74fe	0.05455493
208	0x3c453a9c	0.012037899
209	0x3d78a7c4	0.06070687
210	0x3d660d30	0.05616492
211	0x3cb1d402	0.021707539
212	0x3d7165f0	0.058935106
213	0x3dcc9744	0.09989789
214	0x3d7d7172	0.061875768
215	0x3c9e00db	0.019287517
216	0xbc405ef8	-0.011741392
217	0xbd5ee538	-0.05441782
218	0x3dbfde9c	0.09368631
219	0x3cf20c40	0.029546857
220	0xbd217cb6	-0.039425574
221	0xbbca6f55	-0.0061778226
222	0x3d284b6e	0.04108756
223	0x3cbc469a	0.022982884
224	0x3cc664a3	0.02421791
225	0xbd11a47a	-0.035557248
226	0x3d9c3634	0.07627526
227	0x3deb036f	0.11475264
228	0xb982129c	-0.00024809397
229	0x3d3b1e04	0.045682922
230	0x3da6025f	0.08105921
231	0xbc62d5d2	-0.013844924
232	0x3dd416f7	0.10355943
233	0x3ccf96a6	0.02534039
234	0xbb8c4e64	-0.004281806
235	0x3d526c21	0.05137265
236	0xbd525c8e	-0.0513578
237	0x3d677b62	0.05651415
238	0x3da13162	0.07870747
239	0x3d97eda7	0.074183755
240	0x3bb4b0dd	0.005514248
241	0x3d16b5f4	0.036794618
242	0x3d8a7e56	0.06762378
243	0xbcdff402	-0.027338032
244	0x3da0c94f	0.078508966
245	0x3daa9b29	0.08330376
246	0xbc129445	-0.008946483
247	0x3dc971ce	0.0983616
248	0x3d067b68	0.032832533
249	0xbd04373e	-0.032279246
250	0xbd24cb6e	-0.04023307
251	0x3ce69bd0	0.028150469
252	0x3d38a47f	0.04507875
253	0x3ceecaf5	0.029149512
254	0x3afab0f6	0.0019126225
255	0x3c92617f	0.017868755

logits.bias f4 [5]
0	0x3d5465e4	0.051854983
1	0x3d89effd	0.06735227
2	0x3da66cb1	0.081262
3	0x3d352ec5	0.044234056
4	0xbeab99aa	-0.33515674
