policy_squad2_multi_argmax.pt (torch, 420089 bytes, 6 tensors)

fc1.weight f4 [256, 144]
00000000: 3b16 b4bc 584f dd3c 50db ab3d c5da f23b
00000010: c1dd ddbd a2fc 573d f9b8 d7bd 8c44 923d
00000020: 1767 82bd e985 5ebd 5484 193b afe8 3bbd
00000030: f440 553d ee99 93bd 5982 b33d 1bbf ad3d
00000040: 71b2 23bd 8b4a 5e3c 47e5 0e3e 74c5 91bc
00000050: 7603 a33c bdd9 f0bd 9afe 79bd b1dd 42bb
00000060: f9a0 c33c e3a5 84bd 2135 5ebd f445 ea3c
00000070: 99bb b8bd 7933 bc3d 1d16 de3d b37c c03d
00000080: f0a4 2ebb f7b5 d2bc eb23 35bc c4e0 9c3c
00000090: 3f2e 00bd 8027 98bc efa8 0fbc 9df9 a2bd
000000a0: c1ee 57bd e5e6 ba3c bf34 23bd e3cf 473d
000000b0: b19b bdbc 0580 3d3d 772b 8fbd 8424 37bc
000000c0: 28e2 ffbc 87d5 02bd 05ea f7bb ff9b a43d
000000d0: 591d a13c 5ee9 ab3a 26f2 6f3c 11ac 84bd
000000e0: 6b46 cb3d 5955 243d b88a f4bd 4252 823d
000000f0: 4acc 423d d756 053e f889 b83c 325e 1dbd
00000100: 70ec d13c 0559 293d 14a1 7e3d b81b b7bd
00000110: 0b4d 39bd dcbf cb3c 2ef8 95bd bb4e 813c
00000120: 3ed8 143a 7edf 163c a145 d1bd d495 b93c
00000130: 2231 92bd 5485 653c b58e c63c 9915 693d
00000140: e34a 80bd f2b5 7c3c 9cbe 213c 512b c73c
00000150: efcb 893d f186 f0bd c7fe d43c b778 58bb
00000160: 942a f33d d84d 63bd 8580 9e3d f8d3 833c
00000170: 02d2 ae3d b898 a03c 0ceb 1bbc 4a21 6abd
00000180: 4b09 853d fa46 9d3c 61dc 0a3d b715 16be
00000190: e53d de3d f3a2 53bd 2274 96bd 745a 94bb
000001a0: f2c9 8a3d 8766 ba3a 1cb5 a1bc ad73 f7bb
000001b0: c557 92bd a9f6 49bd dce0 113d 3024 ffbc
000001c0: 4ca7 e43c 79f8 afbd a65f 1c3d b5c4 7b3d
000001d0: 7e05 633d 8e85 173c bd63 873d 50f4 d9bd
000001e0: 5bbd a43b d308 3abd 741c 83bd d4bf a9bd
000001f0: aed4 213d 932d 0f3c 8e33 1c3d 0839 953d
00000200: 9890 9b3d 200e ecbb 9433 613d 6128 453c
00000210: 4998 2c3d 05ae 2fbd d94d 553c aa14 3cbc
00000220: b745 e6bb 22a2 15b9 7c02 1fbd 4814 993d
00000230: 2270 c3bc 9714 28bd f0a0 debc cf0b 42bd
00000240: 42c8 10bc cf27 0dbd dc6e f33c 5eee 563d
00000250: 539c f7bc 216e 343d c27f 73bc 885f 823d
00000260: 36d2 18bd a631 44bc ce70 acbd 361e 973c
00000270: 5917 383d 7351 a7bd 0e3e 643d e434 25bd
00000280: 3ccb ac3d 1e1e 1abd 4eb1 803c 231b af3c
00000290: e6c0 a1bc a862 81bd cd2c 6e3d 576a 923d
000002a0: 8337 9c3d a97a 7d3d c53c d33d dda7 59bd
000002b0: c7ec c6bc a246 49bd 2400 283d e268 03bd
000002c0: 28d9 82bd 04cc bd3b 0dc2 5fbd e86d a13d
000002d0: d691 62bd f1c0 bebc f909 8a3c aec7 7dbd
000002e0: b00e a4bd 3de1 abbd 9d7f c8bc 7ae2 92bd
000002f0: ff0d 9cbd aaa0 ea3d 0529 763d a267 fd3c
00000300: 950c e13d 5aa4 d2bc 4498 aa3d 0791 a4bc
00000310: 7e73 8c3d 51aa 50bd fda5 5fbc 55a0 8bbd
00000320: 2dc9 8e3d 1392 643d 2a40 3b3d b207 813d
00000330: 81f9 82bd 318b 81bd 20be 8abc 8013 913a
00000340: 03d9 8abd 7bd7 20bd 0020 073c 49a5 e5bc
00000350: 0787 9a3d dc9b 1e3d 439a f3bd 38bb 7fbd
00000360: 955e 773d ca4e d93c bfc9 163d 8d22 893c
00000370: 7b1f dd3c fe79 eb3b b69d 983d cd1b a13d
00000380: 2710 343d c847 f8bb 218b 173d 2342 ce3c
00000390: e4a3 2a3d 9b7d c0bc 7df7 813d eea7 b13d
000003a0: c8c8 50bd eb9f adbd fab4 2abc 336e 0e3c
000003b0: ab5f b6bd 62e0 6a3b 866c a0bd 8b3f 2cbd
000003c0: 598c 1fbd df83 7cbd 1c0e afbc 43f8 4a3d
000003d0: 3d60 97bd 7b46 84bd 32d9 d1bb becd ca3d
000003e0: eb57 6d3d cffe b73d fea8 a1bd 5f81 6dbd
000003f0: edbd 7f3d 27ca d3bc 7d08 04bd 7c26 d6bc
-0.021983257 0.027015373 0.0839144 0.0074113333 -0.10833312 0.052731164 -0.105333276 0.071419805
-0.06367319 -0.054326925 0.002342482 -0.0458762 0.052063897 -0.07207094 0.08765096 0.08483716
-0.039965097 0.013567577 0.1395465 -0.017794348 0.019899111 -0.1176028 -0.061033823 -0.002973419
0.023880469 -0.06476953 -0.054249886 0.02859781 -0.090201564 0.09189505 0.108440615 0.093987845
-0.0026648603 -0.025721533 -0.011055927 0.019150145 -0.031294104 -0.018573523 -0.008768304 -0.07957766
-0.052717928 0.022815177 -0.039845224 0.04878224 -0.023145529 0.046264667 -0.06990712 -0.01117814
-0.03123577 -0.031941917 -0.007565739 0.080375664 0.019667314 0.0013115813 0.014645135 -0.064781316
0.099255405 0.040120456 -0.11940521 0.06363346 0.047558106 0.13021408 0.022526726 -0.03841991
0.025625437 0.04134466 0.062165335 -0.08940834 -0.04523949 0.02487176 -0.07322727 0.015784612
0.00056779746 0.009208558 -0.10218359 0.022654451 -0.071382776 0.014008839 0.02423797 0.056905363
-0.062642835 0.0154242385 0.009872105 0.024312647 0.0672835 -0.11744488 0.026000394 -0.0033030936
0.118733555 -0.05549416 0.07739357 0.016092286 0.085361496 0.019604072 -0.009516489 -0.057160653
0.06495913 0.019198883 0.033901576 -0.14656721 0.10851649 -0.051669072 -0.07346369 -0.0045273844
0.06776799 0.0014221229 -0.01973968 -0.0075516314 -0.07145647 -0.0493075 0.035614833 -0.031145185
0.027911805 -0.08592314 0.038177155 0.06146689 0.05542516 0.0092481505 0.066108204 -0.10642302
0.0050274557 -0.04541857 -0.064019114 -0.082885414 0.039509468 0.008738893 0.038135104 0.072862685
0.075959384 -0.0072038323 0.05498083 0.012033553 0.042137418 -0.042890567 0.013019049 -0.011479536
-0.0070273536 -0.00014270146 -0.03882073 0.074745715 -0.02385718 -0.04103526 -0.02717635 -0.047374543
-0.008836808 -0.034461793 0.029715948 0.05247342 -0.030225908 0.04405034 -0.014862003 0.063658774
-0.037309848 -0.011974728 -0.08419953 0.018447023 0.04494414 -0.08169832 0.055723242 -0.040333644
0.084372014 -0.03762638 0.015709545 0.021375244 -0.019745301 -0.06317645 0.058148194 0.07149189
0.076277755 0.061884556 0.10314325 -0.053138603 -0.024282826 -0.049139626 0.04101576 -0.032082446
-0.063890755 0.005792143 -0.05462842 0.07882291 -0.05531486 -0.023285361 0.016850458 -0.061958008
-0.08010614 -0.0839257 -0.024474913 -0.07172103 -0.07619857 0.114564255 0.060097713 0.030933205
0.10988728 -0.025713135 0.083298236 -0.020088686 0.06857966 -0.050943676 -0.0136504145 -0.0681769
0.06971965 0.05580337 0.04571549 0.06300296 -0.06395245 -0.06325377 -0.016936362 0.0011068434
-0.06779673 -0.039268 0.0082473755 -0.028032916 0.07545286 0.038722858 -0.118946575 -0.062434405
0.060392935 0.026526827 0.036813494 0.016740108 0.02699255 0.0071861735 0.07451956 0.07866631
0.043960717 -0.0075769164 0.036997918 0.02517802 0.041660205 -0.023497393 0.06346033 0.08674608
-0.05097273 -0.084777676 -0.010419125 0.008693266 -0.08904966 0.003583931 -0.07833199 -0.042052787
-0.038952205 -0.0616492 -0.021369033 0.049553167 -0.07391403 -0.064587556 -0.0064040655 0.099025235
0.057945173 0.08984148 -0.07893561 -0.057984706 0.062436987 -0.02585323 -0.032234658 -0.026141398

fc1.bias f4 [256]
00000000: f316 c5bb d23b febc 9a41 f7bc 8f07 403d
00000010: 75e9 90bd dc61 243d 3b27 933d 8654 8a3d
00000020: 5e05 8abd 7bb2 6e3d 6b61 ef3c 552e 4fbd
00000030: e5b1 0b3d 38e3 753d 1397 c9bc cf9b 483d
00000040: eddf 55bd 5e4d 18bd 4d83 923d 1cab 27bd
00000050: fa3b 293d 6001 a9bc 724b 09bd dca8 16bd
00000060: 3555 b93d 0a8e 85bd 0a14 553d 987c 9e3d
00000070: f59d 743d 520e 20bd b943 e4bc 7034 85bd
00000080: 090c d1bc 9485 973c 088d 90bd b203 3a3d
00000090: 3054 71bd 8094 e8bb 5c63 563d f2b8 523d
000000a0: 3af5 a93b 1201 a73d eec0 79bd 3ca9 ae3c
000000b0: a17c 673c 1cbb 9c3d 3db2 b63d 1580 653c
000000c0: 1384 49bd 6c9e ab3d d447 21bb 4846 15bd
000000d0: 327a 923d ccd1 8f3d 88ae cf3c ed18 1dbd
000000e0: 044f cbbc 5f3d 093d bb01 a03d 0af1 c53d
000000f0: 7a52 8b3d dfc0 5cbd 842f 73bb 95a9 a53d
00000100: af1a 7ebd 1584 6a3c c39d 9f3c 4174 b23d
00000110: d681 90bd e1c0 b63c 8828 89bd 7b6c 4c3d
00000120: 866d 69bd 7481 d2bc adff 34bc 73da 9b3d
00000130: 6313 15bd 04a8 8ebd a034 eb3a b455 caba
00000140: 7bc7 69bb 2a8b 1b3c 8ba9 4d3d 8516 5f3d
00000150: f911 5c3d ffc4 33bd e98e b13d 93cb 3cbd
00000160: a1f1 55bd 38fe b23c a9bb 00bd d0dc cdbc
00000170: 1151 293b 6b3b 5f3d 467f ac3d 9589 5f3c
00000180: 4b85 24bd 8beb 793d 965e 60bd c509 95bc
00000190: ada1 53bb 35fa 753d 908b 94bd 9c2e f13c
000001a0: f13a b0bd 243a c7bc a4bb a5bd 9985 5fbc
000001b0: 562e 8a3d 0dc2 f93b 7d1f 06bd 0c35 683d
000001c0: 003b 0dbc 263c 8a3d ead8 a7bd b700 ab3d
000001d0: 227e 233d ee25 4e3d b76b b83c 09aa cc3c
000001e0: 4af6 bfbd 3b0d 553d 57dc b8bd 0d39 163d
000001f0: b506 1d3d 9afc b83c 54c2 bc3c 85c4 9fba
00000200: b7d2 87bd f0bb 13bd 8d9c 1c3d eaf3 8ebd
00000210: 9405 883c b1bb 913c 493d 933d 4954 5d3d
00000220: 13d9 48bd b1bf 6e3b a6b0 95bd 5d13 c03c
00000230: c146 40bd 78c7 6a3c ad05 1f3d 9206 66bd
00000240: a678 c13b 08fb 2e3c 4253 883d d8f5 d13a
00000250: cfd5 06bd a1ff 893a dd26 34bd a084 81bd
00000260: d190 83bc d08a cd3d ccc9 b1bb 1856 a23c
00000270: 52d5 7bbb 3a07 933d 05a5 c53c 5dce 6abd
00000280: 1d13 bf3d 5eb2 c63c f84e bf3d 6ba6 2dbd
00000290: 8043 18bd ed4c 10bd 6646 b9bc bdd5 813d
000002a0: 3158 843d 46d6 4b3d bfc4 18bd 6edb febc
000002b0: 54d0 d2bc 8445 32bd e121 9dba 01fe 3d3d
000002c0: 54da fdbc 6c92 6dbd 4432 b6bc 0fa1 4f3d
000002d0: 4344 2dbd 2619 96bd 53cd 57bd f830 ce3d
000002e0: b3f2 973d bb53 ac3d 43d0 583d 7e43 fd3c
000002f0: 55bb 34bc 2af9 de3b 2b39 9b3d 6a91 cf3b
00000300: 9857 ebbc f7ec fb3c cc49 91bd 1f95 e1bc
00000310: 27e5 963d 1ad2 223b 5f13 103d 686c e13c
00000320: f6b5 9cbd fcb7 903d 0fce 873d 232a 893d
00000330: 6c4e 5cbd 911e c63c 245d fa3c f9bf a13c
00000340: 8fc5 7abd 9a64 1d3d 3ec5 053d 3e81 40bd
00000350: acb2 0b3d 27c3 babd 0ccf 693b 863e 183c
00000360: 178b e5bc c6cb 803c 5803 9f3d 57bd c73c
00000370: d403 99bc d5d4 67bc b108 923d fadd 573d
00000380: 0284 b6bc 43d0 aa3d e2df 6f3d 7d84 aebc
00000390: 7620 21bd 44e8 e03c afc8 7bbd a672 2bbd
000003a0: 7182 7ebc 3119 7cbc 1401 89bd 0cf7 1f3d
000003b0: d600 9d3d cd50 8a3d a31e d1bc 6d28 2a3d
000003c0: 9c6c 8fbc d257 313c 93f4 7a3d 168b b2ba
000003d0: ce99 f639 14e0 713b d04b fb3c 6ce7 8a3c
000003e0: 3c5a 2ebd 9b2b 28bd 37f1 9f3c ee28 8abd
000003f0: 5b86 24bd 9d99 9e3c 6053 c23c fbaf ac3b
-0.0060146987 -0.031034384 -0.030182648 0.04688221 -0.070757784 0.04013239 0.07185217 0.06754403
-0.06739305 0.05827568 0.029221257 -0.050581295 0.0341052 0.060031146 -0.02460817 0.048976716
-0.052215505 -0.037183158 0.0715395 -0.040934667 0.041316964 -0.020630538 -0.033519216 -0.03678213
0.09049455 -0.065212324 0.052021064 0.07738608 0.059720952 -0.039076157 -0.027864324 -0.06504142
-0.025518434 0.018496312 -0.070581496 0.04541368 -0.058918178 -0.0070977807 0.05234085 0.05144591
0.005186704 0.08154501 -0.060975008 0.021320932 0.014128835 0.07652876 0.08920715 0.014007588
-0.04919822 0.08379826 -0.0024609463 -0.03644398 0.07152213 0.070224375 0.025351778 -0.03835385
-0.024817951 0.033505794 0.0781283 0.09665115 0.068028405 -0.053894874 -0.003710718 0.08088986
-0.062037166 0.014313717 0.019484406 0.0871358 -0.07056014 0.022308769 -0.06697184 0.049908143
-0.056989215 -0.025696494 -0.011047286 0.07610025 -0.03639544 -0.0696564 0.0017944761 -0.0015436918
-0.0035671878 0.0094936285 0.050210517 0.054464836 0.053728078 -0.043889042 0.08669836 -0.04609258
-0.05223239 0.021849737 -0.031428967 -0.025129706 0.0025835673 0.054500025 0.08422713 0.013643642
-0.04016618 0.061015647 -0.054777704 -0.018193135 -0.0032292411 0.06005307 -0.07253182 0.02944117
-0.08604992 -0.024319716 -0.0809243 -0.013642692 0.06747119 0.0076220096 -0.032744873 0.056691214
-0.008620024 0.06749754 -0.0819567 0.08349746 0.03991521 0.05032914 0.0225123 0.024983423
-0.09373148 0.05201457 -0.090264015 0.0366755 0.038336474 0.022581387 0.023041882 -0.0012189305
-0.066319875 -0.036067903 0.038235236 -0.06980117 0.016604222 0.017789694 0.071894236 0.05403546
-0.049035143 0.0036430175 -0.07309084 0.023446733 -0.046942476 0.014329784 0.038823772 -0.05615861
0.005904275 0.010679968 0.06656505 0.0016018702 -0.032918748 0.0010528454 -0.043982375 -0.06324124
-0.016060265 0.10036242 -0.0054256674 0.019816443 -0.003842671 0.07179113 0.024126539 -0.05732571
0.093298174 0.024254974 0.09341234 -0.042395037 -0.037173748 -0.035229612 -0.022616576 0.063395955
0.06462134 0.049764894 -0.037297007 -0.031110492 -0.025734104 -0.043523327 -0.0011988246 0.046384815
-0.030987896 -0.058000967 -0.022240765 0.050690707 -0.042301428 -0.073290154 -0.052686047 0.10067934
0.07419338 0.08414408 0.05293299 0.030915972 -0.011030992 0.006804605 0.07579263 0.0063344734
-0.028728291 0.030752642 -0.07094154 -0.027536927 0.07367926 0.0024844469 0.035174724 0.027517512
-0.07651894 0.07066342 0.066310994 0.0669749 -0.053785726 0.024184497 0.030561991 0.01974486
-0.061223563 0.03842602 0.032658808 -0.046998255 0.03410594 -0.091192536 0.0035676388 0.0092922505
-0.028020425 0.015722167 0.0776431 0.024382276 -0.018678583 -0.014149864 0.07130564 0.052701928
-0.022279743 0.08340504 0.05856312 -0.02130341 -0.039337598 0.027454503 -0.061470684 -0.041857384
-0.015534029 -0.0153868655 -0.06689659 0.03905396 0.07666175 0.06753693 -0.025527304 0.04154246
-0.017507844 0.010824161 0.0612684 -0.0013621773 0.0004703537 0.0036907243 0.030675799 0.016956054
-0.042566523 -0.04105721 0.0195242 -0.06746088 -0.040167194 0.019360358 0.023721397 0.005270002

fc2.weight f4 [256, 256]
00000000: b8c8 7fbd 0860 8fbd 51c6 16bd 3b82 23bd
00000010: 0ade 893d 1ade 143d 0acb 593b 8aa0 a7bd
00000020: 1438 99bc 3053 90bc 1988 0b3d b8bb 67bc
00000030: 6ef8 3e3d 7a7d 46bd 7e08 a5bc 64b2 733d
00000040: b95d a33d 0eef 013d 5855 47bd ca06 643d
00000050: a72c 313d 3dd2 fe3c ec42 94bc 82d9 0f3d
00000060: 3328 1e3d 042a 0c3b abb2 093c 7a2d b73c
00000070: 274d c53c 3504 7a3c c581 b23c 11eb 0d3c
00000080: ce8f 373c f4fb 5d3d 93ce 48bd 65aa debb
00000090: f537 0e3d b45f 973d 5cce 93bd f629 6abd
000000a0: 014f 4dbd 2a4b acbc d356 21bd b04c f23b
000000b0: 822d c9bc 2928 5dbd e44d 30bd 6a79 2ebd
000000c0: 3469 74bd 0c83 293d 47eb f13c e1a5 95bd
000000d0: c256 613c 573a 70bd 3989 2f3d 9fc5 9e3c
000000e0: 3524 94bc a617 35bd b980 da3c 439b e7bc
000000f0: e41d 9bbc b8ca 0cbd 444c 8d3d 3b7c 07bd
00000100: bc9e 54bc c298 523d 9d45 dcbc 9b83 af3c
00000110: 6eeb d8bc 7a58 c03c 3876 37bd 382e 83bd
00000120: be70 71bd 1555 553d be9e 80bd d895 493d
00000130: 0a77 1ebd cd16 3a3c 98f4 5dbc d278 023c
00000140: 18f2 cbbc a266 1038 cbf1 04bd 6f55 e53a
00000150: d565 3c3d a9c2 1abd 3e10 b23c c39e a33d
00000160: f112 20bd 6bb4 01bd 4c0d b03d d420 f13c
00000170: 9a2b 093d 1f58 8abd 60e2 223c 736f 043d
00000180: b569 9d3c 3538 8abd b2ce e83c 8743 5c3d
00000190: 1a55 b73d dfdb 16bd 47c2 abbc 83e1 33bc
000001a0: 10c9 3d3d fecd e3bc 09aa bb3d 2b28 1d3d
000001b0: f511 22bd 394f 7e3c 3855 853c a6d7 583d
000001c0: f547 70bd 97c7 21bc 68f0 763d 1ce7 5dbd
000001d0: d918 4b3d 257e 75bb f039 32bd 1904 2ebc
000001e0: 783a a2bb f27e 4d3d 8054 4d3d 2d82 37bd
000001f0: ae0e 263d d432 9f3b 5639 373c 320d 94bc
00000200: 4151 b43c fa99 7f3c 925c 1a3d 78a8 893c
00000210: 8306 7bbc 9950 44bd b00d d4bc 05ab 5bbd
00000220: b47c de3b 1074 18bd ede1 fa3b b725 483d
00000230: 783f a3bb 3f40 16bd da16 1bbd 9a9f 02bd
00000240: cd2d 40bc e9cc 193c 255d 573d a33a a33c
00000250: c74a 713d ad15 f83c 144d 803c c091 25bd
00000260: a1bf 36bd 7fef 64bc 37e8 e0bc fa85 ccbb
00000270: 4ccb c6bc 2040 a43c 399f de3b 4718 a7bc
00000280: 98fd 973c fbf7 a63c cd78 153d a092 1dbd
00000290: a8b9 0c3d 7b03 f3bc df51 63bd 1bde 06bd
000002a0: 79e4 823a 5e61 823c 1e63 54bd 8d61 f8bc
000002b0: bf97 2b3d 61f3 06bc d0ea 39bd 419c d9bc
000002c0: 7b14 3dbd 7d55 edbb 9e2d 4dbd db6a e73c
000002d0: a472 343d 8a96 fabc b17f a5bb b8d9 463b
000002e0: 5073 2ebd ff2e ee3b d7ba 16bb 18fe 253d
000002f0: 2fb0 bdbc 9ef5 93bd 5d46 2a3d 5c83 303d
00000300: 908c 46bd 628f 8abd 754b 223d 4e25 f43c
00000310: f590 4d3d eed2 803d 38e3 863d e182 1f3c
00000320: 6535 eb39 17d0 3c3d b84c ec3c af86 52bd
00000330: 02fc 38bd 0472 73bc 8f03 223b a27f 823d
00000340: 263b 50bc 747b 93bb a24b a23c 32cb 89bc
00000350: d21d 7b3c e773 1dbd 7356 b2bb 2362 453b
00000360: a83d 26bd 84d8 0e3d 26ce 4abb 4693 913a
00000370: 3f13 9fbc 8907 23bd 8232 1ebd ffda 3d3d
00000380: bc6f bb3b 43bd f4bc 2ad0 7bbd 0541 5e3d
00000390: 148c 8a3d fcc1 813c d014 2bbd 9d19 f23c
000003a0: 42a9 b53c 1d19 483d 22e7 a8bc e8c2 903d
000003b0: 1dfe 3abc 88dc 9b3c a2e7 ebbc ca41 803c
000003c0: 7512 ea3c f84b 58bd 1c54 a03b 94e7 0cbd
000003d0: 23d9 20bd c377 cb3c 2031 4c3c 8a72 533d
000003e0: 56df 31bd c1f3 09bc 67d1 513d 3a8f 4e3d
000003f0: 072f 3bbd 5d2f 71bd 8cc2 6b3c bba7 433d
-0.06244728 -0.070007384 -0.036810223 -0.03991912 0.06731804 0.036344625 0.0033232593 -0.08184917
-0.018703498 -0.017617792 0.03406534 -0.014143877 0.04662364 -0.048459508 -0.020145651 0.0594963
0.079768606 0.03172212 -0.048665375 0.055670537 0.043255474 0.031106109 -0.018098317 0.03511954
0.038612556 0.0021387348 0.008404414 0.022360552 0.02408464 0.015259792 0.021790395 0.008662001
0.011203719 0.05419536 -0.04902513 -0.006795215 0.034721334 0.07391301 -0.07217094 -0.057168923
-0.050124172 -0.021031935 -0.039389443 0.007394396 -0.024557833 -0.053993378 -0.043043032 -0.04259626
-0.059670642 0.04138474 0.029531134 -0.073070295 0.013753595 -0.058649387 0.042855475 0.019381342
-0.018083671 -0.044212006 0.026672708 -0.028272277 -0.018935151 -0.034373015 0.06899312 -0.03307746
-0.012977298 0.051415212 -0.026888663 0.021425059 -0.02647945 0.023479689 -0.044790477 -0.064053
-0.05894541 0.052083094 -0.06280278 0.049215168 -0.038687743 0.011357975 -0.013547085 0.007963376
-0.024895713 3.442786e-05 -0.032457154 0.0017496775 0.045995552 -0.0377833 0.02173626 0.07989266
-0.039080564 -0.0316662 0.08596286 0.029434599 0.033488847 -0.06755089 0.009941667 0.03233285
0.019215444 -0.06749002 0.028418873 0.053775337 0.08951779 -0.03683078 -0.020966662 -0.010979059
0.046334326 -0.027808186 0.09163291 0.038368385 -0.039567906 0.015521818 0.016275987 0.052940033
-0.058662374 -0.009874246 0.060287863 -0.05417548 0.049584243 -0.0037459221 -0.043512285 -0.010621094
-0.0049508177 0.050169893 0.050129414 -0.04480188 0.040541343 0.004858354 0.011183104 -0.018072698
0.022011401 0.015600676 0.03768594 0.016803965 -0.015321377 -0.047928426 -0.025885433 -0.053629894
0.006789768 -0.03722006 0.007656327 0.048864093 -0.0049819313 -0.036682364 -0.03786359 -0.03189049
-0.01172967 0.009387233 0.052579064 0.019925421 0.058909204 0.030283773 0.015661754 -0.0404222
-0.044616345 -0.013973116 -0.027454479 -0.006241557 -0.024266861 0.020050108 0.006793883 -0.020397319
0.01855354 0.020381918 0.036492158 -0.03846991 0.034356743 -0.029664746 -0.055498 -0.03292666
0.0009986303 0.015915569 -0.051852338 -0.030319953 0.041892763 -0.008236737 -0.04538995 -0.026563765
-0.04616211 -0.007242857 -0.050092332 0.028249195 0.044054642 -0.03058936 -0.0050506224 0.0030342173
-0.04259044 0.007268786 -0.0022999549 0.040525526 -0.0231553 -0.07224582 0.04157101 0.043094024
-0.048473895 -0.06765629 0.039622743 0.029802945 0.05018707 0.06290232 0.06586307 0.009735794
0.00044862475 0.046096887 0.028845176 -0.051397976 -0.04516221 -0.014858726 0.002472136 0.06372
-0.012709415 -0.0045008007 0.019811455 -0.016820524 0.015326934 -0.03844061 -0.0054424345 0.0030118308
-0.040586144 0.034874454 -0.0030945628 0.0011106513 -0.019418357 -0.039802108 -0.038622387 0.04635143
0.005720107 -0.029875403 -0.061477818 0.054261226 0.06764999 0.01583957 -0.041767895 0.029553229
0.022175435 0.048852075 -0.020618025 0.070684254 -0.011413124 0.019026056 -0.028796975 0.01565637
0.028573254 -0.052806824 0.004892839 -0.034400538 -0.039269578 0.02483738 0.012462884 0.051622905
-0.04342588 -0.008419932 0.051225092 0.05042956 -0.045699146 -0.05888306 0.014389645 0.047767382

fc2.bias f4 [256]
00000000: 6ac5 f7bc 9688 a53d a5fc 62bc 72cf 863d
00000010: 818d b2bc a0ce 9bba 2d91 633d 6deb 94bc
00000020: 26fd 583d 399f abbb f360 803c 11ec 19bd
00000030: 77bb 103d 0433 073d 9c00 743d c68c 85bc
00000040: 1b49 653d 45fd c23c 63e4 62bc df55 41bd
00000050: 9c16 153d 085e 373d de11 ae3c 21a8 223d
00000060: 5b47 013d 2cfa 8a3a bb51 8abd 90be 36bc
00000070: fc8d 0c3c 5981 183d f3ff 72bb 90f2 2ebd
00000080: 7e8e 25bd dc11 d23c 037f 0a3d 3416 253d
00000090: fb4e 5ebd a399 36bd 01d5 183d 81b0 843d
000000a0: c12a 44bb eca0 523c 0463 0a3d d807 c3bc
000000b0: fc80 513c 801a 4c3c e42e d43b 2a6d 193d
000000c0: 6149 42bd 1bac 673d 060b 37bd c7f8 de3a
000000d0: 6e68 82bc dad1 3cbc 5bc8 173d 5419 013d
000000e0: 3848 f93c 4419 273d dd64 a1bc 31c0 133d
000000f0: aac1 21bd b572 67bd a88c 0c3d 7b3f 44bd
00000100: d219 5c3d ac15 1fbd 3211 48bd d74b 5e3a
00000110: d00b 07bd dec9 2ebd f1d5 bcbc 3e4c ec3b
00000120: 569a 7abd 0388 8bbb f0d8 313c f4e2 88bd
00000130: c687 ce3c ef7a 00bd 22ea ee3c 0d7f 63bb
00000140: fff5 033b 5411 04bc 58bc 89bd 78d9 943c
00000150: 0854 103d b156 a1ba 6a1b 903d 915b 193d
00000160: 06b4 003d aecb b9bc e9a1 933d 59f5 7d3d
00000170: 6865 b6bc e6ac 65bd a0ea 593d 8f28 143d
00000180: c6f7 4d3c d866 123d 6d25 f1bc 0a10 48bd
00000190: 717b 69b9 3efb 0c3d 2c81 9ebc 862d 443d
000001a0: bd0c 6e3d f8e8 813d 60ed fb3c 9c4c 023b
000001b0: ebab 27bd 4d3b 11bd 72c9 f6ba 96b4 4dbd
000001c0: 6f18 b03c 6647 e9bc 687e 743d 3f5a 583d
000001d0: fbe6 373d 660b 983c 52b6 943d 1a5a 323d
000001e0: 33c8 cfbc 0a12 a5bc d58b 6d3c 3a31 cabc
000001f0: ed7a 5a3c 2e8a 21bc 9008 a1bb bc28 933b
00000200: 0d32 47bd 3cf3 933d 10fa 64bd 4bf3 1d3d
00000210: 5dd0 863d 5c36 7c3d f79a febc 820a 493d
00000220: c3e6 34bd d3bb 9f3c 5c9f 23bd ef29 183d
00000230: 9e62 31bb 28be 003d 7e99 25bd f8ba 893d
00000240: dd6b 533d 294b 033d fbb6 c0bc 1c9d d03c
00000250: e21e 80bc de47 0c3d 8434 a8b7 dd30 233d
00000260: 1ab9 8fbc cc7a 2fbd 97ba 763c f2ba cc3b
00000270: 565f 983d fcf3 133d b4cf 783d 7490 08bd
00000280: b6d0 62bc bf2c 003d 35c1 7a3d fd9d e8bc
00000290: 152e 733c 414b cebc bf27 5ebd 4cda 633d
000002a0: 1104 a93d 9d31 44bd 143f ccbc 2095 c5bb
000002b0: 4dc3 8fbd d237 783d 6e1f 91bc 55b4 b43c
000002c0: 77cf 403d 948d 87bc 8419 073d cfdf 0b3d
000002d0: f33b 833c 1633 073d 5c86 bf3c 4039 08bd
000002e0: 93e8 43bc 831d 51bc 6fdb 1c3d 6f40 21bd
000002f0: ed1a 523d 69d4 f93c bc46 65bd 3727 433c
00000300: 4337 4c3d 6e06 833d a0d7 1b3d f597 923d
00000310: 432f b4bb 9361 2dbd 45bc dbbb 560d 75bd
00000320: 00f9 59bd fcb8 d9bc 3d4d 23bc 5a7a d13c
00000330: 1cd9 28bc 1c6b 763d 076b fa3c 9376 123c
00000340: baea 313d 7874 4cbd 8b21 fc3c 5db3 c43c
00000350: 3d1f 873d 11bd 69bd a1bc 83bc 014f ddbc
00000360: ba3a 733a 4bc8 813c 9e92 753d e918 d33b
00000370: ddb4 463d 6537 2f3c 907f c03c aecc cd3c
00000380: 1951 5b3d e834 36bc 979f 9a3b 6947 c2bc
00000390: 4413 21bd a94a 91bc 89bd e2bc e804 d1bc
000003a0: 7a6f fb3c eea3 0c3d a230 8cbd 3690 4bbc
000003b0: 00a7 d4bc b310 7bbd d8c7 723c 82c1 8cbc
000003c0: 33a6 8f3d abc5 35bd 27dd 503c f8dc cc3c
000003d0: 7cae 46bd 6db5 fdbb df7c 66bd 176c e1bb
000003e0: 8927 cfbb fab5 9a3b ebfd 53bc 622d 483d
000003f0: 2a45 953c e62e f73c 0ebd 25bc 55e5 473d
-0.030245502 0.08082692 -0.01385418 0.06582536 -0.02179599 -0.001188714 0.055558372 -0.018178666
0.052975796 -0.0052374867 0.015671229 -0.037578646 0.03533503 0.033007637 0.059570894 -0.016302478
0.055977922 0.023802409 -0.013848397 -0.047201034 0.036398515 0.04476741 0.021248754 0.03971112
0.03156219 0.0010603121 -0.0675387 -0.011153832 0.008578774 0.03723273 -0.0037078827 -0.042711794
-0.040419094 0.025643282 0.033812534 0.040304378 -0.05427454 -0.044580113 0.03731251 0.06478978
-0.002993271 0.01285575 0.033785835 -0.023807451 0.0127871 0.01245749 0.0064753164 0.037457623
-0.04743326 0.056560617 -0.044688247 0.0017011397 -0.015918937 -0.011524642 0.03705631 0.031518295
0.030429944 0.04079558 -0.019701416 0.03607196 -0.039491333 -0.056505878 0.034313828 -0.047912102
0.05373556 -0.038839027 -0.048844524 0.0008479929 -0.03297025 -0.042672984 -0.023051234 0.007211237
-0.061182342 -0.004258157 0.010854945 -0.06683913 0.025211226 -0.03136724 0.029164378 -0.003471318
0.0020135639 -0.008060772 -0.06725377 0.018170103 0.03523639 -0.0012309161 0.07036479 0.03744084
0.031421684 -0.02268013 0.07208616 0.06200156 -0.022265151 -0.056073092 0.05320227 0.036171492
0.012571281 0.03574261 -0.029436791 -0.04884342 -0.00022266597 0.03441929 -0.019348703 0.047894977
0.058117617 0.063432634 0.030752838 0.0019882089 -0.040935438 -0.035456944 -0.0018828346 -0.05022105
0.021496026 -0.028476428 0.059690863 0.05282044 0.044898015 0.018560123 0.07261337 0.04354296
-0.025364017 -0.020150203 0.014498671 -0.024681676 0.013334972 -0.009859605 -0.004914351 0.00449094
-0.048631717 0.07224128 -0.05590254 0.0385621 0.06582711 0.06157528 -0.031079752 0.049082287
-0.044165384 0.019498741 -0.0399469 0.037149366 -0.0027066837 0.031431347 -0.040429585 0.067251146
0.05161654 0.0320541 -0.023524752 0.02546554 -0.015639726 0.034248225 -2.0051615e-05 0.03984152
-0.017544318 -0.042841718 0.015059135 0.0062478716 0.07440059 0.036121354 0.060744956 -0.033340886
-0.013843706 0.031292673 0.061219413 -0.028395647 0.01484253 -0.025182368 -0.054237124 0.055628106
0.08252729 -0.047898877 -0.024932422 -0.00602974 -0.070196725 0.06060011 -0.017715182 0.022058645
0.047072854 -0.016547002 0.032983318 0.034148987 0.016019797 0.033007704 0.023379497 -0.033257723
-0.0119573055 -0.012763384 0.038295206 -0.03936809 0.05129521 0.030496793 -0.05597566 0.011911205
0.04985739 0.06397711 0.038047433 0.0715789 -0.005498798 -0.042329382 -0.006705793 -0.05982717
-0.05321598 -0.026577465 -0.0099671455 0.025571037 -0.010305669 0.06016074 0.030568613 0.008939403
0.043436743 -0.04991576 0.030777713 0.024011308 0.06597755 -0.057065073 -0.016081156 -0.027015211
0.00092784653 0.015842577 0.05995428 0.0064421785 0.04851233 0.010694359 0.023498327 0.025122013
0.053544138 -0.011121012 0.0047187316 -0.023715692 -0.039325014 -0.017735796 -0.027678268 -0.025515035
0.030692805 0.034336023 -0.068452135 -0.012424519 -0.025958538 -0.061295222 0.014818154 -0.017182115
0.07014122 -0.044377964 0.012748039 0.02500771 -0.048506245 -0.007742575 -0.05627143 -0.0068793404
-0.0063218516 0.0047214003 -0.012938957 0.048871405 0.018221457 0.03017373 -0.010115875 0.048802692

logits.weight f4 [5, 256]
00000000: 6bfb 52bd bf70 08be 2c7f 96bc 3054 de3d
00000010: dcf5 743c a31a 91bd 2646 d8bd d3dc 5ebd
00000020: 03d9 a83d b46a 9b3d 97e2 e7b9 faf5 79bd
00000030: 5bc9 443d fa6f dcbc 35d1 a53d 6366 fb3c
00000040: c04c 863c d6bb 813d d239 613d 4a22 ea3d
00000050: 5522 003d ffc5 093d 9e4e 953d a26d e9bd
00000060: ea32 21bd 9d40 24bc e0f3 2abd 7c4c 763b
00000070: 59e6 1e3d a3e0 363d 7f23 10bd 506d 403d
00000080: 633d 1fbd 690a 013e 39ff 943d 0338 bfbc
00000090: cefb 33bb b3bc 28bd f56a b13d a628 b4bb
000000a0: b6d1 20bd fdcd 083c c5a5 0cbc 0b4f c33b
000000b0: cd1a afbb fcb7 5a3c 5bda 1dbe 771d 813d
000000c0: bded b33d 4f10 133d 452b e43b ee8d 353d
000000d0: 9eda 32bd 967f e33d 04f1 cd3d 4518 843c
000000e0: 50dc ab3d 18b4 053b d753 28bd a02d 853d
000000f0: ddad 00be 5e1f bcbc 95d4 b23d 8481 0f3d
00000100: c2ee 183e 2072 ab3d 67e0 7d3d a789 e83b
00000110: 844a c2bd 5bb7 043c a55f c93c 8007 cebd
00000120: 83ba 11bd c92b 143c 5544 93bd fbca 32bd
00000130: 8a6e 2d3e ae1e ff3c c47e e03d 75b2 edbc
00000140: 3a53 2e3d 836d 46bd 2cc6 db3b 054e 82bd
00000150: e282 203d ef3e 65bd 83ff 073d 5274 cb3c
00000160: c646 833c dbb6 513d ee48 c8bd 2f1d 6cbc
00000170: c6f0 adbc 4977 8fbc b7c5 b43d a7d6 3d3d
00000180: f123 ba3c 66dd b83a e59e 9dbd 9427 863d
00000190: 72fd 1abd 18f0 8f3a bff2 8b3d 9d2d a53d
000001a0: d5af 47bc 4041 a33d 13ee 743d 3790 fcbd
000001b0: 0fb6 053d 9087 e33c fc20 ba3d 0b29 27bd
000001c0: 5eea 12bd 044c 1a3e e719 273c d21d 13bc
000001d0: 96a5 aa3d b8af 82bd 1723 ae3c cfca cdbd
000001e0: 5a30 43bd d582 4e3d 7d5b 4cbd 1486 3dbd
000001f0: 0791 ac3d af12 d8bc 85e4 e9bd 350f d0bd
00000200: 719b 14bd d61c abbd 558d e0bc 5b98 abbd
00000210: 0794 933d 59eb ce3d 5eba 523d 4d7a abbd
00000220: 7262 39bd 7ef7 e6bc e506 2bbd a237 1cbd
00000230: 1a7d 90bc 1fd1 073e 19e0 e8bc a36e e93c
00000240: 74d9 e03c fe32 a9bd 7e1a 4f3d 699a 85bc
00000250: aaac 2abd b252 05bc c724 a13d 7ad1 883d
00000260: 8fd2 9c3d 18a2 703d 05a0 b5bc 7899 503c
00000270: ccad e5bd 24bf bcbb e334 b63c 57d7 cf3c
00000280: d809 413d d6ce 873d 2299 07bd 4e00 35bd
00000290: ba08 573d b390 963c 6b0c 8cbb fe11 9dbc
000002a0: 3955 c1bd 4f9e fbbc 56c4 fb3c a916 df3c
000002b0: a9b4 24bd dc54 08bd e836 483d a551 863d
000002c0: 04b2 52bd 17c2 713a c671 cfbc a1f9 f9bc
000002d0: 9c52 c43c 91d2 80bd 7c13 22bd 9ef5 8c3d
000002e0: 2ef5 3abd 8bb9 07be 916d 59bd 05fa 143d
000002f0: 0bb8 2a3c 2f7d eebd c163 5aba a9fd c3bd
00000300: 4577 aabc 1c52 5cbd fd6a 68bd 9a7d 993d
00000310: 5f18 b63d 5bb6 863d c3f9 143e ffbd f93c
00000320: c0c4 513d 56c6 cebb 03d9 423d 1737 2a3d
00000330: e924 52bd fb17 92bd 8c14 9e3d 6f95 11bd
00000340: 0e1c dfbd fc6f 12bd 7610 90bd 1573 8e3c
00000350: c0bf 933d b39e 3cbc f9e4 833c 929c bdbd
00000360: fad8 15bc bc64 43bc c742 ab3d 7a2f c4bc
00000370: cad8 07be 8633 a93a 5899 6bbd ac75 41bd
00000380: 3dc2 93bc afa2 efbd 496b 3bbc 131c b1bc
00000390: 38a4 38bd 327a 24be 15a9 9a3d d4e4 df3c
000003a0: 69f3 273d 1650 78bc e994 39bd 07ab 25bd
000003b0: 4250 49bd f953 91bc 5e0f 973d 664d 683d
000003c0: 23c4 abbd f5c9 953b 1fbe bfbd 4e74 31bc
000003d0: 0bb5 f63c 0332 34bd 6701 24bd 7615 dbbc
000003e0: 5878 07bd 7730 483d 3714 a23d 3896 883d
000003f0: 5b77 17bb 187d 37bd d121 773d 0487 0b3e
-0.051509302 -0.13324259 -0.018371187 0.10855901 0.014951196 -0.07085159 -0.10560255 -0.054409813
0.08244517 0.075887114 -0.00044228576 -0.061025597 0.04804359 -0.026908863 0.08096544 0.03068847
0.01639402 0.06334655 0.054986782 0.11432321 0.03128274 0.03363609 0.07290386 -0.11397864
-0.039355196 -0.010025171 -0.041736484 0.003758221 0.038793895 0.044647824 -0.0351901 0.04697925
-0.038876902 0.12601627 0.07275242 -0.023342138 -0.002746332 -0.041195583 0.086629786 -0.0054980097
-0.039262496 0.008349893 -0.008584444 0.0059603504 -0.005343771 0.013349529 -0.15415327 0.06304448
0.08785579 0.035904225 0.006963166 0.044324808 -0.04366552 0.111083195 0.10055736 0.016124854
0.08391631 0.0020401534 -0.04109558 0.06502843 -0.12566324 -0.022964176 0.08731953 0.035035625
0.14934829 0.08371377 0.061981585 0.0070964876 -0.09486869 0.008100356 0.02458174 -0.10060024
-0.035578262 0.009043642 -0.07190768 -0.04365061 0.16936699 0.031142559 0.109616786 -0.029015759
0.04255984 -0.048444282 0.0067069735 -0.06362537 0.03918732 -0.05596822 0.03320266 0.02483574
0.016024958 0.051199775 -0.09779535 -0.014411255 -0.021232974 -0.017512934 0.088267736 0.046347287
0.022722216 0.0014104068 -0.07696322 0.06550518 -0.03783936 0.0010981588 0.068334095 0.08065341
-0.012187918 0.0797143 0.059797358 -0.12332194 0.032644328 0.027774602 0.090883225 -0.040810626
-0.03586804 0.1506806 0.010199047 -0.008979278 0.08332364 -0.06381172 0.021256967 -0.10048448
-0.047653534 0.05041774 -0.049891938 -0.046270445 0.08426099 -0.026376097 -0.1142054 -0.101591505
-0.036281053 -0.083551094 -0.027411142 -0.08378669 0.07205968 0.10103483 0.051447265 -0.083729364
-0.0452599 -0.028194185 -0.041754622 -0.038138993 -0.017637778 0.13263367 -0.02842717 0.028495139
0.02744744 -0.08261679 0.050562374 -0.01630898 -0.04166857 -0.008137392 0.07868343 0.066805795
0.07657348 0.058748335 -0.02217103 0.012731902 -0.1121479 -0.0057600904 0.022242015 0.025371237
0.04712853 0.06631248 -0.033105023 -0.044189744 0.052498557 0.018379545 -0.0042739413 -0.019173618
-0.09440083 -0.030715136 0.030733269 0.027232485 -0.040211353 -0.033284053 0.048880488 0.06558541
-0.0514393 0.0009222342 -0.025322806 -0.03051454 0.023965172 -0.06290162 -0.039569363 0.06882785
-0.045643978 -0.13254373 -0.053083006 0.03637125 0.010419856 -0.116449706 -0.00083309045 -0.09569866
-0.020808825 -0.053789243 -0.056742657 0.0749466 0.08891367 0.0657775 0.14548402 0.030486105
0.051213026 -0.0063102646 0.04757024 0.041556444 -0.05130473 -0.0713348 0.07718763 -0.0355429
-0.10894023 -0.035751328 -0.0703439 0.01738886 0.07214308 -0.011512446 0.016100394 -0.09258379
-0.0091459695 -0.011925872 0.08362346 -0.02394842 -0.13266292 0.0012909032 -0.057519287 -0.04723136
-0.018036956 -0.11700951 -0.011439153 -0.021619832 -0.045078486 -0.16062239 0.07551781 0.027330793
0.04100362 -0.015155813 -0.045308027 -0.040446308 -0.049148805 -0.017740237 0.07375978 0.056714438
-0.083870195 0.0045711943 -0.093624346 -0.010830952 0.030115625 -0.043993007 -0.0400404 -0.026743632
-0.033073753 0.048874345 0.07914012 0.06669277 -0.0023111913 -0.044797033 0.060334984 0.13625723

logits.bias f4 [5]
00000000: 200d 0bbd 5166 6d3d 1b73 5ebc b4df 34bd
00000010: e309 f63c
-0.033948064 0.057958905 -0.013577248 -0.044158652 0.030034011
