policy_squad2_qf_features.pt (torch, 420077 bytes, 6 tensors)

fc1.weight f4 [256, 144]
00000000: cf2b 423d e3a3 5e3e 512d 13be 8273 2e3d
00000010: 1038 47be 6884 d7bc 80c3 41bc e50f abbc
00000020: 4d72 35bd f930 18bd 5789 163d 76d3 4abe
00000030: 45aa d73d 3cc8 303e 4823 943d def7 cf3c
00000040: f852 783e 64b3 20be 837a 20bd 41b0 9e3c
00000050: 7677 103d f6a9 c1bd 24c3 853d b26b 953d
00000060: a960 afbe 9836 a8bd 5aff 1dbd dd50 5f3e
00000070: 5589 7abd 31d6 2c3e ab98 20be 2cb1 d4bc
00000080: fcc5 0ebd 2e8c 643d 052b 933d 2b0b 80bd
00000090: a874 173d 05d9 3d3d 076b 7bbd 1b30 20be
000000a0: 7536 993e 52b0 1cbe 8c74 dc3c acfe aa3d
000000b0: 0e58 c3bc 7bc4 a83d 5680 08bc a068 053e
000000c0: 51bb 003e b796 a8bd e2bf 133e 6464 edbd
000000d0: f5d6 823d bd14 0abd 993d 94bb ad7f eb3d
000000e0: fdce 363e 5402 40bc 0d2f e3bd 1613 a8bd
000000f0: 90e8 a9bd c7fa 0abe 52d9 b8bd 5cdb 753d
00000100: 8259 e9bc aa59 34bd 9738 223e 30e1 363e
00000110: d8c2 14bc 1ddb 28bd 36b3 9a3d df70 2d3e
00000120: e200 0f3e 3b78 943d 3795 93bd c11e 5ebc
00000130: fe75 7fbd e750 443e c0d8 b2bd 2735 24be
00000140: ad07 49be 0258 4abd 826d 83bd b475 a73d
00000150: 9f22 423e 896f d63d d6f7 0abe 242a 053e
00000160: 18ad 943d 918b 53be 7949 4c3e 7577 7c3d
00000170: e98a e03c 7c51 0abe 1d13 c23d a212 963d
00000180: 8528 38bd 08c0 b8bb 4104 92bd f3f8 20be
00000190: 2d5d 8fbd 7a69 c43d f613 0b3e d94b 9dbd
000001a0: 4dcc 99bc b974 a6be 4f70 3bbe e1fc 033e
000001b0: 9de6 a2bd 1688 9dbd 5e3e 7abd 142b 1d3d
000001c0: c00c e13d 00f1 26be 13e3 5fbd 342f a2bc
000001d0: e7fa 47be 500c ac3d ce9c 5cbe cbeb 2b3b
000001e0: 3c29 29bd a75a ad3d c473 8cbd 99cb 5b3d
000001f0: 52a7 09bd 8150 643d 7af8 053e feff 513e
00000200: 188e 3d3f 62a1 403f c8ab 4a3f f25d 353f
00000210: cda3 453f b98f 543f 11ee 2a3f caee 203f
00000220: 35bd 0f3f 5722 073f 6541 d53d c823 203f
00000230: 3979 333f ef47 2d3f 0d67 3f3f ec21 443f
00000240: fc1b c13d 0812 513d 4004 b4bd 5068 3f3d
00000250: 32cf 8ebe 5206 483d f334 17bd bd9a 95bc
00000260: 1597 cc3d aada d23c c69a a4bc 5b80 dabd
00000270: aee4 053e 6ff0 f33d c64a 69bd 1023 2bbe
00000280: 9d6e 813e eb76 30be fafb 3fbe e45e 10be
00000290: fb82 ec3d cefd c73c 2643 21be 3c83 5fbd
000002a0: ee80 00be d133 d93b 4b73 77bd 7e86 393e
000002b0: 080e 5abb 3290 073d a586 5bbd 29a3 873d
000002c0: 335a a73c ec9d 533c de97 d63d 0969 ca3d
000002d0: f465 963d 1794 143e ca7c 863d 2a34 babd
000002e0: 91cb 843e 041b 3dbe 9184 91bd 59cb e33d
000002f0: b83d 1c3e 842d 7e3d 8e1e 683d 2868 073e
00000300: d610 dc3d 0627 06be 09bb 3fbd ffd5 9cbd
00000310: e26a e23d 1e4d 343e 87bc c23c d921 8c3d
00000320: ddbd aa3c d786 763c 257b 32bc d9bc 13be
00000330: d01e 16be b3f2 173d 7f54 46be 68c9 c9bd
00000340: fcb0 8c3d 460c 78bd 8dda 893d 1aa9 c53d
00000350: 7643 4fbd 66c9 a13c 6c19 0cbd 3f1b 273b
00000360: ba38 053e 0372 dd3d 2c9f f73d b219 8fbc
00000370: 11ab 46be e0fc f53d 1c0f 79bc 6d92 bebd
00000380: f5b8 41be e7bb a23d afb0 1a3d 1feb 0a3d
00000390: 3db8 313e 85be 2c3e 2eee cbbd 3b11 a6bd
000003a0: 7d64 ef3d 4e71 1dbe a69b 023e eb2f 95bd
000003b0: e92b 37be 633e 53bc ff59 f13d 2c3c 29bd
000003c0: 21fe 02be fb7d e0bd 8ad7 703d bb69 31bd
000003d0: da0f 21be 91ce 593a 2916 633e 27b7 c2bd
000003e0: 7c3a bdbd 8df2 4bbe cdb9 14be 621b f6bc
000003f0: 7bc4 7dbe a761 cebd 07b5 d9bd 9475 c9bd
0.04740506 0.21742205 -0.14372756 0.042590626 -0.1945498 -0.026308253 -0.011826396 -0.020881603
-0.04429846 -0.03715608 0.03675207 -0.19807228 0.10530523 0.17263883 0.07233292 0.025386747
0.242504 -0.15693432 -0.039179336 0.019371154 0.035270177 -0.094562456 0.06531361 0.07295932
-0.34253433 -0.08213538 -0.0385736 0.2180819 -0.061166126 0.16878583 -0.15683238 -0.025963388
-0.03485678 0.05579775 0.0718594 -0.0625213 0.036976486 0.046349544 -0.061381366 -0.15643351
0.2992436 -0.15301636 0.026911043 0.08349356 -0.023845699 0.08240601 -0.008331379 0.13028193
0.12571456 -0.082318716 0.14428666 -0.115914136 0.06388656 -0.033711184 -0.0045239446 0.114989616
0.17852397 -0.011719305 -0.110929586 -0.08206765 -0.08296311 -0.13572226 -0.090258256 0.06002365
-0.028485063 -0.044030823 0.158419 0.1785934 -0.0090796575 -0.041224588 0.07553713 0.16937588
0.1396518 0.07249495 -0.07206195 -0.013557137 -0.062368385 0.19171487 -0.08732748 -0.16035901
-0.19631834 -0.049400337 -0.06417371 0.08176747 0.1895852 0.104704924 -0.13571104 0.13004357
0.072595775 -0.20658709 0.19949903 0.06163736 0.027409988 -0.13507646 0.09476302 0.07327773
-0.044960517 -0.0056381263 -0.071297176 -0.15719967 -0.07000194 0.095904306 0.13581833 -0.076804824
-0.018774176 -0.32510927 -0.18304561 0.12889434 -0.07954142 -0.07691972 -0.061094634 0.03837116
0.1098876 -0.16302872 -0.054659914 -0.019797899 -0.19529305 0.08400786 -0.21544191 0.0026233073
-0.04129909 0.08464556 -0.06858018 0.053660963 -0.033606835 0.055740837 0.13083068 0.2050781
0.7404494 0.7524625 0.7916837 0.70846474 0.77203065 0.83031803 0.6676951 0.62864363
0.5614808 0.52786773 0.10412864 0.625546 0.70106846 0.67687887 0.7476662 0.7661426
0.09429166 0.051042587 -0.08789873 0.04673034 -0.27892452 0.048834153 -0.03691573 -0.018262262
0.09989754 0.025739033 -0.020093333 -0.10669013 0.13075516 0.119110934 -0.056956075 -0.16712594
0.25279704 -0.17232864 -0.18748465 -0.14098698 0.1154842 0.024413016 -0.15748271 -0.054568514
-0.12549183 0.0066284915 -0.060412686 0.18117711 -0.0033272523 0.0330965 -0.053595204 0.06622917
0.020428753 0.0129160695 0.10478185 0.09883315 0.07343665 0.14509617 0.065667704 -0.09091981
0.2593656 -0.18467337 -0.07105363 0.1112277 0.15257919 0.062055126 0.056669764 0.13223326
0.10745399 -0.13100824 -0.04680923 -0.07658004 0.110555425 0.17607543 0.023771537 0.068423934
0.020842487 0.015046797 -0.010893618 -0.14427508 -0.14660192 0.03709669 -0.1936817 -0.09852868
0.068696946 -0.06055858 0.067311384 0.09651394 -0.050601445 0.019749355 -0.03420393 0.0025498418
0.1300992 0.10812762 0.120909065 -0.017468307 -0.19401194 0.12011123 -0.015201356 -0.09305272
-0.18918212 0.07945996 0.037766155 0.033915635 0.17355438 0.16869552 -0.099575385 -0.08108755
0.116890885 -0.15375254 0.12754688 -0.0728453 -0.17887844 -0.012893292 0.117847435 -0.04131715
-0.12792255 -0.10961529 0.058799304 -0.043313723 -0.15728703 0.0008308674 0.22176422 -0.0950759
-0.09239671 -0.19916745 -0.14524002 -0.030042354 -0.24781983 -0.100772195 -0.10630231 -0.098368794

fc1.bias f4 [256]
00000000: 0f3d 3a3f 3b1a 3c3f 40f5 2e3f fc5a 2c3f
00000010: 89d7 433f a902 513f 6cf1 453f 3ae5 323f
00000020: db6f 4d3f 21ee 443f 6dc2 413f 7dc5 393f
00000030: 8cb1 523f 0f98 3e3f 18d2 533f 59eb 2f3f
00000040: 9d0f 533f 2ca4 383f 065e 303f 9310 4f3f
00000050: cd14 3f3f 203c 373f abe8 1c3f 5c85 463f
00000060: d1fa 343f bb5a 4b3f 5afd 3e3f ace5 4d3f
00000070: 8f50 2b3f 861b 443f feed 403f 8bb7 4e3f
00000080: f99f 393f 62da 453f cf96 453f 5f76 4f3f
00000090: 6252 4a3f 86b7 2c3f 1d77 283f da21 303f
000000a0: 752e 543f f68e 413f 2266 413f 59f7 393f
000000b0: 6b3c 343f fcf5 403f 09cd 363f ca6c 4f3f
000000c0: 4e45 373f 3cec 293f ff32 3f3f 5c6d 423f
000000d0: a68c 553f 760c 433f 0447 443f 6a09 313f
000000e0: 6e44 483f 9588 4e3f 8c98 2d3f d9bb 4b3f
000000f0: a671 363f 1e4e 4c3f 97d7 423f fa6a 3d3f
00000100: 5cbb 313f 334e 4d3f 0b38 283f 579b 363f
00000110: 80ab 3b3f b615 3d3f 3be8 283f bad7 3f3f
00000120: 2db1 543f f856 383f 9e37 2e3f fd95 363f
00000130: a9c9 393f 98cb 453f e68a 3c3f f0c6 413f
00000140: b594 4b3f 028b 403f ab63 553f f80f 513f
00000150: 3e01 323f bc09 523f 9dcf 363f c19c 383f
00000160: 0746 433f 06f9 343f f800 303f 767d 4f3f
00000170: 2bbc 303f 30f1 493f 3222 3d3f e0ac 483f
00000180: aa63 4f3f 493f 333f 1d21 2c3f 0050 503f
00000190: 8c1e 4c3f 26b6 523f 7dc6 343f f553 3e3f
000001a0: d4b4 2f3f 3e75 2d3f bfcc 303f 8d6c 2f3f
000001b0: ed25 453f c4bb 423f 094c 2b3f 9d2d 3a3f
000001c0: af5e 333f 2f96 4d3f c350 4c3f b236 483f
000001d0: 2a6a 403f d026 333f 5bba 433f 6dfe 373f
000001e0: 9cd0 323f 6c71 4f3f 0f66 2c3f 70a8 2b3f
000001f0: c1a2 3f3f 94bc 533f 08d3 413f d069 443f
00000200: db5f 433f 7888 483f a1a8 2c3f d66a 503f
00000210: 73e3 423f 5415 413f 0f87 413f 197a 333f
00000220: 21c2 3c3f 9ba1 2a3f 5acb 303f a1a0 463f
00000230: a5c5 423f 70b0 323f 7243 4a3f e949 2f3f
00000240: 89b3 3b3f c7f9 2c3f f408 363f 9aab 493f
00000250: cc3e 203f 961b 523f ef85 2f3f 73fd 4d3f
00000260: 38c0 553f 23e7 303f b667 4a3f 9702 433f
00000270: f7a9 4b3f 81d3 533f 07a3 2f3f 9a66 443f
00000280: 3e1f 303f 43e1 293f 5e21 533f 0e27 2b3f
00000290: 035f 293f 0bac 3e3f 5538 4b3f aa9a 3f3f
000002a0: bfe7 463f 66d1 3c3f 5836 4a3f c999 363f
000002b0: 5656 4c3f 3856 2d3f 644c 373f 17a1 413f
000002c0: 1406 3d3f bf5d 393f 95d2 483f a6d4 423f
000002d0: 143e 3b3f 9f19 3d3f 4820 2c3f 4c81 2a3f
000002e0: 0573 313f 6281 4c3f 5995 383f d996 463f
000002f0: 3896 323f ab27 4c3f 4502 383f 3e59 443f
00000300: cdcd 333f 0361 3c3f 2a1d 2b3f cae6 4d3f
00000310: 5036 433f 9277 3a3f 9b56 523f b0bd 503f
00000320: 25d8 3c3f 640d 3b3f 555e 553f f88d 463f
00000330: 054b 383f 1def 423f d1cd 433f e13c 2a3f
00000340: e56b 323f cd24 513f 7343 393f 72c5 303f
00000350: c4a5 383f 72ab 2f3f 1914 3c3f 89fb 533f
00000360: 745e 3f3f a8e8 4c3f bf96 493f 0cbd 533f
00000370: 390b 2e3f 46f6 3d3f efa4 2a3f 013b 473f
00000380: 5fe2 2c3f 6605 3b3f 6554 323f 3430 3d3f
00000390: 1775 313f cb6d 383f d5ad 313f 19db 333f
000003a0: ea44 443f f847 3b3f b350 4e3f 8e64 523f
000003b0: 164c 3c3f 52c4 393f ed13 433f 124b 353f
000003c0: 4233 433f 4126 323f f9ae 463f 4ee0 483f
000003d0: 0d0e 513f 478b 4e3f 0a09 403f fd7d 493f
000003e0: a119 4b3f 75d7 4e3f 520e 313f 435d 363f
000003f0: 319b 4e3f 5a42 493f 0aa8 413f 5710 393f
0.7274942 0.73477525 0.6834297 0.6732633 0.76500756 0.81644684 0.77321506 0.6988102
0.802488 0.76925856 0.75687295 0.7256697 0.82302165 0.74450773 0.8274245 0.6871849
0.824457 0.72125506 0.6889347 0.80884665 0.74641114 0.7157612 0.61292523 0.7754724
0.70695215 0.7943532 0.74605334 0.80428576 0.669198 0.766045 0.7536315 0.80748814
0.72509724 0.7728635 0.7718324 0.81039995 0.79031956 0.67467535 0.6580675 0.68801653
0.8288339 0.75608766 0.7554647 0.7264305 0.7040469 0.7537534 0.7140661 0.81025374
0.71590126 0.6637609 0.7468719 0.7594812 0.8341774 0.7619089 0.7667086 0.6915499
0.78229415 0.8067716 0.67810893 0.7958351 0.71267164 0.798067 0.76110214 0.7399136
0.6942651 0.8019745 0.65710515 0.7133078 0.73308563 0.73861253 0.65979356 0.7493855
0.8308285 0.72007704 0.68053615 0.71322614 0.72573334 0.77263784 0.7364944 0.7569418
0.79523784 0.7521211 0.83355206 0.8166499 0.69533145 0.82046103 0.7141054 0.7211419
0.7627873 0.7069248 0.6875148 0.81050813 0.6903712 0.7888365 0.738803 0.78388786
0.8101145 0.7001844 0.67238027 0.8137207 0.7973411 0.82309186 0.7061537 0.7434686
0.68635297 0.6775702 0.6906242 0.6852501 0.77010995 0.7606776 0.66912895 0.7272585
0.7006635 0.80307287 0.7981073 0.7820846 0.75161994 0.699811 0.7645623 0.718726
0.6984956 0.81032443 0.6734323 0.6705389 0.7485772 0.8270962 0.75712633 0.7672396
0.7631814 0.78333235 0.6744481 0.8141302 0.7612831 0.7542317 0.7559671 0.7010818
0.7373372 0.6665284 0.6906029 0.7758885 0.7608283 0.6980047 0.79009163 0.6847215
0.73320824 0.6756863 0.7110741 0.7877747 0.6259582 0.8207334 0.6856374 0.8046486
0.8349643 0.69102687 0.790645 0.76175827 0.7955622 0.82744604 0.68608135 0.7671906
0.6879767 0.6635935 0.8247279 0.6685647 0.661606 0.74481267 0.7938283 0.74845374
0.77697366 0.73757017 0.7898917 0.7132841 0.7981924 0.67709684 0.7160094 0.7563643
0.738374 0.7240867 0.7844632 0.76105726 0.731416 0.7386722 0.6723676 0.6660354
0.6931613 0.7988492 0.72102886 0.77573925 0.69760466 0.7974803 0.71878463 0.7669867
0.702359 0.7358553 0.66841376 0.8043028 0.7625475 0.728387 0.821634 0.8153944
0.7376731 0.7306731 0.83347064 0.7756038 0.7198947 0.7614611 0.76485926 0.66499144
0.69695884 0.8169678 0.72368544 0.6905128 0.7212794 0.6862098 0.73468167 0.8280569
0.747535 0.80042505 0.78745645 0.8271034 0.67985874 0.7420391 0.6665792 0.7782441
0.67532915 0.7305511 0.69660026 0.7390168 0.6931929 0.7204253 0.6940587 0.7025619
0.76667655 0.7315669 0.8059189 0.82184684 0.735536 0.72565186 0.7620228 0.70817673
0.7625009 0.6958962 0.7761074 0.7846726 0.81662065 0.8068127 0.7501379 0.7870787
0.7933598 0.8079751 0.69162476 0.71236056 0.80705553 0.7861687 0.7564703 0.7229056

fc2.weight f4 [256, 256]
00000000: 75a0 033f f32e f33e 8161 cc3e 378c ec3e
00000010: 287c f03e 6546 d13e fd48 d33e 8a1b dc3e
00000020: 0510 f53e c998 d63e 39ff f83e a8e7 d13e
00000030: c33f d43e 53d6 ec3e 90a2 ed3e 4ef1 f13e
00000040: a599 cc3e ac74 fa3e 4596 f83e 7413 e43e
00000050: 8b95 e03e d9c8 cd3e d617 023f f7b7 e13e
00000060: 39a8 d63e 6d4a db3e 48c9 cb3e 02de f73e
00000070: d2c5 e33e aea5 013f ab3e d63e 9099 d43e
00000080: 7b55 d33e 4794 cc3e 3ab7 dc3e b426 cd3e
00000090: 5fca dd3e 9fb7 f03e a38f ef3e cf53 ec3e
000000a0: 9ae8 d73e f2c3 ef3e df6b de3e 6310 073f
000000b0: 3f10 cb3e 249f cf3e 1b88 e03e dcec ec3e
000000c0: 12bc c83e 6550 f03e 6cbd dd3e 35a6 eb3e
000000d0: e760 eb3e 02a2 d33e ab88 f83e 2d57 003f
000000e0: cfcb e13e 2a25 e43e f38e dd3e 45c3 fa3e
000000f0: 8845 ce3e c730 f83e 499a ec3e 3bdd e83e
00000100: 556e d53e 5a12 e83e 81d3 f93e a7b1 d83e
00000110: 284d d23e a1d1 f63e 7b98 fa3e 708c 013f
00000120: 15b6 e33e c7fc d43e 336e fb3e 132f df3e
00000130: cbc6 d93e aa8d ef3e 1afa db3e a4c1 ef3e
00000140: f617 023f db6b fa3e 22a1 e63e af63 d63e
00000150: 278a ec3e 6c12 f03e 8abe ce3e 941b f93e
00000160: 1ef2 ea3e 6e06 ff3e ddac d43e b522 cd3e
00000170: 72b3 fc3e 068c ed3e 7d0e f53e cd9c 093f
00000180: b141 d03e 57a8 f23e 5a6b fb3e ebbf dc3e
00000190: 4479 db3e 136d d03e 7c00 cd3e ad50 ec3e
000001a0: 9051 e63e f6b2 d13e 4735 ec3e 6c95 f13e
000001b0: ef0a fc3e 5bdd cd3e 055e ef3e 03ea fb3e
000001c0: 4305 ee3e 0bfc fe3e c18e dc3e 8ac3 f13e
000001d0: 7fc5 e33e e02c fc3e 961e dc3e 8dfd dd3e
000001e0: 1db2 fa3e 9ff2 cd3e 0ca0 df3e 176b 0a3f
000001f0: 508b ed3e e2e8 f63e 8745 e83e 4938 d33e
00000200: 7edf cd3e d198 003f 8613 df3e 06a7 d13e
00000210: 32c6 d03e fac0 cf3e b6ce d13e 3eb0 cd3e
00000220: 0223 c93e e766 f23e 1f7d c93e 92b5 cc3e
00000230: fa4a fa3e 7b43 f33e 1fa6 fe3e 037b db3e
00000240: 3c45 003f 07b3 e53e fb6c f83e 366b ea3e
00000250: c347 cf3e c5b8 ee3e 6593 e43e 68c3 cd3e
00000260: 30fe ed3e 204d e73e bf5e 023f eb9b d43e
00000270: c416 de3e f18d e73e c5af e73e 74b1 d43e
00000280: 9e82 013f bdd2 013f fe3b e23e 296c da3e
00000290: aad7 f93e 280c 053f c345 fc3e 3f10 fb3e
000002a0: ed7b 053f 82fa ea3e 8d0a e23e 058c d23e
000002b0: cf72 df3e db40 fb3e 759a e83e 88b2 043f
000002c0: 17ed 033f e8bb d93e e645 ec3e bb91 ef3e
000002d0: acd5 f63e a83f eb3e 6158 db3e feab 043f
000002e0: 17f8 ec3e 27c3 d43e cc74 f23e fe23 e23e
000002f0: 682a 043f 9f19 063f 4e83 f83e 0eb8 f93e
00000300: 5a63 fb3e 380e c83e b875 e83e e2a6 da3e
00000310: 76f7 d33e b576 053f 979d e73e 09a5 e83e
00000320: e440 e83e e2b6 f73e ea2a 003f cb19 f93e
00000330: 1916 003f 2c86 073f 68e4 fc3e 42de e33e
00000340: 93ff ca3e a428 fe3e 6cff db3e d599 d93e
00000350: 2298 fd3e 9af5 c83e 581a f33e 3122 e33e
00000360: b579 f33e 3bb4 d33e 6cc6 e53e c8b1 d03e
00000370: db90 f03e d989 de3e ff7b f53e bf5c e63e
00000380: dad4 e83e 3333 d43e 4c26 fa3e 2be2 e53e
00000390: a007 ee3e aa1a fe3e 1e48 fd3e 78f4 ee3e
000003a0: 501b 063f 15f5 003f dad8 f43e 9237 f63e
000003b0: 9087 fa3e ea79 d43e 4a55 fb3e 00f3 d93e
000003c0: f2bf e13e 444d f03e e872 013f 5738 d33e
000003d0: ac3c c53e 327f d73e 0a44 033f 8229 c93e
000003e0: 0c83 fa3e 90d6 e13e f861 cc3e d849 013f
000003f0: 7d0e cd3e 3787 d73e cecd e63e 8551 ea3e
0.51416713 0.47496757 0.3991814 0.46200725 0.46969724 0.4087402 0.41266623 0.4298976
0.47863784 0.4191344 0.4863222 0.40997052 0.41454896 0.46257266 0.46413088 0.47254413
0.3996097 0.4891714 0.48552147 0.44546092 0.43864092 0.40192297 0.5081762 0.44085667
0.4192522 0.4283022 0.39802003 0.48411566 0.44486862 0.5064343 0.41844687 0.4152341
0.41276154 0.39956877 0.4310854 0.4006859 0.4331846 0.47015092 0.46789274 0.4615769
0.42169648 0.46829182 0.43441674 0.5275938 0.39660832 0.40551102 0.4385384 0.4627446
0.39205986 0.46936336 0.4330858 0.46025243 0.45972368 0.4133454 0.4854177 0.5013302
0.44100806 0.44559604 0.43273124 0.48977104 0.40287423 0.48474714 0.4621146 0.45481285
0.4168574 0.453265 0.48794177 0.42323038 0.4107449 0.4820681 0.48944458 0.50604916
0.44474855 0.41599104 0.49107513 0.43590602 0.4253448 0.4678777 0.4296425 0.46827424
0.5081781 0.48910412 0.4504481 0.41872928 0.46199152 0.46889055 0.40379745 0.48653853
0.45887846 0.49809593 0.41538134 0.40065542 0.49355656 0.46395892 0.47862616 0.53754884
0.4067512 0.47394058 0.4910534 0.43115172 0.42865956 0.40708217 0.40039432 0.461553
0.44984102 0.4095685 0.46134397 0.47184312 0.49227092 0.40207943 0.4675142 0.49201974
0.4648839 0.4980167 0.43077663 0.47219497 0.44486615 0.49252987 0.42992085 0.43357506
0.48964015 0.40224168 0.43676794 0.54069656 0.4639535 0.4822455 0.45365545 0.4125388
0.40209574 0.5023318 0.43569583 0.4094774 0.4077621 0.40576917 0.4097802 0.40173525
0.3928452 0.47344133 0.39353272 0.39982277 0.48885328 0.4751242 0.49736115 0.42867288
0.50105643 0.4486315 0.48520645 0.4578492 0.40484437 0.46625343 0.44643703 0.40188146
0.46482992 0.4517603 0.5092582 0.41525206 0.43376744 0.4522548 0.4525129 0.41541636
0.5058993 0.50712186 0.44186395 0.42660645 0.4879735 0.51971674 0.49271974 0.49035832
0.5214222 0.45894247 0.44148675 0.4112245 0.4364228 0.49072918 0.4543034 0.5183492
0.51533645 0.42526174 0.46147078 0.4679087 0.48209894 0.45947003 0.42840865 0.5182494
0.46283028 0.4155514 0.47354734 0.44168085 0.51627207 0.52382845 0.48537678 0.48773235
0.49099237 0.39073348 0.45402312 0.42705446 0.41399735 0.5213426 0.4523742 0.45438412
0.45362008 0.48381716 0.5006548 0.4865249 0.5003372 0.52939105 0.4939301 0.44505507
0.39648113 0.4964038 0.4296831 0.42500177 0.4953013 0.3924988 0.47481036 0.44362023
0.47553793 0.41348442 0.44877946 0.40760636 0.46985516 0.43464544 0.47946164 0.44992635
0.45474893 0.41445312 0.48857343 0.44899115 0.46490192 0.49629718 0.49469084 0.4667089
0.52385426 0.50373966 0.47821695 0.48089272 0.4893155 0.41499263 0.49088508 0.42568207
0.44091755 0.4693395 0.5056596 0.4125392 0.3852285 0.4208923 0.51275694 0.3928948
0.48928106 0.4410901 0.39918494 0.505033 0.40050116 0.42095348 0.45078892 0.4576532

fc2.bias f4 [256]
00000000: d3cf c03e a013 2b3c 3784 13bc 773b da3e
00000010: 91de 06bd 5ac9 e03e 8d05 94bd 67ed b73e
00000020: cb76 3bbc 031b f23e ce68 033b 9bdc 3b3d
00000030: d484 8bbd 64a7 c73e 9f49 023f 8201 fbbc
00000040: 80e6 033c 7a92 fc3e d1ed d33c c91a 63bd
00000050: b008 ef3e bfbf 85bd c91f 31bd 2817 81bd
00000060: b941 0b3f a67c 173f fe10 573d 7813 f43a
00000070: addb d53e c6e4 e93e 9583 003f 7ceb 85bd
00000080: a859 f53e b707 f53e 874c 393d 0a30 093f
00000090: 56fb b63c 438b 043f d834 30bd af20 1bbd
000000a0: f840 113f 21c5 ef3b 2558 223f 89e6 a53e
000000b0: 9977 5abd 5fad d23e b282 47bc 131b d03e
000000c0: 3044 d63e 8965 d03c 0c96 e6bc 8d2c 2d3d
000000d0: 35f2 cb3c 780d bf3e a922 cb3e 2e2c 153f
000000e0: f75e e23e 8fff dd3e 979c 12bd d30d 2d3d
000000f0: aeb0 1b3f fb33 ce3e 22fd 1b3f 39e8 eabc
00000100: bfa6 33bd 1810 f63e b78a e33e c367 193d
00000110: 6e3f 063f 3669 8d3c b82b 833c 4438 1c3c
00000120: 2e35 dc3e 01ef 023f d1bd 2bbd 4c13 f33e
00000130: 4e6a 2bbd cae4 c63e a4ed d63e cf76 25bc
00000140: e3f8 51bd 6b01 3dbd b76b ff3e aa8d b63e
00000150: 5e42 93bb 4aec 103f af2a 063f 704a da3e
00000160: 2e6a 9c3e 1d6b bc3e 77c8 69bd a94f ef3b
00000170: 8115 e93e d958 0f3f e6f2 b33c 4687 433c
00000180: ea2f e03e 34f0 c0bc aee0 9c3c 8502 25bc
00000190: 3319 dc3e 4362 433d deee db3e 12c3 da3e
000001a0: ba0d 8dbd 7e12 cb3e bcdc da3c a13f f03e
000001b0: 3fa2 453d bd80 97bd 2ae8 f0bc b73a d53c
000001c0: 3449 b03e e2fc b73e 0f69 193d da38 22bd
000001d0: 3532 d83e f081 153f 2b10 e33e cdba f83e
000001e0: 9845 d93e 08bf 92bd 7fd8 463d 97bd 3abc
000001f0: f70a 27bd 8647 c2ba 7d45 f2bc 1bd9 003c
00000200: 6176 bd3c 20a8 093f 1a4a b43e 6311 ed3e
00000210: 6535 d03e 2e1c f33d 8284 df3c 98c2 3c3d
00000220: c01e b53e 877a 193f 0fce ef3e b6ad 85bd
00000230: cb85 8fbc 5a1e 0f3f 5102 eb3e acbe bd3e
00000240: d07a f83e d2c2 46bd 954e fa3b b0e6 173f
00000250: a14d 483d b03c d33e 69fd d33e 857f 97bb
00000260: 4bf7 d6bc ba46 073f 7a05 e9bc 772b b33e
00000270: e3af dbbb 4270 cd3e 4686 89bd 232e 80bd
00000280: 75ec bb3e 1c81 e23e 82b0 1c3f 3e9d d53e
00000290: f290 22bd 6e6c ca3b 06f6 21bd 90bc 0d3f
000002a0: 3d24 043f 3cc8 013f 2336 93bd d201 1c3f
000002b0: 1da9 973e 2cef d03e 1b97 c33e 9a79 91bc
000002c0: 5422 ad3e c0c0 c73e 04d7 cc3e fcd8 8f3b
000002d0: 4bc2 5ebd 8184 24bd 93f7 55bd 245f b33e
000002e0: 2a1b a2bb 3155 72bb 032f 2b3c 9dbe 93bc
000002f0: 316c c63e f3d6 b83e 6a97 003f 41db 173f
00000300: 0971 053f 3305 ed3b f6a0 1abd d87a f43e
00000310: 5945 103f abfe e13e 4534 e23e 0d15 62bd
00000320: d68b dc3e a502 7fbd bbb7 033d 5f0e 6cbd
00000330: 525d e93e 3d80 023f 660e 4b3c 2695 e63e
00000340: c50a ba3c 49f4 073f 8171 543c f43a c63e
00000350: 3172 103f 42b8 a03e c2cf 92bd 1132 f33e
00000360: 71f4 f23e 9796 32bd d0c9 843b 1fc6 d73e
00000370: d8b8 723c 606c 783b cd41 d1bc 39f4 083f
00000380: e1e0 87bd 82f1 043f bcae d23e f1de 303d
00000390: 5af9 9ebc b1fa b23e b657 bdba 2202 11bb
000003a0: 3f8b 133d d354 083f eeca 653d dea6 f63b
000003b0: 5615 dd3e 445f a93e f3a1 cd3e 62ed df3c
000003c0: f656 843e f9db eb3e 75fd 1dbd 6621 103f
000003d0: 7007 063f 67fe ca3e f530 c43e d91e ec3e
000003e0: 5aae 61bd 31d4 b33c 00ce c53e 8f4b 053f
000003f0: 8c53 d93e fe3f 8abd 23be 4cbb e4ec e43e
0.37658557 0.010441691 -0.00900369 0.42623493 -0.0329271 0.4390362 -0.07227621 0.3592331
-0.011441897 0.47286233 0.0020051482 0.045864683 -0.06812444 0.38994896 0.50893587 -0.030640367
0.008050561 0.49330503 0.025870236 -0.055445466 0.46686316 -0.06530713 -0.043243203 -0.06303245
0.5439716 0.59174573 0.05250644 0.0018621525 0.41769162 0.45682353 0.5020078 -0.06539056
0.47919965 0.47857448 0.045238998 0.53588927 0.022336643 0.51774997 -0.043019146 -0.037872966
0.5673976 0.007317201 0.6341575 0.32402447 -0.053336713 0.41147897 -0.012177156 0.40645656
0.41848898 0.02543904 -0.02814772 0.042278815 0.024895767 0.37314963 0.3967488 0.5827054
0.44213077 0.43359038 -0.035793867 0.042249512 0.60816467 0.40274033 0.60933125 -0.028675186
-0.043860193 0.48059154 0.4444177 0.03745247 0.52440536 0.017262083 0.016012058 0.009534899
0.43009323 0.5114594 -0.04192907 0.4747566 -0.041849427 0.38846427 0.4197818 -0.010099127
-0.051262747 -0.04614393 0.49886867 0.35654956 -0.0044939956 0.5661055 0.5240888 0.42634916
0.3054976 0.3680047 -0.057075944 0.0073031974 0.4552422 0.55994946 0.021966409 0.011934107
0.43786556 -0.023552038 0.019150104 -0.0100714015 0.42987975 0.04770113 0.4295568 0.42726952
-0.06887384 0.39662546 0.026716582 0.46923545 0.048250433 -0.07397602 -0.02940758 0.026028974
0.3443085 0.35935122 0.037453707 -0.039605 0.42225805 0.58401394 0.44348273 0.48580018
0.42435908 -0.071653426 0.04854631 -0.011397741 -0.04078194 -0.0014822341 -0.02957415 0.007864262
0.023127737 0.53772163 0.35212785 0.46302328 0.40665737 0.11870609 0.027284864 0.046084017
0.35375023 0.59952587 0.46836898 -0.06527273 -0.017519852 0.5590569 0.45900205 0.37059534
0.48531199 -0.04852564 0.0076387622 0.59336376 0.048902158 0.41257238 0.41404274 -0.004623356
-0.026240965 0.52842295 -0.028444994 0.349941 -0.006704317 0.40124708 -0.06715064 -0.062588
0.3670384 0.44239128 0.6120683 0.4172153 -0.039689012 0.0061774766 -0.039541267 0.5536585
0.51617795 0.5069616 -0.0718806 0.6094028 0.2962121 0.40807474 0.38201222 -0.01775818
0.33815253 0.39014244 0.40007794 0.00438988 -0.05438451 -0.040165428 -0.05223806 0.35033524
-0.004947086 -0.0036977048 0.01044822 -0.018035227 0.38754418 0.36101493 0.5023104 0.5931893
0.521256 0.007233286 -0.03775116 0.47749972 0.56355816 0.4413961 0.44180503 -0.055195857
0.43075436 -0.06225838 0.03215764 -0.057630893 0.4557901 0.50976926 0.01239357 0.45035666
0.022710213 0.53107125 0.012966515 0.38716853 0.5642424 0.31390578 -0.07168533 0.47499135
0.4745212 -0.043600645 0.0040523782 0.42143342 0.014814578 0.0037906393 -0.025544072 0.53497654
-0.06634689 0.5193101 0.41148937 0.043181363 -0.01940601 0.34956887 -0.0014445696 -0.0022126515
0.036021467 0.5325443 0.056101732 0.0075272163 0.4318034 0.33080494 0.4016262 0.027334873
0.25847596 0.46066263 -0.038571794 0.5630096 0.523551 0.3964722 0.383186 0.46117285
-0.055097915 0.021951767 0.38633728 0.5206842 0.42446554 -0.06750487 -0.003124126 0.44711983

logits.weight f4 [5, 256]
00000000: f8c0 b43c fe12 e73c 3e7e 2e3d b1a6 ce3d
00000010: c050 f23c 2cba bb3d 4199 683c 9c7f 6f3c
00000020: cb1c 8fbc 677f 943d 140b 96bc b489 44bb
00000030: 2bc8 423d 93f3 1c3d ac46 e13c adae 173d
00000040: 6553 b63b 1e93 573d a033 46bd 099d 5cbc
00000050: e965 983d 7ff6 1f3d e423 e2bc 9eec 3e3d
00000060: 0bf0 683d 9dd4 1e3d e557 733d 9b06 c5bc
00000070: b21a 473d 1cff a63d 3954 b03d b3c1 5fbc
00000080: 7c02 5fb9 68b7 563d 7fd3 373c 6a19 193d
00000090: 3c5d a83c 8b75 593d 0f60 7abd 3174 40bd
000000a0: d01b 903d 1f32 ae3c 0ce6 6b3c 794e 0c3c
000000b0: b1e8 61bd aa4e fd3d 333d 08bd aef7 e73d
000000c0: 70d4 e33d ba6b 0fbd 17dc 18bd ceae 2f3d
000000d0: 0163 1e3d 17e8 b33d 26e7 a93c 2da1 fa3c
000000e0: 64c2 6c3d f0d5 a43d 3f55 6cbd 2ddb 4a3d
000000f0: 6272 343c 5788 5c3d feca 843c bef0 1cbd
00000100: d113 2b3d 84ad 1c3c ac94 883d 51ed 7a3d
00000110: 3483 783c fa1c 933c 3446 843c ccaa 6a3d
00000120: 525d cc3c 3655 883d 6459 54bb 143f af3d
00000130: abb0 603d 4424 8b3d f96e eb3d b767 2ebb
00000140: 5740 62bd 0c62 733d 9832 663d 6171 5c3d
00000150: c64f 65bd 2736 113d 7fc1 7fba b7c0 ab3d
00000160: 68d4 d83d 16c1 a33d 409c 20bd 49dc a93c
00000170: e3ba ca3d 0cb4 353d 7985 063d 1b7d 28bc
00000180: 83fb 103d 15a3 a6bc d0ed d63c 2e3b 1ebd
00000190: a0e3 7d3d c299 53bd 52e7 ea3c e88e 4c3d
000001a0: ba91 9abc 5c05 1e3d 51d3 1e3d 96a3 a23d
000001b0: 4124 33bd 1ee1 2abd ff9c e43c 4425 d1bc
000001c0: e521 943d 9bc3 8d3d 3f8a c2bc cf80 a7bc
000001d0: b0e9 df3d 7d11 d63b ff1d d63d ad5c cf3d
000001e0: 675e ad3c 2363 7abd b5fa 543d 5bb7 cdbc
000001f0: 6fcf 49bd f731 1b3d f3b7 ce3c ac6f c63c
00000200: c136 03bd d568 ca3d 2984 c53d 4b9d 723d
00000210: fbf9 b43d 3679 ea3c 7935 803b 0c76 a9bc
00000220: f462 d33d 47ad b63d 4f66 123d ff6f 56bc
00000230: 266e 6abd 8c70 f63c 6793 8f3d 9c07 2c3d
00000240: 3b4b 8a3d ad4d f23c 6a70 19bd 3f77 853d
00000250: da2d 8e3c ad73 733d 56aa 9f3c bd73 3cbd
00000260: 643c 03bd 63ea 3e3d a5e1 6d3c 7cea ef3d
00000270: 59b2 803d e569 f43c d967 e83c 3fd1 33bd
00000280: 66a4 733c 4ff8 1c3d 2c49 763d 63a6 343d
00000290: 5987 373d ce86 d73c e3bc 4cbd 2d5d e63d
000002a0: 12e0 a93d ad37 7f3d 924b 83bc adbf 293d
000002b0: a00f 573d 3b04 953c 8caa a23c d11c 2f3d
000002c0: 2346 023d a7cb b63c b05c db3a 6b49 f6bc
000002d0: 2926 3dbd dce8 f03c 7f74 e0bc 15d6 fa3d
000002e0: 0cfc 75bd 223a 2fbd 56c6 0fbc 3e85 683d
000002f0: 9a0b b33d 9867 cf3d ec6a a63d bca5 263d
00000300: 5012 bb3c 21ee e8bc 5f77 dcbc 5165 1c3d
00000310: 8119 a93d 7a99 ad3c 4602 963d 6058 81bd
00000320: 9647 0a3d 240f 503b f2d6 b4bc adda 99bc
00000330: d3a3 3f3d 904b 273d e0bc c6bc 89a0 e03d
00000340: cf57 f3bb 3717 843d d358 a93c 624b 553c
00000350: 9b14 b93d d6e5 df3d d971 bb3b 752e 9c3d
00000360: a7aa 553d 5385 2fbd e57b 42bc 6c24 b83d
00000370: 7089 713d defd 443d c8f2 873c ca0f 6d3d
00000380: ed7d b1bc 3f3f 9f3d 3edb 153d a7b8 df3c
00000390: c7b7 043d 1a37 a53d 1219 28bd 930c 45bd
000003a0: 3a59 ed3c 84fb f93b 76cd e0bc faaf 863c
000003b0: 2174 893d 61fd bd3d 8a7a 833c 88d3 54bb
000003c0: 82bf e43d 9a5c f13d 974c 08bd bab8 ad3d
000003d0: 892f 393d ecd3 ec3d a48e 803d ec5f 9f3d
000003e0: ebef 72bd 3674 b03c 1845 683c f135 263d
000003f0: 983b d33d f307 f43c 9f04 28bd a342 c33d
0.02206467 0.028207298 0.042600863 0.100903876 0.02957952 0.09166369 0.014196695 0.014617827
-0.017469784 0.072508626 -0.01831583 -0.0029989304 0.047554176 0.038318228 0.02749952 0.03703182
0.0055641406 0.052630536 -0.048389077 -0.0134651745 0.07441313 0.039053436 -0.027605005 0.046612374
0.056869548 0.038776983 0.059409995 -0.024051001 0.048609443 0.08154127 0.08609814 -0.013657021
-0.00021267863 0.052421004 0.011219858 0.037377752 0.02055227 0.053090613 -0.061126765 -0.04698581
0.07036555 0.021264134 0.014398109 0.008563631 -0.055153552 0.123685196 -0.03326149 0.11326538
0.111245036 -0.035014845 -0.03731927 0.042891316 0.038668636 0.08784502 0.020740103 0.030594433
0.057802573 0.08048618 -0.057698485 0.04952543 0.011013599 0.05384096 0.016210075 -0.038315527
0.041766945 0.009562854 0.06668982 0.06126148 0.015168 0.017958153 0.016146757 0.05729179
0.024946842 0.06656878 -0.0032401914 0.08556953 0.054855984 0.067940265 0.11495776 -0.0026612112
-0.05523714 0.059419677 0.056200594 0.053819064 -0.05598428 0.035452034 -0.0009756311 0.08386367
0.10587388 0.079958126 -0.03921151 0.020734923 0.09898927 0.04436116 0.032842133 -0.010283734
0.03539611 -0.020341435 0.026236445 -0.038630657 0.06198466 -0.051660307 0.028674755 0.049940974
-0.018868316 0.03857933 0.038775746 0.07941358 -0.043735746 -0.041718595 0.027906893 -0.025530465
0.07233027 0.069220744 -0.023747561 -0.020447163 0.10933244 0.0065328465 0.1045494 0.101250984
0.021163179 -0.0611297 0.051996905 -0.025111845 -0.04927009 0.037889447 0.025234198 0.024223171
-0.03203464 0.098832764 0.09644348 0.059232038 0.088367425 0.028622251 0.0039126244 -0.020686172
0.10321608 0.08919769 0.0357421 -0.013088225 -0.057233952 0.030082963 0.07010537 0.041999444
0.0675263 0.029578054 -0.037460722 0.06516885 0.017355848 0.05943649 0.019490402 -0.046008814
-0.032040015 0.046610247 0.01451913 0.11714646 0.06284017 0.02983565 0.02836983 -0.043900725
0.014870739 0.038322743 0.060128376 0.04410399 0.044806812 0.026309397 -0.049984824 0.112482406
0.08294691 0.062308956 -0.016027246 0.041442562 0.052505136 0.018190494 0.019856714 0.04275209
0.03180517 0.022313906 0.0016735997 -0.030064305 -0.04617897 0.029407911 -0.0273993 0.12247864
-0.060054824 -0.04278005 -0.008775314 0.056767695 0.08742447 0.10127181 0.081258625 0.0406854
0.02283588 -0.028433861 -0.02691239 0.03818256 0.082568176 0.021191347 0.073246524 -0.06315684
0.033759676 0.0031747306 -0.02207515 -0.01878103 0.046787094 0.040843546 -0.024259984 0.1096812
-0.007426239 0.064497404 0.020672238 0.013018461 0.09037133 0.109325096 0.005720359 0.076260485
0.0521647 -0.042851757 -0.011870359 0.08991322 0.05896896 0.04809367 0.01659526 0.057876386
-0.021666491 0.07775735 0.03658604 0.027309729 0.032401826 0.080671504 -0.041039534 -0.048107695
0.02897321 0.00762886 -0.027441721 0.016441334 0.06711603 0.09276844 0.016049642 -0.0032474715
0.1116934 0.117852405 -0.033276167 0.084824994 0.04521135 0.115638584 0.062772065 0.077819675
-0.059310835 0.021539789 0.0141766295 0.040578786 0.10314101 0.029788947 -0.041020032 0.09534194

logits.bias f4 [5]
00000000: 15b5 cabc 5e41 af3d 5508 103c 52ed 8f3d
00000010: 534c bebe
-0.02474455 0.0855739 0.008791049 0.07027687 -0.37167606
